#map = affine_map<(d0, d1, d2, d3) -> (d0, d1, d3)>
#map1 = affine_map<(d0, d1, d2, d3) -> (d0, d1, d2, d3)>
module @module {
  util.global private @__auto.token_embd.weight = #stream.parameter.named<"model"::"token_embd.weight"> : tensor<128256x4096xf16>
  util.global private @__auto.blk.0.attn_norm.weight = #stream.parameter.named<"model"::"blk.0.attn_norm.weight"> : tensor<4096xf32>
  util.global private @__auto.blk.0.attn_q.weight = #stream.parameter.named<"model"::"blk.0.attn_q.weight"> : tensor<4096x4096xf16>
  util.global private @__auto.blk.0.attn_k.weight = #stream.parameter.named<"model"::"blk.0.attn_k.weight"> : tensor<1024x4096xf16>
  util.global private @__auto.blk.0.attn_v.weight = #stream.parameter.named<"model"::"blk.0.attn_v.weight"> : tensor<1024x4096xf16>
  util.global private @__auto.blk.0.attn_output.weight = #stream.parameter.named<"model"::"blk.0.attn_output.weight"> : tensor<4096x4096xf16>
  util.global private @__auto.blk.0.ffn_norm.weight = #stream.parameter.named<"model"::"blk.0.ffn_norm.weight"> : tensor<4096xf32>
  util.global private @__auto.blk.0.ffn_gate.weight = #stream.parameter.named<"model"::"blk.0.ffn_gate.weight"> : tensor<14336x4096xf16>
  util.global private @__auto.blk.0.ffn_up.weight = #stream.parameter.named<"model"::"blk.0.ffn_up.weight"> : tensor<14336x4096xf16>
  util.global private @__auto.blk.0.ffn_down.weight = #stream.parameter.named<"model"::"blk.0.ffn_down.weight"> : tensor<4096x14336xf16>
  util.global private @__auto.blk.1.attn_norm.weight = #stream.parameter.named<"model"::"blk.1.attn_norm.weight"> : tensor<4096xf32>
  util.global private @__auto.blk.1.attn_q.weight = #stream.parameter.named<"model"::"blk.1.attn_q.weight"> : tensor<4096x4096xf16>
  util.global private @__auto.blk.1.attn_k.weight = #stream.parameter.named<"model"::"blk.1.attn_k.weight"> : tensor<1024x4096xf16>
  util.global private @__auto.blk.1.attn_v.weight = #stream.parameter.named<"model"::"blk.1.attn_v.weight"> : tensor<1024x4096xf16>
  util.global private @__auto.blk.1.attn_output.weight = #stream.parameter.named<"model"::"blk.1.attn_output.weight"> : tensor<4096x4096xf16>
  util.global private @__auto.blk.1.ffn_norm.weight = #stream.parameter.named<"model"::"blk.1.ffn_norm.weight"> : tensor<4096xf32>
  util.global private @__auto.blk.1.ffn_gate.weight = #stream.parameter.named<"model"::"blk.1.ffn_gate.weight"> : tensor<14336x4096xf16>
  util.global private @__auto.blk.1.ffn_up.weight = #stream.parameter.named<"model"::"blk.1.ffn_up.weight"> : tensor<14336x4096xf16>
  util.global private @__auto.blk.1.ffn_down.weight = #stream.parameter.named<"model"::"blk.1.ffn_down.weight"> : tensor<4096x14336xf16>
  util.global private @__auto.blk.2.attn_norm.weight = #stream.parameter.named<"model"::"blk.2.attn_norm.weight"> : tensor<4096xf32>
  util.global private @__auto.blk.2.attn_q.weight = #stream.parameter.named<"model"::"blk.2.attn_q.weight"> : tensor<4096x4096xf16>
  util.global private @__auto.blk.2.attn_k.weight = #stream.parameter.named<"model"::"blk.2.attn_k.weight"> : tensor<1024x4096xf16>
  util.global private @__auto.blk.2.attn_v.weight = #stream.parameter.named<"model"::"blk.2.attn_v.weight"> : tensor<1024x4096xf16>
  util.global private @__auto.blk.2.attn_output.weight = #stream.parameter.named<"model"::"blk.2.attn_output.weight"> : tensor<4096x4096xf16>
  util.global private @__auto.blk.2.ffn_norm.weight = #stream.parameter.named<"model"::"blk.2.ffn_norm.weight"> : tensor<4096xf32>
  util.global private @__auto.blk.2.ffn_gate.weight = #stream.parameter.named<"model"::"blk.2.ffn_gate.weight"> : tensor<14336x4096xf16>
  util.global private @__auto.blk.2.ffn_up.weight = #stream.parameter.named<"model"::"blk.2.ffn_up.weight"> : tensor<14336x4096xf16>
  util.global private @__auto.blk.2.ffn_down.weight = #stream.parameter.named<"model"::"blk.2.ffn_down.weight"> : tensor<4096x14336xf16>
  util.global private @__auto.blk.3.attn_norm.weight = #stream.parameter.named<"model"::"blk.3.attn_norm.weight"> : tensor<4096xf32>
  util.global private @__auto.blk.3.attn_q.weight = #stream.parameter.named<"model"::"blk.3.attn_q.weight"> : tensor<4096x4096xf16>
  util.global private @__auto.blk.3.attn_k.weight = #stream.parameter.named<"model"::"blk.3.attn_k.weight"> : tensor<1024x4096xf16>
  util.global private @__auto.blk.3.attn_v.weight = #stream.parameter.named<"model"::"blk.3.attn_v.weight"> : tensor<1024x4096xf16>
  util.global private @__auto.blk.3.attn_output.weight = #stream.parameter.named<"model"::"blk.3.attn_output.weight"> : tensor<4096x4096xf16>
  util.global private @__auto.blk.3.ffn_norm.weight = #stream.parameter.named<"model"::"blk.3.ffn_norm.weight"> : tensor<4096xf32>
  util.global private @__auto.blk.3.ffn_gate.weight = #stream.parameter.named<"model"::"blk.3.ffn_gate.weight"> : tensor<14336x4096xf16>
  util.global private @__auto.blk.3.ffn_up.weight = #stream.parameter.named<"model"::"blk.3.ffn_up.weight"> : tensor<14336x4096xf16>
  util.global private @__auto.blk.3.ffn_down.weight = #stream.parameter.named<"model"::"blk.3.ffn_down.weight"> : tensor<4096x14336xf16>
  util.global private @__auto.blk.4.attn_norm.weight = #stream.parameter.named<"model"::"blk.4.attn_norm.weight"> : tensor<4096xf32>
  util.global private @__auto.blk.4.attn_q.weight = #stream.parameter.named<"model"::"blk.4.attn_q.weight"> : tensor<4096x4096xf16>
  util.global private @__auto.blk.4.attn_k.weight = #stream.parameter.named<"model"::"blk.4.attn_k.weight"> : tensor<1024x4096xf16>
  util.global private @__auto.blk.4.attn_v.weight = #stream.parameter.named<"model"::"blk.4.attn_v.weight"> : tensor<1024x4096xf16>
  util.global private @__auto.blk.4.attn_output.weight = #stream.parameter.named<"model"::"blk.4.attn_output.weight"> : tensor<4096x4096xf16>
  util.global private @__auto.blk.4.ffn_norm.weight = #stream.parameter.named<"model"::"blk.4.ffn_norm.weight"> : tensor<4096xf32>
  util.global private @__auto.blk.4.ffn_gate.weight = #stream.parameter.named<"model"::"blk.4.ffn_gate.weight"> : tensor<14336x4096xf16>
  util.global private @__auto.blk.4.ffn_up.weight = #stream.parameter.named<"model"::"blk.4.ffn_up.weight"> : tensor<14336x4096xf16>
  util.global private @__auto.blk.4.ffn_down.weight = #stream.parameter.named<"model"::"blk.4.ffn_down.weight"> : tensor<4096x14336xf16>
  util.global private @__auto.blk.5.attn_norm.weight = #stream.parameter.named<"model"::"blk.5.attn_norm.weight"> : tensor<4096xf32>
  util.global private @__auto.blk.5.attn_q.weight = #stream.parameter.named<"model"::"blk.5.attn_q.weight"> : tensor<4096x4096xf16>
  util.global private @__auto.blk.5.attn_k.weight = #stream.parameter.named<"model"::"blk.5.attn_k.weight"> : tensor<1024x4096xf16>
  util.global private @__auto.blk.5.attn_v.weight = #stream.parameter.named<"model"::"blk.5.attn_v.weight"> : tensor<1024x4096xf16>
  util.global private @__auto.blk.5.attn_output.weight = #stream.parameter.named<"model"::"blk.5.attn_output.weight"> : tensor<4096x4096xf16>
  util.global private @__auto.blk.5.ffn_norm.weight = #stream.parameter.named<"model"::"blk.5.ffn_norm.weight"> : tensor<4096xf32>
  util.global private @__auto.blk.5.ffn_gate.weight = #stream.parameter.named<"model"::"blk.5.ffn_gate.weight"> : tensor<14336x4096xf16>
  util.global private @__auto.blk.5.ffn_up.weight = #stream.parameter.named<"model"::"blk.5.ffn_up.weight"> : tensor<14336x4096xf16>
  util.global private @__auto.blk.5.ffn_down.weight = #stream.parameter.named<"model"::"blk.5.ffn_down.weight"> : tensor<4096x14336xf16>
  util.global private @__auto.blk.6.attn_norm.weight = #stream.parameter.named<"model"::"blk.6.attn_norm.weight"> : tensor<4096xf32>
  util.global private @__auto.blk.6.attn_q.weight = #stream.parameter.named<"model"::"blk.6.attn_q.weight"> : tensor<4096x4096xf16>
  util.global private @__auto.blk.6.attn_k.weight = #stream.parameter.named<"model"::"blk.6.attn_k.weight"> : tensor<1024x4096xf16>
  util.global private @__auto.blk.6.attn_v.weight = #stream.parameter.named<"model"::"blk.6.attn_v.weight"> : tensor<1024x4096xf16>
  util.global private @__auto.blk.6.attn_output.weight = #stream.parameter.named<"model"::"blk.6.attn_output.weight"> : tensor<4096x4096xf16>
  util.global private @__auto.blk.6.ffn_norm.weight = #stream.parameter.named<"model"::"blk.6.ffn_norm.weight"> : tensor<4096xf32>
  util.global private @__auto.blk.6.ffn_gate.weight = #stream.parameter.named<"model"::"blk.6.ffn_gate.weight"> : tensor<14336x4096xf16>
  util.global private @__auto.blk.6.ffn_up.weight = #stream.parameter.named<"model"::"blk.6.ffn_up.weight"> : tensor<14336x4096xf16>
  util.global private @__auto.blk.6.ffn_down.weight = #stream.parameter.named<"model"::"blk.6.ffn_down.weight"> : tensor<4096x14336xf16>
  util.global private @__auto.blk.7.attn_norm.weight = #stream.parameter.named<"model"::"blk.7.attn_norm.weight"> : tensor<4096xf32>
  util.global private @__auto.blk.7.attn_q.weight = #stream.parameter.named<"model"::"blk.7.attn_q.weight"> : tensor<4096x4096xf16>
  util.global private @__auto.blk.7.attn_k.weight = #stream.parameter.named<"model"::"blk.7.attn_k.weight"> : tensor<1024x4096xf16>
  util.global private @__auto.blk.7.attn_v.weight = #stream.parameter.named<"model"::"blk.7.attn_v.weight"> : tensor<1024x4096xf16>
  util.global private @__auto.blk.7.attn_output.weight = #stream.parameter.named<"model"::"blk.7.attn_output.weight"> : tensor<4096x4096xf16>
  util.global private @__auto.blk.7.ffn_norm.weight = #stream.parameter.named<"model"::"blk.7.ffn_norm.weight"> : tensor<4096xf32>
  util.global private @__auto.blk.7.ffn_gate.weight = #stream.parameter.named<"model"::"blk.7.ffn_gate.weight"> : tensor<14336x4096xf16>
  util.global private @__auto.blk.7.ffn_up.weight = #stream.parameter.named<"model"::"blk.7.ffn_up.weight"> : tensor<14336x4096xf16>
  util.global private @__auto.blk.7.ffn_down.weight = #stream.parameter.named<"model"::"blk.7.ffn_down.weight"> : tensor<4096x14336xf16>
  util.global private @__auto.blk.8.attn_norm.weight = #stream.parameter.named<"model"::"blk.8.attn_norm.weight"> : tensor<4096xf32>
  util.global private @__auto.blk.8.attn_q.weight = #stream.parameter.named<"model"::"blk.8.attn_q.weight"> : tensor<4096x4096xf16>
  util.global private @__auto.blk.8.attn_k.weight = #stream.parameter.named<"model"::"blk.8.attn_k.weight"> : tensor<1024x4096xf16>
  util.global private @__auto.blk.8.attn_v.weight = #stream.parameter.named<"model"::"blk.8.attn_v.weight"> : tensor<1024x4096xf16>
  util.global private @__auto.blk.8.attn_output.weight = #stream.parameter.named<"model"::"blk.8.attn_output.weight"> : tensor<4096x4096xf16>
  util.global private @__auto.blk.8.ffn_norm.weight = #stream.parameter.named<"model"::"blk.8.ffn_norm.weight"> : tensor<4096xf32>
  util.global private @__auto.blk.8.ffn_gate.weight = #stream.parameter.named<"model"::"blk.8.ffn_gate.weight"> : tensor<14336x4096xf16>
  util.global private @__auto.blk.8.ffn_up.weight = #stream.parameter.named<"model"::"blk.8.ffn_up.weight"> : tensor<14336x4096xf16>
  util.global private @__auto.blk.8.ffn_down.weight = #stream.parameter.named<"model"::"blk.8.ffn_down.weight"> : tensor<4096x14336xf16>
  util.global private @__auto.blk.9.attn_norm.weight = #stream.parameter.named<"model"::"blk.9.attn_norm.weight"> : tensor<4096xf32>
  util.global private @__auto.blk.9.attn_q.weight = #stream.parameter.named<"model"::"blk.9.attn_q.weight"> : tensor<4096x4096xf16>
  util.global private @__auto.blk.9.attn_k.weight = #stream.parameter.named<"model"::"blk.9.attn_k.weight"> : tensor<1024x4096xf16>
  util.global private @__auto.blk.9.attn_v.weight = #stream.parameter.named<"model"::"blk.9.attn_v.weight"> : tensor<1024x4096xf16>
  util.global private @__auto.blk.9.attn_output.weight = #stream.parameter.named<"model"::"blk.9.attn_output.weight"> : tensor<4096x4096xf16>
  util.global private @__auto.blk.9.ffn_norm.weight = #stream.parameter.named<"model"::"blk.9.ffn_norm.weight"> : tensor<4096xf32>
  util.global private @__auto.blk.9.ffn_gate.weight = #stream.parameter.named<"model"::"blk.9.ffn_gate.weight"> : tensor<14336x4096xf16>
  util.global private @__auto.blk.9.ffn_up.weight = #stream.parameter.named<"model"::"blk.9.ffn_up.weight"> : tensor<14336x4096xf16>
  util.global private @__auto.blk.9.ffn_down.weight = #stream.parameter.named<"model"::"blk.9.ffn_down.weight"> : tensor<4096x14336xf16>
  util.global private @__auto.blk.10.attn_norm.weight = #stream.parameter.named<"model"::"blk.10.attn_norm.weight"> : tensor<4096xf32>
  util.global private @__auto.blk.10.attn_q.weight = #stream.parameter.named<"model"::"blk.10.attn_q.weight"> : tensor<4096x4096xf16>
  util.global private @__auto.blk.10.attn_k.weight = #stream.parameter.named<"model"::"blk.10.attn_k.weight"> : tensor<1024x4096xf16>
  util.global private @__auto.blk.10.attn_v.weight = #stream.parameter.named<"model"::"blk.10.attn_v.weight"> : tensor<1024x4096xf16>
  util.global private @__auto.blk.10.attn_output.weight = #stream.parameter.named<"model"::"blk.10.attn_output.weight"> : tensor<4096x4096xf16>
  util.global private @__auto.blk.10.ffn_norm.weight = #stream.parameter.named<"model"::"blk.10.ffn_norm.weight"> : tensor<4096xf32>
  util.global private @__auto.blk.10.ffn_gate.weight = #stream.parameter.named<"model"::"blk.10.ffn_gate.weight"> : tensor<14336x4096xf16>
  util.global private @__auto.blk.10.ffn_up.weight = #stream.parameter.named<"model"::"blk.10.ffn_up.weight"> : tensor<14336x4096xf16>
  util.global private @__auto.blk.10.ffn_down.weight = #stream.parameter.named<"model"::"blk.10.ffn_down.weight"> : tensor<4096x14336xf16>
  util.global private @__auto.blk.11.attn_norm.weight = #stream.parameter.named<"model"::"blk.11.attn_norm.weight"> : tensor<4096xf32>
  util.global private @__auto.blk.11.attn_q.weight = #stream.parameter.named<"model"::"blk.11.attn_q.weight"> : tensor<4096x4096xf16>
  util.global private @__auto.blk.11.attn_k.weight = #stream.parameter.named<"model"::"blk.11.attn_k.weight"> : tensor<1024x4096xf16>
  util.global private @__auto.blk.11.attn_v.weight = #stream.parameter.named<"model"::"blk.11.attn_v.weight"> : tensor<1024x4096xf16>
  util.global private @__auto.blk.11.attn_output.weight = #stream.parameter.named<"model"::"blk.11.attn_output.weight"> : tensor<4096x4096xf16>
  util.global private @__auto.blk.11.ffn_norm.weight = #stream.parameter.named<"model"::"blk.11.ffn_norm.weight"> : tensor<4096xf32>
  util.global private @__auto.blk.11.ffn_gate.weight = #stream.parameter.named<"model"::"blk.11.ffn_gate.weight"> : tensor<14336x4096xf16>
  util.global private @__auto.blk.11.ffn_up.weight = #stream.parameter.named<"model"::"blk.11.ffn_up.weight"> : tensor<14336x4096xf16>
  util.global private @__auto.blk.11.ffn_down.weight = #stream.parameter.named<"model"::"blk.11.ffn_down.weight"> : tensor<4096x14336xf16>
  util.global private @__auto.blk.12.attn_norm.weight = #stream.parameter.named<"model"::"blk.12.attn_norm.weight"> : tensor<4096xf32>
  util.global private @__auto.blk.12.attn_q.weight = #stream.parameter.named<"model"::"blk.12.attn_q.weight"> : tensor<4096x4096xf16>
  util.global private @__auto.blk.12.attn_k.weight = #stream.parameter.named<"model"::"blk.12.attn_k.weight"> : tensor<1024x4096xf16>
  util.global private @__auto.blk.12.attn_v.weight = #stream.parameter.named<"model"::"blk.12.attn_v.weight"> : tensor<1024x4096xf16>
  util.global private @__auto.blk.12.attn_output.weight = #stream.parameter.named<"model"::"blk.12.attn_output.weight"> : tensor<4096x4096xf16>
  util.global private @__auto.blk.12.ffn_norm.weight = #stream.parameter.named<"model"::"blk.12.ffn_norm.weight"> : tensor<4096xf32>
  util.global private @__auto.blk.12.ffn_gate.weight = #stream.parameter.named<"model"::"blk.12.ffn_gate.weight"> : tensor<14336x4096xf16>
  util.global private @__auto.blk.12.ffn_up.weight = #stream.parameter.named<"model"::"blk.12.ffn_up.weight"> : tensor<14336x4096xf16>
  util.global private @__auto.blk.12.ffn_down.weight = #stream.parameter.named<"model"::"blk.12.ffn_down.weight"> : tensor<4096x14336xf16>
  util.global private @__auto.blk.13.attn_norm.weight = #stream.parameter.named<"model"::"blk.13.attn_norm.weight"> : tensor<4096xf32>
  util.global private @__auto.blk.13.attn_q.weight = #stream.parameter.named<"model"::"blk.13.attn_q.weight"> : tensor<4096x4096xf16>
  util.global private @__auto.blk.13.attn_k.weight = #stream.parameter.named<"model"::"blk.13.attn_k.weight"> : tensor<1024x4096xf16>
  util.global private @__auto.blk.13.attn_v.weight = #stream.parameter.named<"model"::"blk.13.attn_v.weight"> : tensor<1024x4096xf16>
  util.global private @__auto.blk.13.attn_output.weight = #stream.parameter.named<"model"::"blk.13.attn_output.weight"> : tensor<4096x4096xf16>
  util.global private @__auto.blk.13.ffn_norm.weight = #stream.parameter.named<"model"::"blk.13.ffn_norm.weight"> : tensor<4096xf32>
  util.global private @__auto.blk.13.ffn_gate.weight = #stream.parameter.named<"model"::"blk.13.ffn_gate.weight"> : tensor<14336x4096xf16>
  util.global private @__auto.blk.13.ffn_up.weight = #stream.parameter.named<"model"::"blk.13.ffn_up.weight"> : tensor<14336x4096xf16>
  util.global private @__auto.blk.13.ffn_down.weight = #stream.parameter.named<"model"::"blk.13.ffn_down.weight"> : tensor<4096x14336xf16>
  util.global private @__auto.blk.14.attn_norm.weight = #stream.parameter.named<"model"::"blk.14.attn_norm.weight"> : tensor<4096xf32>
  util.global private @__auto.blk.14.attn_q.weight = #stream.parameter.named<"model"::"blk.14.attn_q.weight"> : tensor<4096x4096xf16>
  util.global private @__auto.blk.14.attn_k.weight = #stream.parameter.named<"model"::"blk.14.attn_k.weight"> : tensor<1024x4096xf16>
  util.global private @__auto.blk.14.attn_v.weight = #stream.parameter.named<"model"::"blk.14.attn_v.weight"> : tensor<1024x4096xf16>
  util.global private @__auto.blk.14.attn_output.weight = #stream.parameter.named<"model"::"blk.14.attn_output.weight"> : tensor<4096x4096xf16>
  util.global private @__auto.blk.14.ffn_norm.weight = #stream.parameter.named<"model"::"blk.14.ffn_norm.weight"> : tensor<4096xf32>
  util.global private @__auto.blk.14.ffn_gate.weight = #stream.parameter.named<"model"::"blk.14.ffn_gate.weight"> : tensor<14336x4096xf16>
  util.global private @__auto.blk.14.ffn_up.weight = #stream.parameter.named<"model"::"blk.14.ffn_up.weight"> : tensor<14336x4096xf16>
  util.global private @__auto.blk.14.ffn_down.weight = #stream.parameter.named<"model"::"blk.14.ffn_down.weight"> : tensor<4096x14336xf16>
  util.global private @__auto.blk.15.attn_norm.weight = #stream.parameter.named<"model"::"blk.15.attn_norm.weight"> : tensor<4096xf32>
  util.global private @__auto.blk.15.attn_q.weight = #stream.parameter.named<"model"::"blk.15.attn_q.weight"> : tensor<4096x4096xf16>
  util.global private @__auto.blk.15.attn_k.weight = #stream.parameter.named<"model"::"blk.15.attn_k.weight"> : tensor<1024x4096xf16>
  util.global private @__auto.blk.15.attn_v.weight = #stream.parameter.named<"model"::"blk.15.attn_v.weight"> : tensor<1024x4096xf16>
  util.global private @__auto.blk.15.attn_output.weight = #stream.parameter.named<"model"::"blk.15.attn_output.weight"> : tensor<4096x4096xf16>
  util.global private @__auto.blk.15.ffn_norm.weight = #stream.parameter.named<"model"::"blk.15.ffn_norm.weight"> : tensor<4096xf32>
  util.global private @__auto.blk.15.ffn_gate.weight = #stream.parameter.named<"model"::"blk.15.ffn_gate.weight"> : tensor<14336x4096xf16>
  util.global private @__auto.blk.15.ffn_up.weight = #stream.parameter.named<"model"::"blk.15.ffn_up.weight"> : tensor<14336x4096xf16>
  util.global private @__auto.blk.15.ffn_down.weight = #stream.parameter.named<"model"::"blk.15.ffn_down.weight"> : tensor<4096x14336xf16>
  util.global private @__auto.blk.16.attn_norm.weight = #stream.parameter.named<"model"::"blk.16.attn_norm.weight"> : tensor<4096xf32>
  util.global private @__auto.blk.16.attn_q.weight = #stream.parameter.named<"model"::"blk.16.attn_q.weight"> : tensor<4096x4096xf16>
  util.global private @__auto.blk.16.attn_k.weight = #stream.parameter.named<"model"::"blk.16.attn_k.weight"> : tensor<1024x4096xf16>
  util.global private @__auto.blk.16.attn_v.weight = #stream.parameter.named<"model"::"blk.16.attn_v.weight"> : tensor<1024x4096xf16>
  util.global private @__auto.blk.16.attn_output.weight = #stream.parameter.named<"model"::"blk.16.attn_output.weight"> : tensor<4096x4096xf16>
  util.global private @__auto.blk.16.ffn_norm.weight = #stream.parameter.named<"model"::"blk.16.ffn_norm.weight"> : tensor<4096xf32>
  util.global private @__auto.blk.16.ffn_gate.weight = #stream.parameter.named<"model"::"blk.16.ffn_gate.weight"> : tensor<14336x4096xf16>
  util.global private @__auto.blk.16.ffn_up.weight = #stream.parameter.named<"model"::"blk.16.ffn_up.weight"> : tensor<14336x4096xf16>
  util.global private @__auto.blk.16.ffn_down.weight = #stream.parameter.named<"model"::"blk.16.ffn_down.weight"> : tensor<4096x14336xf16>
  util.global private @__auto.blk.17.attn_norm.weight = #stream.parameter.named<"model"::"blk.17.attn_norm.weight"> : tensor<4096xf32>
  util.global private @__auto.blk.17.attn_q.weight = #stream.parameter.named<"model"::"blk.17.attn_q.weight"> : tensor<4096x4096xf16>
  util.global private @__auto.blk.17.attn_k.weight = #stream.parameter.named<"model"::"blk.17.attn_k.weight"> : tensor<1024x4096xf16>
  util.global private @__auto.blk.17.attn_v.weight = #stream.parameter.named<"model"::"blk.17.attn_v.weight"> : tensor<1024x4096xf16>
  util.global private @__auto.blk.17.attn_output.weight = #stream.parameter.named<"model"::"blk.17.attn_output.weight"> : tensor<4096x4096xf16>
  util.global private @__auto.blk.17.ffn_norm.weight = #stream.parameter.named<"model"::"blk.17.ffn_norm.weight"> : tensor<4096xf32>
  util.global private @__auto.blk.17.ffn_gate.weight = #stream.parameter.named<"model"::"blk.17.ffn_gate.weight"> : tensor<14336x4096xf16>
  util.global private @__auto.blk.17.ffn_up.weight = #stream.parameter.named<"model"::"blk.17.ffn_up.weight"> : tensor<14336x4096xf16>
  util.global private @__auto.blk.17.ffn_down.weight = #stream.parameter.named<"model"::"blk.17.ffn_down.weight"> : tensor<4096x14336xf16>
  util.global private @__auto.blk.18.attn_norm.weight = #stream.parameter.named<"model"::"blk.18.attn_norm.weight"> : tensor<4096xf32>
  util.global private @__auto.blk.18.attn_q.weight = #stream.parameter.named<"model"::"blk.18.attn_q.weight"> : tensor<4096x4096xf16>
  util.global private @__auto.blk.18.attn_k.weight = #stream.parameter.named<"model"::"blk.18.attn_k.weight"> : tensor<1024x4096xf16>
  util.global private @__auto.blk.18.attn_v.weight = #stream.parameter.named<"model"::"blk.18.attn_v.weight"> : tensor<1024x4096xf16>
  util.global private @__auto.blk.18.attn_output.weight = #stream.parameter.named<"model"::"blk.18.attn_output.weight"> : tensor<4096x4096xf16>
  util.global private @__auto.blk.18.ffn_norm.weight = #stream.parameter.named<"model"::"blk.18.ffn_norm.weight"> : tensor<4096xf32>
  util.global private @__auto.blk.18.ffn_gate.weight = #stream.parameter.named<"model"::"blk.18.ffn_gate.weight"> : tensor<14336x4096xf16>
  util.global private @__auto.blk.18.ffn_up.weight = #stream.parameter.named<"model"::"blk.18.ffn_up.weight"> : tensor<14336x4096xf16>
  util.global private @__auto.blk.18.ffn_down.weight = #stream.parameter.named<"model"::"blk.18.ffn_down.weight"> : tensor<4096x14336xf16>
  util.global private @__auto.blk.19.attn_norm.weight = #stream.parameter.named<"model"::"blk.19.attn_norm.weight"> : tensor<4096xf32>
  util.global private @__auto.blk.19.attn_q.weight = #stream.parameter.named<"model"::"blk.19.attn_q.weight"> : tensor<4096x4096xf16>
  util.global private @__auto.blk.19.attn_k.weight = #stream.parameter.named<"model"::"blk.19.attn_k.weight"> : tensor<1024x4096xf16>
  util.global private @__auto.blk.19.attn_v.weight = #stream.parameter.named<"model"::"blk.19.attn_v.weight"> : tensor<1024x4096xf16>
  util.global private @__auto.blk.19.attn_output.weight = #stream.parameter.named<"model"::"blk.19.attn_output.weight"> : tensor<4096x4096xf16>
  util.global private @__auto.blk.19.ffn_norm.weight = #stream.parameter.named<"model"::"blk.19.ffn_norm.weight"> : tensor<4096xf32>
  util.global private @__auto.blk.19.ffn_gate.weight = #stream.parameter.named<"model"::"blk.19.ffn_gate.weight"> : tensor<14336x4096xf16>
  util.global private @__auto.blk.19.ffn_up.weight = #stream.parameter.named<"model"::"blk.19.ffn_up.weight"> : tensor<14336x4096xf16>
  util.global private @__auto.blk.19.ffn_down.weight = #stream.parameter.named<"model"::"blk.19.ffn_down.weight"> : tensor<4096x14336xf16>
  util.global private @__auto.blk.20.attn_norm.weight = #stream.parameter.named<"model"::"blk.20.attn_norm.weight"> : tensor<4096xf32>
  util.global private @__auto.blk.20.attn_q.weight = #stream.parameter.named<"model"::"blk.20.attn_q.weight"> : tensor<4096x4096xf16>
  util.global private @__auto.blk.20.attn_k.weight = #stream.parameter.named<"model"::"blk.20.attn_k.weight"> : tensor<1024x4096xf16>
  util.global private @__auto.blk.20.attn_v.weight = #stream.parameter.named<"model"::"blk.20.attn_v.weight"> : tensor<1024x4096xf16>
  util.global private @__auto.blk.20.attn_output.weight = #stream.parameter.named<"model"::"blk.20.attn_output.weight"> : tensor<4096x4096xf16>
  util.global private @__auto.blk.20.ffn_norm.weight = #stream.parameter.named<"model"::"blk.20.ffn_norm.weight"> : tensor<4096xf32>
  util.global private @__auto.blk.20.ffn_gate.weight = #stream.parameter.named<"model"::"blk.20.ffn_gate.weight"> : tensor<14336x4096xf16>
  util.global private @__auto.blk.20.ffn_up.weight = #stream.parameter.named<"model"::"blk.20.ffn_up.weight"> : tensor<14336x4096xf16>
  util.global private @__auto.blk.20.ffn_down.weight = #stream.parameter.named<"model"::"blk.20.ffn_down.weight"> : tensor<4096x14336xf16>
  util.global private @__auto.blk.21.attn_norm.weight = #stream.parameter.named<"model"::"blk.21.attn_norm.weight"> : tensor<4096xf32>
  util.global private @__auto.blk.21.attn_q.weight = #stream.parameter.named<"model"::"blk.21.attn_q.weight"> : tensor<4096x4096xf16>
  util.global private @__auto.blk.21.attn_k.weight = #stream.parameter.named<"model"::"blk.21.attn_k.weight"> : tensor<1024x4096xf16>
  util.global private @__auto.blk.21.attn_v.weight = #stream.parameter.named<"model"::"blk.21.attn_v.weight"> : tensor<1024x4096xf16>
  util.global private @__auto.blk.21.attn_output.weight = #stream.parameter.named<"model"::"blk.21.attn_output.weight"> : tensor<4096x4096xf16>
  util.global private @__auto.blk.21.ffn_norm.weight = #stream.parameter.named<"model"::"blk.21.ffn_norm.weight"> : tensor<4096xf32>
  util.global private @__auto.blk.21.ffn_gate.weight = #stream.parameter.named<"model"::"blk.21.ffn_gate.weight"> : tensor<14336x4096xf16>
  util.global private @__auto.blk.21.ffn_up.weight = #stream.parameter.named<"model"::"blk.21.ffn_up.weight"> : tensor<14336x4096xf16>
  util.global private @__auto.blk.21.ffn_down.weight = #stream.parameter.named<"model"::"blk.21.ffn_down.weight"> : tensor<4096x14336xf16>
  util.global private @__auto.blk.22.attn_norm.weight = #stream.parameter.named<"model"::"blk.22.attn_norm.weight"> : tensor<4096xf32>
  util.global private @__auto.blk.22.attn_q.weight = #stream.parameter.named<"model"::"blk.22.attn_q.weight"> : tensor<4096x4096xf16>
  util.global private @__auto.blk.22.attn_k.weight = #stream.parameter.named<"model"::"blk.22.attn_k.weight"> : tensor<1024x4096xf16>
  util.global private @__auto.blk.22.attn_v.weight = #stream.parameter.named<"model"::"blk.22.attn_v.weight"> : tensor<1024x4096xf16>
  util.global private @__auto.blk.22.attn_output.weight = #stream.parameter.named<"model"::"blk.22.attn_output.weight"> : tensor<4096x4096xf16>
  util.global private @__auto.blk.22.ffn_norm.weight = #stream.parameter.named<"model"::"blk.22.ffn_norm.weight"> : tensor<4096xf32>
  util.global private @__auto.blk.22.ffn_gate.weight = #stream.parameter.named<"model"::"blk.22.ffn_gate.weight"> : tensor<14336x4096xf16>
  util.global private @__auto.blk.22.ffn_up.weight = #stream.parameter.named<"model"::"blk.22.ffn_up.weight"> : tensor<14336x4096xf16>
  util.global private @__auto.blk.22.ffn_down.weight = #stream.parameter.named<"model"::"blk.22.ffn_down.weight"> : tensor<4096x14336xf16>
  util.global private @__auto.blk.23.attn_norm.weight = #stream.parameter.named<"model"::"blk.23.attn_norm.weight"> : tensor<4096xf32>
  util.global private @__auto.blk.23.attn_q.weight = #stream.parameter.named<"model"::"blk.23.attn_q.weight"> : tensor<4096x4096xf16>
  util.global private @__auto.blk.23.attn_k.weight = #stream.parameter.named<"model"::"blk.23.attn_k.weight"> : tensor<1024x4096xf16>
  util.global private @__auto.blk.23.attn_v.weight = #stream.parameter.named<"model"::"blk.23.attn_v.weight"> : tensor<1024x4096xf16>
  util.global private @__auto.blk.23.attn_output.weight = #stream.parameter.named<"model"::"blk.23.attn_output.weight"> : tensor<4096x4096xf16>
  util.global private @__auto.blk.23.ffn_norm.weight = #stream.parameter.named<"model"::"blk.23.ffn_norm.weight"> : tensor<4096xf32>
  util.global private @__auto.blk.23.ffn_gate.weight = #stream.parameter.named<"model"::"blk.23.ffn_gate.weight"> : tensor<14336x4096xf16>
  util.global private @__auto.blk.23.ffn_up.weight = #stream.parameter.named<"model"::"blk.23.ffn_up.weight"> : tensor<14336x4096xf16>
  util.global private @__auto.blk.23.ffn_down.weight = #stream.parameter.named<"model"::"blk.23.ffn_down.weight"> : tensor<4096x14336xf16>
  util.global private @__auto.blk.24.attn_norm.weight = #stream.parameter.named<"model"::"blk.24.attn_norm.weight"> : tensor<4096xf32>
  util.global private @__auto.blk.24.attn_q.weight = #stream.parameter.named<"model"::"blk.24.attn_q.weight"> : tensor<4096x4096xf16>
  util.global private @__auto.blk.24.attn_k.weight = #stream.parameter.named<"model"::"blk.24.attn_k.weight"> : tensor<1024x4096xf16>
  util.global private @__auto.blk.24.attn_v.weight = #stream.parameter.named<"model"::"blk.24.attn_v.weight"> : tensor<1024x4096xf16>
  util.global private @__auto.blk.24.attn_output.weight = #stream.parameter.named<"model"::"blk.24.attn_output.weight"> : tensor<4096x4096xf16>
  util.global private @__auto.blk.24.ffn_norm.weight = #stream.parameter.named<"model"::"blk.24.ffn_norm.weight"> : tensor<4096xf32>
  util.global private @__auto.blk.24.ffn_gate.weight = #stream.parameter.named<"model"::"blk.24.ffn_gate.weight"> : tensor<14336x4096xf16>
  util.global private @__auto.blk.24.ffn_up.weight = #stream.parameter.named<"model"::"blk.24.ffn_up.weight"> : tensor<14336x4096xf16>
  util.global private @__auto.blk.24.ffn_down.weight = #stream.parameter.named<"model"::"blk.24.ffn_down.weight"> : tensor<4096x14336xf16>
  util.global private @__auto.blk.25.attn_norm.weight = #stream.parameter.named<"model"::"blk.25.attn_norm.weight"> : tensor<4096xf32>
  util.global private @__auto.blk.25.attn_q.weight = #stream.parameter.named<"model"::"blk.25.attn_q.weight"> : tensor<4096x4096xf16>
  util.global private @__auto.blk.25.attn_k.weight = #stream.parameter.named<"model"::"blk.25.attn_k.weight"> : tensor<1024x4096xf16>
  util.global private @__auto.blk.25.attn_v.weight = #stream.parameter.named<"model"::"blk.25.attn_v.weight"> : tensor<1024x4096xf16>
  util.global private @__auto.blk.25.attn_output.weight = #stream.parameter.named<"model"::"blk.25.attn_output.weight"> : tensor<4096x4096xf16>
  util.global private @__auto.blk.25.ffn_norm.weight = #stream.parameter.named<"model"::"blk.25.ffn_norm.weight"> : tensor<4096xf32>
  util.global private @__auto.blk.25.ffn_gate.weight = #stream.parameter.named<"model"::"blk.25.ffn_gate.weight"> : tensor<14336x4096xf16>
  util.global private @__auto.blk.25.ffn_up.weight = #stream.parameter.named<"model"::"blk.25.ffn_up.weight"> : tensor<14336x4096xf16>
  util.global private @__auto.blk.25.ffn_down.weight = #stream.parameter.named<"model"::"blk.25.ffn_down.weight"> : tensor<4096x14336xf16>
  util.global private @__auto.blk.26.attn_norm.weight = #stream.parameter.named<"model"::"blk.26.attn_norm.weight"> : tensor<4096xf32>
  util.global private @__auto.blk.26.attn_q.weight = #stream.parameter.named<"model"::"blk.26.attn_q.weight"> : tensor<4096x4096xf16>
  util.global private @__auto.blk.26.attn_k.weight = #stream.parameter.named<"model"::"blk.26.attn_k.weight"> : tensor<1024x4096xf16>
  util.global private @__auto.blk.26.attn_v.weight = #stream.parameter.named<"model"::"blk.26.attn_v.weight"> : tensor<1024x4096xf16>
  util.global private @__auto.blk.26.attn_output.weight = #stream.parameter.named<"model"::"blk.26.attn_output.weight"> : tensor<4096x4096xf16>
  util.global private @__auto.blk.26.ffn_norm.weight = #stream.parameter.named<"model"::"blk.26.ffn_norm.weight"> : tensor<4096xf32>
  util.global private @__auto.blk.26.ffn_gate.weight = #stream.parameter.named<"model"::"blk.26.ffn_gate.weight"> : tensor<14336x4096xf16>
  util.global private @__auto.blk.26.ffn_up.weight = #stream.parameter.named<"model"::"blk.26.ffn_up.weight"> : tensor<14336x4096xf16>
  util.global private @__auto.blk.26.ffn_down.weight = #stream.parameter.named<"model"::"blk.26.ffn_down.weight"> : tensor<4096x14336xf16>
  util.global private @__auto.blk.27.attn_norm.weight = #stream.parameter.named<"model"::"blk.27.attn_norm.weight"> : tensor<4096xf32>
  util.global private @__auto.blk.27.attn_q.weight = #stream.parameter.named<"model"::"blk.27.attn_q.weight"> : tensor<4096x4096xf16>
  util.global private @__auto.blk.27.attn_k.weight = #stream.parameter.named<"model"::"blk.27.attn_k.weight"> : tensor<1024x4096xf16>
  util.global private @__auto.blk.27.attn_v.weight = #stream.parameter.named<"model"::"blk.27.attn_v.weight"> : tensor<1024x4096xf16>
  util.global private @__auto.blk.27.attn_output.weight = #stream.parameter.named<"model"::"blk.27.attn_output.weight"> : tensor<4096x4096xf16>
  util.global private @__auto.blk.27.ffn_norm.weight = #stream.parameter.named<"model"::"blk.27.ffn_norm.weight"> : tensor<4096xf32>
  util.global private @__auto.blk.27.ffn_gate.weight = #stream.parameter.named<"model"::"blk.27.ffn_gate.weight"> : tensor<14336x4096xf16>
  util.global private @__auto.blk.27.ffn_up.weight = #stream.parameter.named<"model"::"blk.27.ffn_up.weight"> : tensor<14336x4096xf16>
  util.global private @__auto.blk.27.ffn_down.weight = #stream.parameter.named<"model"::"blk.27.ffn_down.weight"> : tensor<4096x14336xf16>
  util.global private @__auto.blk.28.attn_norm.weight = #stream.parameter.named<"model"::"blk.28.attn_norm.weight"> : tensor<4096xf32>
  util.global private @__auto.blk.28.attn_q.weight = #stream.parameter.named<"model"::"blk.28.attn_q.weight"> : tensor<4096x4096xf16>
  util.global private @__auto.blk.28.attn_k.weight = #stream.parameter.named<"model"::"blk.28.attn_k.weight"> : tensor<1024x4096xf16>
  util.global private @__auto.blk.28.attn_v.weight = #stream.parameter.named<"model"::"blk.28.attn_v.weight"> : tensor<1024x4096xf16>
  util.global private @__auto.blk.28.attn_output.weight = #stream.parameter.named<"model"::"blk.28.attn_output.weight"> : tensor<4096x4096xf16>
  util.global private @__auto.blk.28.ffn_norm.weight = #stream.parameter.named<"model"::"blk.28.ffn_norm.weight"> : tensor<4096xf32>
  util.global private @__auto.blk.28.ffn_gate.weight = #stream.parameter.named<"model"::"blk.28.ffn_gate.weight"> : tensor<14336x4096xf16>
  util.global private @__auto.blk.28.ffn_up.weight = #stream.parameter.named<"model"::"blk.28.ffn_up.weight"> : tensor<14336x4096xf16>
  util.global private @__auto.blk.28.ffn_down.weight = #stream.parameter.named<"model"::"blk.28.ffn_down.weight"> : tensor<4096x14336xf16>
  util.global private @__auto.blk.29.attn_norm.weight = #stream.parameter.named<"model"::"blk.29.attn_norm.weight"> : tensor<4096xf32>
  util.global private @__auto.blk.29.attn_q.weight = #stream.parameter.named<"model"::"blk.29.attn_q.weight"> : tensor<4096x4096xf16>
  util.global private @__auto.blk.29.attn_k.weight = #stream.parameter.named<"model"::"blk.29.attn_k.weight"> : tensor<1024x4096xf16>
  util.global private @__auto.blk.29.attn_v.weight = #stream.parameter.named<"model"::"blk.29.attn_v.weight"> : tensor<1024x4096xf16>
  util.global private @__auto.blk.29.attn_output.weight = #stream.parameter.named<"model"::"blk.29.attn_output.weight"> : tensor<4096x4096xf16>
  util.global private @__auto.blk.29.ffn_norm.weight = #stream.parameter.named<"model"::"blk.29.ffn_norm.weight"> : tensor<4096xf32>
  util.global private @__auto.blk.29.ffn_gate.weight = #stream.parameter.named<"model"::"blk.29.ffn_gate.weight"> : tensor<14336x4096xf16>
  util.global private @__auto.blk.29.ffn_up.weight = #stream.parameter.named<"model"::"blk.29.ffn_up.weight"> : tensor<14336x4096xf16>
  util.global private @__auto.blk.29.ffn_down.weight = #stream.parameter.named<"model"::"blk.29.ffn_down.weight"> : tensor<4096x14336xf16>
  util.global private @__auto.blk.30.attn_norm.weight = #stream.parameter.named<"model"::"blk.30.attn_norm.weight"> : tensor<4096xf32>
  util.global private @__auto.blk.30.attn_q.weight = #stream.parameter.named<"model"::"blk.30.attn_q.weight"> : tensor<4096x4096xf16>
  util.global private @__auto.blk.30.attn_k.weight = #stream.parameter.named<"model"::"blk.30.attn_k.weight"> : tensor<1024x4096xf16>
  util.global private @__auto.blk.30.attn_v.weight = #stream.parameter.named<"model"::"blk.30.attn_v.weight"> : tensor<1024x4096xf16>
  util.global private @__auto.blk.30.attn_output.weight = #stream.parameter.named<"model"::"blk.30.attn_output.weight"> : tensor<4096x4096xf16>
  util.global private @__auto.blk.30.ffn_norm.weight = #stream.parameter.named<"model"::"blk.30.ffn_norm.weight"> : tensor<4096xf32>
  util.global private @__auto.blk.30.ffn_gate.weight = #stream.parameter.named<"model"::"blk.30.ffn_gate.weight"> : tensor<14336x4096xf16>
  util.global private @__auto.blk.30.ffn_up.weight = #stream.parameter.named<"model"::"blk.30.ffn_up.weight"> : tensor<14336x4096xf16>
  util.global private @__auto.blk.30.ffn_down.weight = #stream.parameter.named<"model"::"blk.30.ffn_down.weight"> : tensor<4096x14336xf16>
  util.global private @__auto.blk.31.attn_norm.weight = #stream.parameter.named<"model"::"blk.31.attn_norm.weight"> : tensor<4096xf32>
  util.global private @__auto.blk.31.attn_q.weight = #stream.parameter.named<"model"::"blk.31.attn_q.weight"> : tensor<4096x4096xf16>
  util.global private @__auto.blk.31.attn_k.weight = #stream.parameter.named<"model"::"blk.31.attn_k.weight"> : tensor<1024x4096xf16>
  util.global private @__auto.blk.31.attn_v.weight = #stream.parameter.named<"model"::"blk.31.attn_v.weight"> : tensor<1024x4096xf16>
  util.global private @__auto.blk.31.attn_output.weight = #stream.parameter.named<"model"::"blk.31.attn_output.weight"> : tensor<4096x4096xf16>
  util.global private @__auto.blk.31.ffn_norm.weight = #stream.parameter.named<"model"::"blk.31.ffn_norm.weight"> : tensor<4096xf32>
  util.global private @__auto.blk.31.ffn_gate.weight = #stream.parameter.named<"model"::"blk.31.ffn_gate.weight"> : tensor<14336x4096xf16>
  util.global private @__auto.blk.31.ffn_up.weight = #stream.parameter.named<"model"::"blk.31.ffn_up.weight"> : tensor<14336x4096xf16>
  util.global private @__auto.blk.31.ffn_down.weight = #stream.parameter.named<"model"::"blk.31.ffn_down.weight"> : tensor<4096x14336xf16>
  util.global private @__auto.output_norm.weight = #stream.parameter.named<"model"::"output_norm.weight"> : tensor<4096xf32>
  util.global private @__auto.output.weight = #stream.parameter.named<"model"::"output.weight"> : tensor<128256x4096xf16>
  func.func @prefill_bs4(%arg0: !torch.vtensor<[4,?],si64>, %arg1: !torch.vtensor<[4],si64>, %arg2: !torch.vtensor<[4,?],si64>, %arg3: !torch.tensor<[?,2097152],f16>) -> !torch.vtensor<[4,?,128256],f16> attributes {torch.assume_strict_symbolic_shapes} {
    %__auto.token_embd.weight = util.global.load @__auto.token_embd.weight : tensor<128256x4096xf16>
    %0 = torch_c.from_builtin_tensor %__auto.token_embd.weight : tensor<128256x4096xf16> -> !torch.vtensor<[128256,4096],f16>
    %__auto.blk.0.attn_norm.weight = util.global.load @__auto.blk.0.attn_norm.weight : tensor<4096xf32>
    %1 = torch_c.from_builtin_tensor %__auto.blk.0.attn_norm.weight : tensor<4096xf32> -> !torch.vtensor<[4096],f32>
    %__auto.blk.0.attn_q.weight = util.global.load @__auto.blk.0.attn_q.weight : tensor<4096x4096xf16>
    %2 = torch_c.from_builtin_tensor %__auto.blk.0.attn_q.weight : tensor<4096x4096xf16> -> !torch.vtensor<[4096,4096],f16>
    %__auto.blk.0.attn_k.weight = util.global.load @__auto.blk.0.attn_k.weight : tensor<1024x4096xf16>
    %3 = torch_c.from_builtin_tensor %__auto.blk.0.attn_k.weight : tensor<1024x4096xf16> -> !torch.vtensor<[1024,4096],f16>
    %__auto.blk.0.attn_v.weight = util.global.load @__auto.blk.0.attn_v.weight : tensor<1024x4096xf16>
    %4 = torch_c.from_builtin_tensor %__auto.blk.0.attn_v.weight : tensor<1024x4096xf16> -> !torch.vtensor<[1024,4096],f16>
    %__auto.blk.0.attn_output.weight = util.global.load @__auto.blk.0.attn_output.weight : tensor<4096x4096xf16>
    %5 = torch_c.from_builtin_tensor %__auto.blk.0.attn_output.weight : tensor<4096x4096xf16> -> !torch.vtensor<[4096,4096],f16>
    %__auto.blk.0.ffn_norm.weight = util.global.load @__auto.blk.0.ffn_norm.weight : tensor<4096xf32>
    %6 = torch_c.from_builtin_tensor %__auto.blk.0.ffn_norm.weight : tensor<4096xf32> -> !torch.vtensor<[4096],f32>
    %__auto.blk.0.ffn_gate.weight = util.global.load @__auto.blk.0.ffn_gate.weight : tensor<14336x4096xf16>
    %7 = torch_c.from_builtin_tensor %__auto.blk.0.ffn_gate.weight : tensor<14336x4096xf16> -> !torch.vtensor<[14336,4096],f16>
    %__auto.blk.0.ffn_up.weight = util.global.load @__auto.blk.0.ffn_up.weight : tensor<14336x4096xf16>
    %8 = torch_c.from_builtin_tensor %__auto.blk.0.ffn_up.weight : tensor<14336x4096xf16> -> !torch.vtensor<[14336,4096],f16>
    %__auto.blk.0.ffn_down.weight = util.global.load @__auto.blk.0.ffn_down.weight : tensor<4096x14336xf16>
    %9 = torch_c.from_builtin_tensor %__auto.blk.0.ffn_down.weight : tensor<4096x14336xf16> -> !torch.vtensor<[4096,14336],f16>
    %__auto.blk.1.attn_norm.weight = util.global.load @__auto.blk.1.attn_norm.weight : tensor<4096xf32>
    %10 = torch_c.from_builtin_tensor %__auto.blk.1.attn_norm.weight : tensor<4096xf32> -> !torch.vtensor<[4096],f32>
    %__auto.blk.1.attn_q.weight = util.global.load @__auto.blk.1.attn_q.weight : tensor<4096x4096xf16>
    %11 = torch_c.from_builtin_tensor %__auto.blk.1.attn_q.weight : tensor<4096x4096xf16> -> !torch.vtensor<[4096,4096],f16>
    %__auto.blk.1.attn_k.weight = util.global.load @__auto.blk.1.attn_k.weight : tensor<1024x4096xf16>
    %12 = torch_c.from_builtin_tensor %__auto.blk.1.attn_k.weight : tensor<1024x4096xf16> -> !torch.vtensor<[1024,4096],f16>
    %__auto.blk.1.attn_v.weight = util.global.load @__auto.blk.1.attn_v.weight : tensor<1024x4096xf16>
    %13 = torch_c.from_builtin_tensor %__auto.blk.1.attn_v.weight : tensor<1024x4096xf16> -> !torch.vtensor<[1024,4096],f16>
    %__auto.blk.1.attn_output.weight = util.global.load @__auto.blk.1.attn_output.weight : tensor<4096x4096xf16>
    %14 = torch_c.from_builtin_tensor %__auto.blk.1.attn_output.weight : tensor<4096x4096xf16> -> !torch.vtensor<[4096,4096],f16>
    %__auto.blk.1.ffn_norm.weight = util.global.load @__auto.blk.1.ffn_norm.weight : tensor<4096xf32>
    %15 = torch_c.from_builtin_tensor %__auto.blk.1.ffn_norm.weight : tensor<4096xf32> -> !torch.vtensor<[4096],f32>
    %__auto.blk.1.ffn_gate.weight = util.global.load @__auto.blk.1.ffn_gate.weight : tensor<14336x4096xf16>
    %16 = torch_c.from_builtin_tensor %__auto.blk.1.ffn_gate.weight : tensor<14336x4096xf16> -> !torch.vtensor<[14336,4096],f16>
    %__auto.blk.1.ffn_up.weight = util.global.load @__auto.blk.1.ffn_up.weight : tensor<14336x4096xf16>
    %17 = torch_c.from_builtin_tensor %__auto.blk.1.ffn_up.weight : tensor<14336x4096xf16> -> !torch.vtensor<[14336,4096],f16>
    %__auto.blk.1.ffn_down.weight = util.global.load @__auto.blk.1.ffn_down.weight : tensor<4096x14336xf16>
    %18 = torch_c.from_builtin_tensor %__auto.blk.1.ffn_down.weight : tensor<4096x14336xf16> -> !torch.vtensor<[4096,14336],f16>
    %__auto.blk.2.attn_norm.weight = util.global.load @__auto.blk.2.attn_norm.weight : tensor<4096xf32>
    %19 = torch_c.from_builtin_tensor %__auto.blk.2.attn_norm.weight : tensor<4096xf32> -> !torch.vtensor<[4096],f32>
    %__auto.blk.2.attn_q.weight = util.global.load @__auto.blk.2.attn_q.weight : tensor<4096x4096xf16>
    %20 = torch_c.from_builtin_tensor %__auto.blk.2.attn_q.weight : tensor<4096x4096xf16> -> !torch.vtensor<[4096,4096],f16>
    %__auto.blk.2.attn_k.weight = util.global.load @__auto.blk.2.attn_k.weight : tensor<1024x4096xf16>
    %21 = torch_c.from_builtin_tensor %__auto.blk.2.attn_k.weight : tensor<1024x4096xf16> -> !torch.vtensor<[1024,4096],f16>
    %__auto.blk.2.attn_v.weight = util.global.load @__auto.blk.2.attn_v.weight : tensor<1024x4096xf16>
    %22 = torch_c.from_builtin_tensor %__auto.blk.2.attn_v.weight : tensor<1024x4096xf16> -> !torch.vtensor<[1024,4096],f16>
    %__auto.blk.2.attn_output.weight = util.global.load @__auto.blk.2.attn_output.weight : tensor<4096x4096xf16>
    %23 = torch_c.from_builtin_tensor %__auto.blk.2.attn_output.weight : tensor<4096x4096xf16> -> !torch.vtensor<[4096,4096],f16>
    %__auto.blk.2.ffn_norm.weight = util.global.load @__auto.blk.2.ffn_norm.weight : tensor<4096xf32>
    %24 = torch_c.from_builtin_tensor %__auto.blk.2.ffn_norm.weight : tensor<4096xf32> -> !torch.vtensor<[4096],f32>
    %__auto.blk.2.ffn_gate.weight = util.global.load @__auto.blk.2.ffn_gate.weight : tensor<14336x4096xf16>
    %25 = torch_c.from_builtin_tensor %__auto.blk.2.ffn_gate.weight : tensor<14336x4096xf16> -> !torch.vtensor<[14336,4096],f16>
    %__auto.blk.2.ffn_up.weight = util.global.load @__auto.blk.2.ffn_up.weight : tensor<14336x4096xf16>
    %26 = torch_c.from_builtin_tensor %__auto.blk.2.ffn_up.weight : tensor<14336x4096xf16> -> !torch.vtensor<[14336,4096],f16>
    %__auto.blk.2.ffn_down.weight = util.global.load @__auto.blk.2.ffn_down.weight : tensor<4096x14336xf16>
    %27 = torch_c.from_builtin_tensor %__auto.blk.2.ffn_down.weight : tensor<4096x14336xf16> -> !torch.vtensor<[4096,14336],f16>
    %__auto.blk.3.attn_norm.weight = util.global.load @__auto.blk.3.attn_norm.weight : tensor<4096xf32>
    %28 = torch_c.from_builtin_tensor %__auto.blk.3.attn_norm.weight : tensor<4096xf32> -> !torch.vtensor<[4096],f32>
    %__auto.blk.3.attn_q.weight = util.global.load @__auto.blk.3.attn_q.weight : tensor<4096x4096xf16>
    %29 = torch_c.from_builtin_tensor %__auto.blk.3.attn_q.weight : tensor<4096x4096xf16> -> !torch.vtensor<[4096,4096],f16>
    %__auto.blk.3.attn_k.weight = util.global.load @__auto.blk.3.attn_k.weight : tensor<1024x4096xf16>
    %30 = torch_c.from_builtin_tensor %__auto.blk.3.attn_k.weight : tensor<1024x4096xf16> -> !torch.vtensor<[1024,4096],f16>
    %__auto.blk.3.attn_v.weight = util.global.load @__auto.blk.3.attn_v.weight : tensor<1024x4096xf16>
    %31 = torch_c.from_builtin_tensor %__auto.blk.3.attn_v.weight : tensor<1024x4096xf16> -> !torch.vtensor<[1024,4096],f16>
    %__auto.blk.3.attn_output.weight = util.global.load @__auto.blk.3.attn_output.weight : tensor<4096x4096xf16>
    %32 = torch_c.from_builtin_tensor %__auto.blk.3.attn_output.weight : tensor<4096x4096xf16> -> !torch.vtensor<[4096,4096],f16>
    %__auto.blk.3.ffn_norm.weight = util.global.load @__auto.blk.3.ffn_norm.weight : tensor<4096xf32>
    %33 = torch_c.from_builtin_tensor %__auto.blk.3.ffn_norm.weight : tensor<4096xf32> -> !torch.vtensor<[4096],f32>
    %__auto.blk.3.ffn_gate.weight = util.global.load @__auto.blk.3.ffn_gate.weight : tensor<14336x4096xf16>
    %34 = torch_c.from_builtin_tensor %__auto.blk.3.ffn_gate.weight : tensor<14336x4096xf16> -> !torch.vtensor<[14336,4096],f16>
    %__auto.blk.3.ffn_up.weight = util.global.load @__auto.blk.3.ffn_up.weight : tensor<14336x4096xf16>
    %35 = torch_c.from_builtin_tensor %__auto.blk.3.ffn_up.weight : tensor<14336x4096xf16> -> !torch.vtensor<[14336,4096],f16>
    %__auto.blk.3.ffn_down.weight = util.global.load @__auto.blk.3.ffn_down.weight : tensor<4096x14336xf16>
    %36 = torch_c.from_builtin_tensor %__auto.blk.3.ffn_down.weight : tensor<4096x14336xf16> -> !torch.vtensor<[4096,14336],f16>
    %__auto.blk.4.attn_norm.weight = util.global.load @__auto.blk.4.attn_norm.weight : tensor<4096xf32>
    %37 = torch_c.from_builtin_tensor %__auto.blk.4.attn_norm.weight : tensor<4096xf32> -> !torch.vtensor<[4096],f32>
    %__auto.blk.4.attn_q.weight = util.global.load @__auto.blk.4.attn_q.weight : tensor<4096x4096xf16>
    %38 = torch_c.from_builtin_tensor %__auto.blk.4.attn_q.weight : tensor<4096x4096xf16> -> !torch.vtensor<[4096,4096],f16>
    %__auto.blk.4.attn_k.weight = util.global.load @__auto.blk.4.attn_k.weight : tensor<1024x4096xf16>
    %39 = torch_c.from_builtin_tensor %__auto.blk.4.attn_k.weight : tensor<1024x4096xf16> -> !torch.vtensor<[1024,4096],f16>
    %__auto.blk.4.attn_v.weight = util.global.load @__auto.blk.4.attn_v.weight : tensor<1024x4096xf16>
    %40 = torch_c.from_builtin_tensor %__auto.blk.4.attn_v.weight : tensor<1024x4096xf16> -> !torch.vtensor<[1024,4096],f16>
    %__auto.blk.4.attn_output.weight = util.global.load @__auto.blk.4.attn_output.weight : tensor<4096x4096xf16>
    %41 = torch_c.from_builtin_tensor %__auto.blk.4.attn_output.weight : tensor<4096x4096xf16> -> !torch.vtensor<[4096,4096],f16>
    %__auto.blk.4.ffn_norm.weight = util.global.load @__auto.blk.4.ffn_norm.weight : tensor<4096xf32>
    %42 = torch_c.from_builtin_tensor %__auto.blk.4.ffn_norm.weight : tensor<4096xf32> -> !torch.vtensor<[4096],f32>
    %__auto.blk.4.ffn_gate.weight = util.global.load @__auto.blk.4.ffn_gate.weight : tensor<14336x4096xf16>
    %43 = torch_c.from_builtin_tensor %__auto.blk.4.ffn_gate.weight : tensor<14336x4096xf16> -> !torch.vtensor<[14336,4096],f16>
    %__auto.blk.4.ffn_up.weight = util.global.load @__auto.blk.4.ffn_up.weight : tensor<14336x4096xf16>
    %44 = torch_c.from_builtin_tensor %__auto.blk.4.ffn_up.weight : tensor<14336x4096xf16> -> !torch.vtensor<[14336,4096],f16>
    %__auto.blk.4.ffn_down.weight = util.global.load @__auto.blk.4.ffn_down.weight : tensor<4096x14336xf16>
    %45 = torch_c.from_builtin_tensor %__auto.blk.4.ffn_down.weight : tensor<4096x14336xf16> -> !torch.vtensor<[4096,14336],f16>
    %__auto.blk.5.attn_norm.weight = util.global.load @__auto.blk.5.attn_norm.weight : tensor<4096xf32>
    %46 = torch_c.from_builtin_tensor %__auto.blk.5.attn_norm.weight : tensor<4096xf32> -> !torch.vtensor<[4096],f32>
    %__auto.blk.5.attn_q.weight = util.global.load @__auto.blk.5.attn_q.weight : tensor<4096x4096xf16>
    %47 = torch_c.from_builtin_tensor %__auto.blk.5.attn_q.weight : tensor<4096x4096xf16> -> !torch.vtensor<[4096,4096],f16>
    %__auto.blk.5.attn_k.weight = util.global.load @__auto.blk.5.attn_k.weight : tensor<1024x4096xf16>
    %48 = torch_c.from_builtin_tensor %__auto.blk.5.attn_k.weight : tensor<1024x4096xf16> -> !torch.vtensor<[1024,4096],f16>
    %__auto.blk.5.attn_v.weight = util.global.load @__auto.blk.5.attn_v.weight : tensor<1024x4096xf16>
    %49 = torch_c.from_builtin_tensor %__auto.blk.5.attn_v.weight : tensor<1024x4096xf16> -> !torch.vtensor<[1024,4096],f16>
    %__auto.blk.5.attn_output.weight = util.global.load @__auto.blk.5.attn_output.weight : tensor<4096x4096xf16>
    %50 = torch_c.from_builtin_tensor %__auto.blk.5.attn_output.weight : tensor<4096x4096xf16> -> !torch.vtensor<[4096,4096],f16>
    %__auto.blk.5.ffn_norm.weight = util.global.load @__auto.blk.5.ffn_norm.weight : tensor<4096xf32>
    %51 = torch_c.from_builtin_tensor %__auto.blk.5.ffn_norm.weight : tensor<4096xf32> -> !torch.vtensor<[4096],f32>
    %__auto.blk.5.ffn_gate.weight = util.global.load @__auto.blk.5.ffn_gate.weight : tensor<14336x4096xf16>
    %52 = torch_c.from_builtin_tensor %__auto.blk.5.ffn_gate.weight : tensor<14336x4096xf16> -> !torch.vtensor<[14336,4096],f16>
    %__auto.blk.5.ffn_up.weight = util.global.load @__auto.blk.5.ffn_up.weight : tensor<14336x4096xf16>
    %53 = torch_c.from_builtin_tensor %__auto.blk.5.ffn_up.weight : tensor<14336x4096xf16> -> !torch.vtensor<[14336,4096],f16>
    %__auto.blk.5.ffn_down.weight = util.global.load @__auto.blk.5.ffn_down.weight : tensor<4096x14336xf16>
    %54 = torch_c.from_builtin_tensor %__auto.blk.5.ffn_down.weight : tensor<4096x14336xf16> -> !torch.vtensor<[4096,14336],f16>
    %__auto.blk.6.attn_norm.weight = util.global.load @__auto.blk.6.attn_norm.weight : tensor<4096xf32>
    %55 = torch_c.from_builtin_tensor %__auto.blk.6.attn_norm.weight : tensor<4096xf32> -> !torch.vtensor<[4096],f32>
    %__auto.blk.6.attn_q.weight = util.global.load @__auto.blk.6.attn_q.weight : tensor<4096x4096xf16>
    %56 = torch_c.from_builtin_tensor %__auto.blk.6.attn_q.weight : tensor<4096x4096xf16> -> !torch.vtensor<[4096,4096],f16>
    %__auto.blk.6.attn_k.weight = util.global.load @__auto.blk.6.attn_k.weight : tensor<1024x4096xf16>
    %57 = torch_c.from_builtin_tensor %__auto.blk.6.attn_k.weight : tensor<1024x4096xf16> -> !torch.vtensor<[1024,4096],f16>
    %__auto.blk.6.attn_v.weight = util.global.load @__auto.blk.6.attn_v.weight : tensor<1024x4096xf16>
    %58 = torch_c.from_builtin_tensor %__auto.blk.6.attn_v.weight : tensor<1024x4096xf16> -> !torch.vtensor<[1024,4096],f16>
    %__auto.blk.6.attn_output.weight = util.global.load @__auto.blk.6.attn_output.weight : tensor<4096x4096xf16>
    %59 = torch_c.from_builtin_tensor %__auto.blk.6.attn_output.weight : tensor<4096x4096xf16> -> !torch.vtensor<[4096,4096],f16>
    %__auto.blk.6.ffn_norm.weight = util.global.load @__auto.blk.6.ffn_norm.weight : tensor<4096xf32>
    %60 = torch_c.from_builtin_tensor %__auto.blk.6.ffn_norm.weight : tensor<4096xf32> -> !torch.vtensor<[4096],f32>
    %__auto.blk.6.ffn_gate.weight = util.global.load @__auto.blk.6.ffn_gate.weight : tensor<14336x4096xf16>
    %61 = torch_c.from_builtin_tensor %__auto.blk.6.ffn_gate.weight : tensor<14336x4096xf16> -> !torch.vtensor<[14336,4096],f16>
    %__auto.blk.6.ffn_up.weight = util.global.load @__auto.blk.6.ffn_up.weight : tensor<14336x4096xf16>
    %62 = torch_c.from_builtin_tensor %__auto.blk.6.ffn_up.weight : tensor<14336x4096xf16> -> !torch.vtensor<[14336,4096],f16>
    %__auto.blk.6.ffn_down.weight = util.global.load @__auto.blk.6.ffn_down.weight : tensor<4096x14336xf16>
    %63 = torch_c.from_builtin_tensor %__auto.blk.6.ffn_down.weight : tensor<4096x14336xf16> -> !torch.vtensor<[4096,14336],f16>
    %__auto.blk.7.attn_norm.weight = util.global.load @__auto.blk.7.attn_norm.weight : tensor<4096xf32>
    %64 = torch_c.from_builtin_tensor %__auto.blk.7.attn_norm.weight : tensor<4096xf32> -> !torch.vtensor<[4096],f32>
    %__auto.blk.7.attn_q.weight = util.global.load @__auto.blk.7.attn_q.weight : tensor<4096x4096xf16>
    %65 = torch_c.from_builtin_tensor %__auto.blk.7.attn_q.weight : tensor<4096x4096xf16> -> !torch.vtensor<[4096,4096],f16>
    %__auto.blk.7.attn_k.weight = util.global.load @__auto.blk.7.attn_k.weight : tensor<1024x4096xf16>
    %66 = torch_c.from_builtin_tensor %__auto.blk.7.attn_k.weight : tensor<1024x4096xf16> -> !torch.vtensor<[1024,4096],f16>
    %__auto.blk.7.attn_v.weight = util.global.load @__auto.blk.7.attn_v.weight : tensor<1024x4096xf16>
    %67 = torch_c.from_builtin_tensor %__auto.blk.7.attn_v.weight : tensor<1024x4096xf16> -> !torch.vtensor<[1024,4096],f16>
    %__auto.blk.7.attn_output.weight = util.global.load @__auto.blk.7.attn_output.weight : tensor<4096x4096xf16>
    %68 = torch_c.from_builtin_tensor %__auto.blk.7.attn_output.weight : tensor<4096x4096xf16> -> !torch.vtensor<[4096,4096],f16>
    %__auto.blk.7.ffn_norm.weight = util.global.load @__auto.blk.7.ffn_norm.weight : tensor<4096xf32>
    %69 = torch_c.from_builtin_tensor %__auto.blk.7.ffn_norm.weight : tensor<4096xf32> -> !torch.vtensor<[4096],f32>
    %__auto.blk.7.ffn_gate.weight = util.global.load @__auto.blk.7.ffn_gate.weight : tensor<14336x4096xf16>
    %70 = torch_c.from_builtin_tensor %__auto.blk.7.ffn_gate.weight : tensor<14336x4096xf16> -> !torch.vtensor<[14336,4096],f16>
    %__auto.blk.7.ffn_up.weight = util.global.load @__auto.blk.7.ffn_up.weight : tensor<14336x4096xf16>
    %71 = torch_c.from_builtin_tensor %__auto.blk.7.ffn_up.weight : tensor<14336x4096xf16> -> !torch.vtensor<[14336,4096],f16>
    %__auto.blk.7.ffn_down.weight = util.global.load @__auto.blk.7.ffn_down.weight : tensor<4096x14336xf16>
    %72 = torch_c.from_builtin_tensor %__auto.blk.7.ffn_down.weight : tensor<4096x14336xf16> -> !torch.vtensor<[4096,14336],f16>
    %__auto.blk.8.attn_norm.weight = util.global.load @__auto.blk.8.attn_norm.weight : tensor<4096xf32>
    %73 = torch_c.from_builtin_tensor %__auto.blk.8.attn_norm.weight : tensor<4096xf32> -> !torch.vtensor<[4096],f32>
    %__auto.blk.8.attn_q.weight = util.global.load @__auto.blk.8.attn_q.weight : tensor<4096x4096xf16>
    %74 = torch_c.from_builtin_tensor %__auto.blk.8.attn_q.weight : tensor<4096x4096xf16> -> !torch.vtensor<[4096,4096],f16>
    %__auto.blk.8.attn_k.weight = util.global.load @__auto.blk.8.attn_k.weight : tensor<1024x4096xf16>
    %75 = torch_c.from_builtin_tensor %__auto.blk.8.attn_k.weight : tensor<1024x4096xf16> -> !torch.vtensor<[1024,4096],f16>
    %__auto.blk.8.attn_v.weight = util.global.load @__auto.blk.8.attn_v.weight : tensor<1024x4096xf16>
    %76 = torch_c.from_builtin_tensor %__auto.blk.8.attn_v.weight : tensor<1024x4096xf16> -> !torch.vtensor<[1024,4096],f16>
    %__auto.blk.8.attn_output.weight = util.global.load @__auto.blk.8.attn_output.weight : tensor<4096x4096xf16>
    %77 = torch_c.from_builtin_tensor %__auto.blk.8.attn_output.weight : tensor<4096x4096xf16> -> !torch.vtensor<[4096,4096],f16>
    %__auto.blk.8.ffn_norm.weight = util.global.load @__auto.blk.8.ffn_norm.weight : tensor<4096xf32>
    %78 = torch_c.from_builtin_tensor %__auto.blk.8.ffn_norm.weight : tensor<4096xf32> -> !torch.vtensor<[4096],f32>
    %__auto.blk.8.ffn_gate.weight = util.global.load @__auto.blk.8.ffn_gate.weight : tensor<14336x4096xf16>
    %79 = torch_c.from_builtin_tensor %__auto.blk.8.ffn_gate.weight : tensor<14336x4096xf16> -> !torch.vtensor<[14336,4096],f16>
    %__auto.blk.8.ffn_up.weight = util.global.load @__auto.blk.8.ffn_up.weight : tensor<14336x4096xf16>
    %80 = torch_c.from_builtin_tensor %__auto.blk.8.ffn_up.weight : tensor<14336x4096xf16> -> !torch.vtensor<[14336,4096],f16>
    %__auto.blk.8.ffn_down.weight = util.global.load @__auto.blk.8.ffn_down.weight : tensor<4096x14336xf16>
    %81 = torch_c.from_builtin_tensor %__auto.blk.8.ffn_down.weight : tensor<4096x14336xf16> -> !torch.vtensor<[4096,14336],f16>
    %__auto.blk.9.attn_norm.weight = util.global.load @__auto.blk.9.attn_norm.weight : tensor<4096xf32>
    %82 = torch_c.from_builtin_tensor %__auto.blk.9.attn_norm.weight : tensor<4096xf32> -> !torch.vtensor<[4096],f32>
    %__auto.blk.9.attn_q.weight = util.global.load @__auto.blk.9.attn_q.weight : tensor<4096x4096xf16>
    %83 = torch_c.from_builtin_tensor %__auto.blk.9.attn_q.weight : tensor<4096x4096xf16> -> !torch.vtensor<[4096,4096],f16>
    %__auto.blk.9.attn_k.weight = util.global.load @__auto.blk.9.attn_k.weight : tensor<1024x4096xf16>
    %84 = torch_c.from_builtin_tensor %__auto.blk.9.attn_k.weight : tensor<1024x4096xf16> -> !torch.vtensor<[1024,4096],f16>
    %__auto.blk.9.attn_v.weight = util.global.load @__auto.blk.9.attn_v.weight : tensor<1024x4096xf16>
    %85 = torch_c.from_builtin_tensor %__auto.blk.9.attn_v.weight : tensor<1024x4096xf16> -> !torch.vtensor<[1024,4096],f16>
    %__auto.blk.9.attn_output.weight = util.global.load @__auto.blk.9.attn_output.weight : tensor<4096x4096xf16>
    %86 = torch_c.from_builtin_tensor %__auto.blk.9.attn_output.weight : tensor<4096x4096xf16> -> !torch.vtensor<[4096,4096],f16>
    %__auto.blk.9.ffn_norm.weight = util.global.load @__auto.blk.9.ffn_norm.weight : tensor<4096xf32>
    %87 = torch_c.from_builtin_tensor %__auto.blk.9.ffn_norm.weight : tensor<4096xf32> -> !torch.vtensor<[4096],f32>
    %__auto.blk.9.ffn_gate.weight = util.global.load @__auto.blk.9.ffn_gate.weight : tensor<14336x4096xf16>
    %88 = torch_c.from_builtin_tensor %__auto.blk.9.ffn_gate.weight : tensor<14336x4096xf16> -> !torch.vtensor<[14336,4096],f16>
    %__auto.blk.9.ffn_up.weight = util.global.load @__auto.blk.9.ffn_up.weight : tensor<14336x4096xf16>
    %89 = torch_c.from_builtin_tensor %__auto.blk.9.ffn_up.weight : tensor<14336x4096xf16> -> !torch.vtensor<[14336,4096],f16>
    %__auto.blk.9.ffn_down.weight = util.global.load @__auto.blk.9.ffn_down.weight : tensor<4096x14336xf16>
    %90 = torch_c.from_builtin_tensor %__auto.blk.9.ffn_down.weight : tensor<4096x14336xf16> -> !torch.vtensor<[4096,14336],f16>
    %__auto.blk.10.attn_norm.weight = util.global.load @__auto.blk.10.attn_norm.weight : tensor<4096xf32>
    %91 = torch_c.from_builtin_tensor %__auto.blk.10.attn_norm.weight : tensor<4096xf32> -> !torch.vtensor<[4096],f32>
    %__auto.blk.10.attn_q.weight = util.global.load @__auto.blk.10.attn_q.weight : tensor<4096x4096xf16>
    %92 = torch_c.from_builtin_tensor %__auto.blk.10.attn_q.weight : tensor<4096x4096xf16> -> !torch.vtensor<[4096,4096],f16>
    %__auto.blk.10.attn_k.weight = util.global.load @__auto.blk.10.attn_k.weight : tensor<1024x4096xf16>
    %93 = torch_c.from_builtin_tensor %__auto.blk.10.attn_k.weight : tensor<1024x4096xf16> -> !torch.vtensor<[1024,4096],f16>
    %__auto.blk.10.attn_v.weight = util.global.load @__auto.blk.10.attn_v.weight : tensor<1024x4096xf16>
    %94 = torch_c.from_builtin_tensor %__auto.blk.10.attn_v.weight : tensor<1024x4096xf16> -> !torch.vtensor<[1024,4096],f16>
    %__auto.blk.10.attn_output.weight = util.global.load @__auto.blk.10.attn_output.weight : tensor<4096x4096xf16>
    %95 = torch_c.from_builtin_tensor %__auto.blk.10.attn_output.weight : tensor<4096x4096xf16> -> !torch.vtensor<[4096,4096],f16>
    %__auto.blk.10.ffn_norm.weight = util.global.load @__auto.blk.10.ffn_norm.weight : tensor<4096xf32>
    %96 = torch_c.from_builtin_tensor %__auto.blk.10.ffn_norm.weight : tensor<4096xf32> -> !torch.vtensor<[4096],f32>
    %__auto.blk.10.ffn_gate.weight = util.global.load @__auto.blk.10.ffn_gate.weight : tensor<14336x4096xf16>
    %97 = torch_c.from_builtin_tensor %__auto.blk.10.ffn_gate.weight : tensor<14336x4096xf16> -> !torch.vtensor<[14336,4096],f16>
    %__auto.blk.10.ffn_up.weight = util.global.load @__auto.blk.10.ffn_up.weight : tensor<14336x4096xf16>
    %98 = torch_c.from_builtin_tensor %__auto.blk.10.ffn_up.weight : tensor<14336x4096xf16> -> !torch.vtensor<[14336,4096],f16>
    %__auto.blk.10.ffn_down.weight = util.global.load @__auto.blk.10.ffn_down.weight : tensor<4096x14336xf16>
    %99 = torch_c.from_builtin_tensor %__auto.blk.10.ffn_down.weight : tensor<4096x14336xf16> -> !torch.vtensor<[4096,14336],f16>
    %__auto.blk.11.attn_norm.weight = util.global.load @__auto.blk.11.attn_norm.weight : tensor<4096xf32>
    %100 = torch_c.from_builtin_tensor %__auto.blk.11.attn_norm.weight : tensor<4096xf32> -> !torch.vtensor<[4096],f32>
    %__auto.blk.11.attn_q.weight = util.global.load @__auto.blk.11.attn_q.weight : tensor<4096x4096xf16>
    %101 = torch_c.from_builtin_tensor %__auto.blk.11.attn_q.weight : tensor<4096x4096xf16> -> !torch.vtensor<[4096,4096],f16>
    %__auto.blk.11.attn_k.weight = util.global.load @__auto.blk.11.attn_k.weight : tensor<1024x4096xf16>
    %102 = torch_c.from_builtin_tensor %__auto.blk.11.attn_k.weight : tensor<1024x4096xf16> -> !torch.vtensor<[1024,4096],f16>
    %__auto.blk.11.attn_v.weight = util.global.load @__auto.blk.11.attn_v.weight : tensor<1024x4096xf16>
    %103 = torch_c.from_builtin_tensor %__auto.blk.11.attn_v.weight : tensor<1024x4096xf16> -> !torch.vtensor<[1024,4096],f16>
    %__auto.blk.11.attn_output.weight = util.global.load @__auto.blk.11.attn_output.weight : tensor<4096x4096xf16>
    %104 = torch_c.from_builtin_tensor %__auto.blk.11.attn_output.weight : tensor<4096x4096xf16> -> !torch.vtensor<[4096,4096],f16>
    %__auto.blk.11.ffn_norm.weight = util.global.load @__auto.blk.11.ffn_norm.weight : tensor<4096xf32>
    %105 = torch_c.from_builtin_tensor %__auto.blk.11.ffn_norm.weight : tensor<4096xf32> -> !torch.vtensor<[4096],f32>
    %__auto.blk.11.ffn_gate.weight = util.global.load @__auto.blk.11.ffn_gate.weight : tensor<14336x4096xf16>
    %106 = torch_c.from_builtin_tensor %__auto.blk.11.ffn_gate.weight : tensor<14336x4096xf16> -> !torch.vtensor<[14336,4096],f16>
    %__auto.blk.11.ffn_up.weight = util.global.load @__auto.blk.11.ffn_up.weight : tensor<14336x4096xf16>
    %107 = torch_c.from_builtin_tensor %__auto.blk.11.ffn_up.weight : tensor<14336x4096xf16> -> !torch.vtensor<[14336,4096],f16>
    %__auto.blk.11.ffn_down.weight = util.global.load @__auto.blk.11.ffn_down.weight : tensor<4096x14336xf16>
    %108 = torch_c.from_builtin_tensor %__auto.blk.11.ffn_down.weight : tensor<4096x14336xf16> -> !torch.vtensor<[4096,14336],f16>
    %__auto.blk.12.attn_norm.weight = util.global.load @__auto.blk.12.attn_norm.weight : tensor<4096xf32>
    %109 = torch_c.from_builtin_tensor %__auto.blk.12.attn_norm.weight : tensor<4096xf32> -> !torch.vtensor<[4096],f32>
    %__auto.blk.12.attn_q.weight = util.global.load @__auto.blk.12.attn_q.weight : tensor<4096x4096xf16>
    %110 = torch_c.from_builtin_tensor %__auto.blk.12.attn_q.weight : tensor<4096x4096xf16> -> !torch.vtensor<[4096,4096],f16>
    %__auto.blk.12.attn_k.weight = util.global.load @__auto.blk.12.attn_k.weight : tensor<1024x4096xf16>
    %111 = torch_c.from_builtin_tensor %__auto.blk.12.attn_k.weight : tensor<1024x4096xf16> -> !torch.vtensor<[1024,4096],f16>
    %__auto.blk.12.attn_v.weight = util.global.load @__auto.blk.12.attn_v.weight : tensor<1024x4096xf16>
    %112 = torch_c.from_builtin_tensor %__auto.blk.12.attn_v.weight : tensor<1024x4096xf16> -> !torch.vtensor<[1024,4096],f16>
    %__auto.blk.12.attn_output.weight = util.global.load @__auto.blk.12.attn_output.weight : tensor<4096x4096xf16>
    %113 = torch_c.from_builtin_tensor %__auto.blk.12.attn_output.weight : tensor<4096x4096xf16> -> !torch.vtensor<[4096,4096],f16>
    %__auto.blk.12.ffn_norm.weight = util.global.load @__auto.blk.12.ffn_norm.weight : tensor<4096xf32>
    %114 = torch_c.from_builtin_tensor %__auto.blk.12.ffn_norm.weight : tensor<4096xf32> -> !torch.vtensor<[4096],f32>
    %__auto.blk.12.ffn_gate.weight = util.global.load @__auto.blk.12.ffn_gate.weight : tensor<14336x4096xf16>
    %115 = torch_c.from_builtin_tensor %__auto.blk.12.ffn_gate.weight : tensor<14336x4096xf16> -> !torch.vtensor<[14336,4096],f16>
    %__auto.blk.12.ffn_up.weight = util.global.load @__auto.blk.12.ffn_up.weight : tensor<14336x4096xf16>
    %116 = torch_c.from_builtin_tensor %__auto.blk.12.ffn_up.weight : tensor<14336x4096xf16> -> !torch.vtensor<[14336,4096],f16>
    %__auto.blk.12.ffn_down.weight = util.global.load @__auto.blk.12.ffn_down.weight : tensor<4096x14336xf16>
    %117 = torch_c.from_builtin_tensor %__auto.blk.12.ffn_down.weight : tensor<4096x14336xf16> -> !torch.vtensor<[4096,14336],f16>
    %__auto.blk.13.attn_norm.weight = util.global.load @__auto.blk.13.attn_norm.weight : tensor<4096xf32>
    %118 = torch_c.from_builtin_tensor %__auto.blk.13.attn_norm.weight : tensor<4096xf32> -> !torch.vtensor<[4096],f32>
    %__auto.blk.13.attn_q.weight = util.global.load @__auto.blk.13.attn_q.weight : tensor<4096x4096xf16>
    %119 = torch_c.from_builtin_tensor %__auto.blk.13.attn_q.weight : tensor<4096x4096xf16> -> !torch.vtensor<[4096,4096],f16>
    %__auto.blk.13.attn_k.weight = util.global.load @__auto.blk.13.attn_k.weight : tensor<1024x4096xf16>
    %120 = torch_c.from_builtin_tensor %__auto.blk.13.attn_k.weight : tensor<1024x4096xf16> -> !torch.vtensor<[1024,4096],f16>
    %__auto.blk.13.attn_v.weight = util.global.load @__auto.blk.13.attn_v.weight : tensor<1024x4096xf16>
    %121 = torch_c.from_builtin_tensor %__auto.blk.13.attn_v.weight : tensor<1024x4096xf16> -> !torch.vtensor<[1024,4096],f16>
    %__auto.blk.13.attn_output.weight = util.global.load @__auto.blk.13.attn_output.weight : tensor<4096x4096xf16>
    %122 = torch_c.from_builtin_tensor %__auto.blk.13.attn_output.weight : tensor<4096x4096xf16> -> !torch.vtensor<[4096,4096],f16>
    %__auto.blk.13.ffn_norm.weight = util.global.load @__auto.blk.13.ffn_norm.weight : tensor<4096xf32>
    %123 = torch_c.from_builtin_tensor %__auto.blk.13.ffn_norm.weight : tensor<4096xf32> -> !torch.vtensor<[4096],f32>
    %__auto.blk.13.ffn_gate.weight = util.global.load @__auto.blk.13.ffn_gate.weight : tensor<14336x4096xf16>
    %124 = torch_c.from_builtin_tensor %__auto.blk.13.ffn_gate.weight : tensor<14336x4096xf16> -> !torch.vtensor<[14336,4096],f16>
    %__auto.blk.13.ffn_up.weight = util.global.load @__auto.blk.13.ffn_up.weight : tensor<14336x4096xf16>
    %125 = torch_c.from_builtin_tensor %__auto.blk.13.ffn_up.weight : tensor<14336x4096xf16> -> !torch.vtensor<[14336,4096],f16>
    %__auto.blk.13.ffn_down.weight = util.global.load @__auto.blk.13.ffn_down.weight : tensor<4096x14336xf16>
    %126 = torch_c.from_builtin_tensor %__auto.blk.13.ffn_down.weight : tensor<4096x14336xf16> -> !torch.vtensor<[4096,14336],f16>
    %__auto.blk.14.attn_norm.weight = util.global.load @__auto.blk.14.attn_norm.weight : tensor<4096xf32>
    %127 = torch_c.from_builtin_tensor %__auto.blk.14.attn_norm.weight : tensor<4096xf32> -> !torch.vtensor<[4096],f32>
    %__auto.blk.14.attn_q.weight = util.global.load @__auto.blk.14.attn_q.weight : tensor<4096x4096xf16>
    %128 = torch_c.from_builtin_tensor %__auto.blk.14.attn_q.weight : tensor<4096x4096xf16> -> !torch.vtensor<[4096,4096],f16>
    %__auto.blk.14.attn_k.weight = util.global.load @__auto.blk.14.attn_k.weight : tensor<1024x4096xf16>
    %129 = torch_c.from_builtin_tensor %__auto.blk.14.attn_k.weight : tensor<1024x4096xf16> -> !torch.vtensor<[1024,4096],f16>
    %__auto.blk.14.attn_v.weight = util.global.load @__auto.blk.14.attn_v.weight : tensor<1024x4096xf16>
    %130 = torch_c.from_builtin_tensor %__auto.blk.14.attn_v.weight : tensor<1024x4096xf16> -> !torch.vtensor<[1024,4096],f16>
    %__auto.blk.14.attn_output.weight = util.global.load @__auto.blk.14.attn_output.weight : tensor<4096x4096xf16>
    %131 = torch_c.from_builtin_tensor %__auto.blk.14.attn_output.weight : tensor<4096x4096xf16> -> !torch.vtensor<[4096,4096],f16>
    %__auto.blk.14.ffn_norm.weight = util.global.load @__auto.blk.14.ffn_norm.weight : tensor<4096xf32>
    %132 = torch_c.from_builtin_tensor %__auto.blk.14.ffn_norm.weight : tensor<4096xf32> -> !torch.vtensor<[4096],f32>
    %__auto.blk.14.ffn_gate.weight = util.global.load @__auto.blk.14.ffn_gate.weight : tensor<14336x4096xf16>
    %133 = torch_c.from_builtin_tensor %__auto.blk.14.ffn_gate.weight : tensor<14336x4096xf16> -> !torch.vtensor<[14336,4096],f16>
    %__auto.blk.14.ffn_up.weight = util.global.load @__auto.blk.14.ffn_up.weight : tensor<14336x4096xf16>
    %134 = torch_c.from_builtin_tensor %__auto.blk.14.ffn_up.weight : tensor<14336x4096xf16> -> !torch.vtensor<[14336,4096],f16>
    %__auto.blk.14.ffn_down.weight = util.global.load @__auto.blk.14.ffn_down.weight : tensor<4096x14336xf16>
    %135 = torch_c.from_builtin_tensor %__auto.blk.14.ffn_down.weight : tensor<4096x14336xf16> -> !torch.vtensor<[4096,14336],f16>
    %__auto.blk.15.attn_norm.weight = util.global.load @__auto.blk.15.attn_norm.weight : tensor<4096xf32>
    %136 = torch_c.from_builtin_tensor %__auto.blk.15.attn_norm.weight : tensor<4096xf32> -> !torch.vtensor<[4096],f32>
    %__auto.blk.15.attn_q.weight = util.global.load @__auto.blk.15.attn_q.weight : tensor<4096x4096xf16>
    %137 = torch_c.from_builtin_tensor %__auto.blk.15.attn_q.weight : tensor<4096x4096xf16> -> !torch.vtensor<[4096,4096],f16>
    %__auto.blk.15.attn_k.weight = util.global.load @__auto.blk.15.attn_k.weight : tensor<1024x4096xf16>
    %138 = torch_c.from_builtin_tensor %__auto.blk.15.attn_k.weight : tensor<1024x4096xf16> -> !torch.vtensor<[1024,4096],f16>
    %__auto.blk.15.attn_v.weight = util.global.load @__auto.blk.15.attn_v.weight : tensor<1024x4096xf16>
    %139 = torch_c.from_builtin_tensor %__auto.blk.15.attn_v.weight : tensor<1024x4096xf16> -> !torch.vtensor<[1024,4096],f16>
    %__auto.blk.15.attn_output.weight = util.global.load @__auto.blk.15.attn_output.weight : tensor<4096x4096xf16>
    %140 = torch_c.from_builtin_tensor %__auto.blk.15.attn_output.weight : tensor<4096x4096xf16> -> !torch.vtensor<[4096,4096],f16>
    %__auto.blk.15.ffn_norm.weight = util.global.load @__auto.blk.15.ffn_norm.weight : tensor<4096xf32>
    %141 = torch_c.from_builtin_tensor %__auto.blk.15.ffn_norm.weight : tensor<4096xf32> -> !torch.vtensor<[4096],f32>
    %__auto.blk.15.ffn_gate.weight = util.global.load @__auto.blk.15.ffn_gate.weight : tensor<14336x4096xf16>
    %142 = torch_c.from_builtin_tensor %__auto.blk.15.ffn_gate.weight : tensor<14336x4096xf16> -> !torch.vtensor<[14336,4096],f16>
    %__auto.blk.15.ffn_up.weight = util.global.load @__auto.blk.15.ffn_up.weight : tensor<14336x4096xf16>
    %143 = torch_c.from_builtin_tensor %__auto.blk.15.ffn_up.weight : tensor<14336x4096xf16> -> !torch.vtensor<[14336,4096],f16>
    %__auto.blk.15.ffn_down.weight = util.global.load @__auto.blk.15.ffn_down.weight : tensor<4096x14336xf16>
    %144 = torch_c.from_builtin_tensor %__auto.blk.15.ffn_down.weight : tensor<4096x14336xf16> -> !torch.vtensor<[4096,14336],f16>
    %__auto.blk.16.attn_norm.weight = util.global.load @__auto.blk.16.attn_norm.weight : tensor<4096xf32>
    %145 = torch_c.from_builtin_tensor %__auto.blk.16.attn_norm.weight : tensor<4096xf32> -> !torch.vtensor<[4096],f32>
    %__auto.blk.16.attn_q.weight = util.global.load @__auto.blk.16.attn_q.weight : tensor<4096x4096xf16>
    %146 = torch_c.from_builtin_tensor %__auto.blk.16.attn_q.weight : tensor<4096x4096xf16> -> !torch.vtensor<[4096,4096],f16>
    %__auto.blk.16.attn_k.weight = util.global.load @__auto.blk.16.attn_k.weight : tensor<1024x4096xf16>
    %147 = torch_c.from_builtin_tensor %__auto.blk.16.attn_k.weight : tensor<1024x4096xf16> -> !torch.vtensor<[1024,4096],f16>
    %__auto.blk.16.attn_v.weight = util.global.load @__auto.blk.16.attn_v.weight : tensor<1024x4096xf16>
    %148 = torch_c.from_builtin_tensor %__auto.blk.16.attn_v.weight : tensor<1024x4096xf16> -> !torch.vtensor<[1024,4096],f16>
    %__auto.blk.16.attn_output.weight = util.global.load @__auto.blk.16.attn_output.weight : tensor<4096x4096xf16>
    %149 = torch_c.from_builtin_tensor %__auto.blk.16.attn_output.weight : tensor<4096x4096xf16> -> !torch.vtensor<[4096,4096],f16>
    %__auto.blk.16.ffn_norm.weight = util.global.load @__auto.blk.16.ffn_norm.weight : tensor<4096xf32>
    %150 = torch_c.from_builtin_tensor %__auto.blk.16.ffn_norm.weight : tensor<4096xf32> -> !torch.vtensor<[4096],f32>
    %__auto.blk.16.ffn_gate.weight = util.global.load @__auto.blk.16.ffn_gate.weight : tensor<14336x4096xf16>
    %151 = torch_c.from_builtin_tensor %__auto.blk.16.ffn_gate.weight : tensor<14336x4096xf16> -> !torch.vtensor<[14336,4096],f16>
    %__auto.blk.16.ffn_up.weight = util.global.load @__auto.blk.16.ffn_up.weight : tensor<14336x4096xf16>
    %152 = torch_c.from_builtin_tensor %__auto.blk.16.ffn_up.weight : tensor<14336x4096xf16> -> !torch.vtensor<[14336,4096],f16>
    %__auto.blk.16.ffn_down.weight = util.global.load @__auto.blk.16.ffn_down.weight : tensor<4096x14336xf16>
    %153 = torch_c.from_builtin_tensor %__auto.blk.16.ffn_down.weight : tensor<4096x14336xf16> -> !torch.vtensor<[4096,14336],f16>
    %__auto.blk.17.attn_norm.weight = util.global.load @__auto.blk.17.attn_norm.weight : tensor<4096xf32>
    %154 = torch_c.from_builtin_tensor %__auto.blk.17.attn_norm.weight : tensor<4096xf32> -> !torch.vtensor<[4096],f32>
    %__auto.blk.17.attn_q.weight = util.global.load @__auto.blk.17.attn_q.weight : tensor<4096x4096xf16>
    %155 = torch_c.from_builtin_tensor %__auto.blk.17.attn_q.weight : tensor<4096x4096xf16> -> !torch.vtensor<[4096,4096],f16>
    %__auto.blk.17.attn_k.weight = util.global.load @__auto.blk.17.attn_k.weight : tensor<1024x4096xf16>
    %156 = torch_c.from_builtin_tensor %__auto.blk.17.attn_k.weight : tensor<1024x4096xf16> -> !torch.vtensor<[1024,4096],f16>
    %__auto.blk.17.attn_v.weight = util.global.load @__auto.blk.17.attn_v.weight : tensor<1024x4096xf16>
    %157 = torch_c.from_builtin_tensor %__auto.blk.17.attn_v.weight : tensor<1024x4096xf16> -> !torch.vtensor<[1024,4096],f16>
    %__auto.blk.17.attn_output.weight = util.global.load @__auto.blk.17.attn_output.weight : tensor<4096x4096xf16>
    %158 = torch_c.from_builtin_tensor %__auto.blk.17.attn_output.weight : tensor<4096x4096xf16> -> !torch.vtensor<[4096,4096],f16>
    %__auto.blk.17.ffn_norm.weight = util.global.load @__auto.blk.17.ffn_norm.weight : tensor<4096xf32>
    %159 = torch_c.from_builtin_tensor %__auto.blk.17.ffn_norm.weight : tensor<4096xf32> -> !torch.vtensor<[4096],f32>
    %__auto.blk.17.ffn_gate.weight = util.global.load @__auto.blk.17.ffn_gate.weight : tensor<14336x4096xf16>
    %160 = torch_c.from_builtin_tensor %__auto.blk.17.ffn_gate.weight : tensor<14336x4096xf16> -> !torch.vtensor<[14336,4096],f16>
    %__auto.blk.17.ffn_up.weight = util.global.load @__auto.blk.17.ffn_up.weight : tensor<14336x4096xf16>
    %161 = torch_c.from_builtin_tensor %__auto.blk.17.ffn_up.weight : tensor<14336x4096xf16> -> !torch.vtensor<[14336,4096],f16>
    %__auto.blk.17.ffn_down.weight = util.global.load @__auto.blk.17.ffn_down.weight : tensor<4096x14336xf16>
    %162 = torch_c.from_builtin_tensor %__auto.blk.17.ffn_down.weight : tensor<4096x14336xf16> -> !torch.vtensor<[4096,14336],f16>
    %__auto.blk.18.attn_norm.weight = util.global.load @__auto.blk.18.attn_norm.weight : tensor<4096xf32>
    %163 = torch_c.from_builtin_tensor %__auto.blk.18.attn_norm.weight : tensor<4096xf32> -> !torch.vtensor<[4096],f32>
    %__auto.blk.18.attn_q.weight = util.global.load @__auto.blk.18.attn_q.weight : tensor<4096x4096xf16>
    %164 = torch_c.from_builtin_tensor %__auto.blk.18.attn_q.weight : tensor<4096x4096xf16> -> !torch.vtensor<[4096,4096],f16>
    %__auto.blk.18.attn_k.weight = util.global.load @__auto.blk.18.attn_k.weight : tensor<1024x4096xf16>
    %165 = torch_c.from_builtin_tensor %__auto.blk.18.attn_k.weight : tensor<1024x4096xf16> -> !torch.vtensor<[1024,4096],f16>
    %__auto.blk.18.attn_v.weight = util.global.load @__auto.blk.18.attn_v.weight : tensor<1024x4096xf16>
    %166 = torch_c.from_builtin_tensor %__auto.blk.18.attn_v.weight : tensor<1024x4096xf16> -> !torch.vtensor<[1024,4096],f16>
    %__auto.blk.18.attn_output.weight = util.global.load @__auto.blk.18.attn_output.weight : tensor<4096x4096xf16>
    %167 = torch_c.from_builtin_tensor %__auto.blk.18.attn_output.weight : tensor<4096x4096xf16> -> !torch.vtensor<[4096,4096],f16>
    %__auto.blk.18.ffn_norm.weight = util.global.load @__auto.blk.18.ffn_norm.weight : tensor<4096xf32>
    %168 = torch_c.from_builtin_tensor %__auto.blk.18.ffn_norm.weight : tensor<4096xf32> -> !torch.vtensor<[4096],f32>
    %__auto.blk.18.ffn_gate.weight = util.global.load @__auto.blk.18.ffn_gate.weight : tensor<14336x4096xf16>
    %169 = torch_c.from_builtin_tensor %__auto.blk.18.ffn_gate.weight : tensor<14336x4096xf16> -> !torch.vtensor<[14336,4096],f16>
    %__auto.blk.18.ffn_up.weight = util.global.load @__auto.blk.18.ffn_up.weight : tensor<14336x4096xf16>
    %170 = torch_c.from_builtin_tensor %__auto.blk.18.ffn_up.weight : tensor<14336x4096xf16> -> !torch.vtensor<[14336,4096],f16>
    %__auto.blk.18.ffn_down.weight = util.global.load @__auto.blk.18.ffn_down.weight : tensor<4096x14336xf16>
    %171 = torch_c.from_builtin_tensor %__auto.blk.18.ffn_down.weight : tensor<4096x14336xf16> -> !torch.vtensor<[4096,14336],f16>
    %__auto.blk.19.attn_norm.weight = util.global.load @__auto.blk.19.attn_norm.weight : tensor<4096xf32>
    %172 = torch_c.from_builtin_tensor %__auto.blk.19.attn_norm.weight : tensor<4096xf32> -> !torch.vtensor<[4096],f32>
    %__auto.blk.19.attn_q.weight = util.global.load @__auto.blk.19.attn_q.weight : tensor<4096x4096xf16>
    %173 = torch_c.from_builtin_tensor %__auto.blk.19.attn_q.weight : tensor<4096x4096xf16> -> !torch.vtensor<[4096,4096],f16>
    %__auto.blk.19.attn_k.weight = util.global.load @__auto.blk.19.attn_k.weight : tensor<1024x4096xf16>
    %174 = torch_c.from_builtin_tensor %__auto.blk.19.attn_k.weight : tensor<1024x4096xf16> -> !torch.vtensor<[1024,4096],f16>
    %__auto.blk.19.attn_v.weight = util.global.load @__auto.blk.19.attn_v.weight : tensor<1024x4096xf16>
    %175 = torch_c.from_builtin_tensor %__auto.blk.19.attn_v.weight : tensor<1024x4096xf16> -> !torch.vtensor<[1024,4096],f16>
    %__auto.blk.19.attn_output.weight = util.global.load @__auto.blk.19.attn_output.weight : tensor<4096x4096xf16>
    %176 = torch_c.from_builtin_tensor %__auto.blk.19.attn_output.weight : tensor<4096x4096xf16> -> !torch.vtensor<[4096,4096],f16>
    %__auto.blk.19.ffn_norm.weight = util.global.load @__auto.blk.19.ffn_norm.weight : tensor<4096xf32>
    %177 = torch_c.from_builtin_tensor %__auto.blk.19.ffn_norm.weight : tensor<4096xf32> -> !torch.vtensor<[4096],f32>
    %__auto.blk.19.ffn_gate.weight = util.global.load @__auto.blk.19.ffn_gate.weight : tensor<14336x4096xf16>
    %178 = torch_c.from_builtin_tensor %__auto.blk.19.ffn_gate.weight : tensor<14336x4096xf16> -> !torch.vtensor<[14336,4096],f16>
    %__auto.blk.19.ffn_up.weight = util.global.load @__auto.blk.19.ffn_up.weight : tensor<14336x4096xf16>
    %179 = torch_c.from_builtin_tensor %__auto.blk.19.ffn_up.weight : tensor<14336x4096xf16> -> !torch.vtensor<[14336,4096],f16>
    %__auto.blk.19.ffn_down.weight = util.global.load @__auto.blk.19.ffn_down.weight : tensor<4096x14336xf16>
    %180 = torch_c.from_builtin_tensor %__auto.blk.19.ffn_down.weight : tensor<4096x14336xf16> -> !torch.vtensor<[4096,14336],f16>
    %__auto.blk.20.attn_norm.weight = util.global.load @__auto.blk.20.attn_norm.weight : tensor<4096xf32>
    %181 = torch_c.from_builtin_tensor %__auto.blk.20.attn_norm.weight : tensor<4096xf32> -> !torch.vtensor<[4096],f32>
    %__auto.blk.20.attn_q.weight = util.global.load @__auto.blk.20.attn_q.weight : tensor<4096x4096xf16>
    %182 = torch_c.from_builtin_tensor %__auto.blk.20.attn_q.weight : tensor<4096x4096xf16> -> !torch.vtensor<[4096,4096],f16>
    %__auto.blk.20.attn_k.weight = util.global.load @__auto.blk.20.attn_k.weight : tensor<1024x4096xf16>
    %183 = torch_c.from_builtin_tensor %__auto.blk.20.attn_k.weight : tensor<1024x4096xf16> -> !torch.vtensor<[1024,4096],f16>
    %__auto.blk.20.attn_v.weight = util.global.load @__auto.blk.20.attn_v.weight : tensor<1024x4096xf16>
    %184 = torch_c.from_builtin_tensor %__auto.blk.20.attn_v.weight : tensor<1024x4096xf16> -> !torch.vtensor<[1024,4096],f16>
    %__auto.blk.20.attn_output.weight = util.global.load @__auto.blk.20.attn_output.weight : tensor<4096x4096xf16>
    %185 = torch_c.from_builtin_tensor %__auto.blk.20.attn_output.weight : tensor<4096x4096xf16> -> !torch.vtensor<[4096,4096],f16>
    %__auto.blk.20.ffn_norm.weight = util.global.load @__auto.blk.20.ffn_norm.weight : tensor<4096xf32>
    %186 = torch_c.from_builtin_tensor %__auto.blk.20.ffn_norm.weight : tensor<4096xf32> -> !torch.vtensor<[4096],f32>
    %__auto.blk.20.ffn_gate.weight = util.global.load @__auto.blk.20.ffn_gate.weight : tensor<14336x4096xf16>
    %187 = torch_c.from_builtin_tensor %__auto.blk.20.ffn_gate.weight : tensor<14336x4096xf16> -> !torch.vtensor<[14336,4096],f16>
    %__auto.blk.20.ffn_up.weight = util.global.load @__auto.blk.20.ffn_up.weight : tensor<14336x4096xf16>
    %188 = torch_c.from_builtin_tensor %__auto.blk.20.ffn_up.weight : tensor<14336x4096xf16> -> !torch.vtensor<[14336,4096],f16>
    %__auto.blk.20.ffn_down.weight = util.global.load @__auto.blk.20.ffn_down.weight : tensor<4096x14336xf16>
    %189 = torch_c.from_builtin_tensor %__auto.blk.20.ffn_down.weight : tensor<4096x14336xf16> -> !torch.vtensor<[4096,14336],f16>
    %__auto.blk.21.attn_norm.weight = util.global.load @__auto.blk.21.attn_norm.weight : tensor<4096xf32>
    %190 = torch_c.from_builtin_tensor %__auto.blk.21.attn_norm.weight : tensor<4096xf32> -> !torch.vtensor<[4096],f32>
    %__auto.blk.21.attn_q.weight = util.global.load @__auto.blk.21.attn_q.weight : tensor<4096x4096xf16>
    %191 = torch_c.from_builtin_tensor %__auto.blk.21.attn_q.weight : tensor<4096x4096xf16> -> !torch.vtensor<[4096,4096],f16>
    %__auto.blk.21.attn_k.weight = util.global.load @__auto.blk.21.attn_k.weight : tensor<1024x4096xf16>
    %192 = torch_c.from_builtin_tensor %__auto.blk.21.attn_k.weight : tensor<1024x4096xf16> -> !torch.vtensor<[1024,4096],f16>
    %__auto.blk.21.attn_v.weight = util.global.load @__auto.blk.21.attn_v.weight : tensor<1024x4096xf16>
    %193 = torch_c.from_builtin_tensor %__auto.blk.21.attn_v.weight : tensor<1024x4096xf16> -> !torch.vtensor<[1024,4096],f16>
    %__auto.blk.21.attn_output.weight = util.global.load @__auto.blk.21.attn_output.weight : tensor<4096x4096xf16>
    %194 = torch_c.from_builtin_tensor %__auto.blk.21.attn_output.weight : tensor<4096x4096xf16> -> !torch.vtensor<[4096,4096],f16>
    %__auto.blk.21.ffn_norm.weight = util.global.load @__auto.blk.21.ffn_norm.weight : tensor<4096xf32>
    %195 = torch_c.from_builtin_tensor %__auto.blk.21.ffn_norm.weight : tensor<4096xf32> -> !torch.vtensor<[4096],f32>
    %__auto.blk.21.ffn_gate.weight = util.global.load @__auto.blk.21.ffn_gate.weight : tensor<14336x4096xf16>
    %196 = torch_c.from_builtin_tensor %__auto.blk.21.ffn_gate.weight : tensor<14336x4096xf16> -> !torch.vtensor<[14336,4096],f16>
    %__auto.blk.21.ffn_up.weight = util.global.load @__auto.blk.21.ffn_up.weight : tensor<14336x4096xf16>
    %197 = torch_c.from_builtin_tensor %__auto.blk.21.ffn_up.weight : tensor<14336x4096xf16> -> !torch.vtensor<[14336,4096],f16>
    %__auto.blk.21.ffn_down.weight = util.global.load @__auto.blk.21.ffn_down.weight : tensor<4096x14336xf16>
    %198 = torch_c.from_builtin_tensor %__auto.blk.21.ffn_down.weight : tensor<4096x14336xf16> -> !torch.vtensor<[4096,14336],f16>
    %__auto.blk.22.attn_norm.weight = util.global.load @__auto.blk.22.attn_norm.weight : tensor<4096xf32>
    %199 = torch_c.from_builtin_tensor %__auto.blk.22.attn_norm.weight : tensor<4096xf32> -> !torch.vtensor<[4096],f32>
    %__auto.blk.22.attn_q.weight = util.global.load @__auto.blk.22.attn_q.weight : tensor<4096x4096xf16>
    %200 = torch_c.from_builtin_tensor %__auto.blk.22.attn_q.weight : tensor<4096x4096xf16> -> !torch.vtensor<[4096,4096],f16>
    %__auto.blk.22.attn_k.weight = util.global.load @__auto.blk.22.attn_k.weight : tensor<1024x4096xf16>
    %201 = torch_c.from_builtin_tensor %__auto.blk.22.attn_k.weight : tensor<1024x4096xf16> -> !torch.vtensor<[1024,4096],f16>
    %__auto.blk.22.attn_v.weight = util.global.load @__auto.blk.22.attn_v.weight : tensor<1024x4096xf16>
    %202 = torch_c.from_builtin_tensor %__auto.blk.22.attn_v.weight : tensor<1024x4096xf16> -> !torch.vtensor<[1024,4096],f16>
    %__auto.blk.22.attn_output.weight = util.global.load @__auto.blk.22.attn_output.weight : tensor<4096x4096xf16>
    %203 = torch_c.from_builtin_tensor %__auto.blk.22.attn_output.weight : tensor<4096x4096xf16> -> !torch.vtensor<[4096,4096],f16>
    %__auto.blk.22.ffn_norm.weight = util.global.load @__auto.blk.22.ffn_norm.weight : tensor<4096xf32>
    %204 = torch_c.from_builtin_tensor %__auto.blk.22.ffn_norm.weight : tensor<4096xf32> -> !torch.vtensor<[4096],f32>
    %__auto.blk.22.ffn_gate.weight = util.global.load @__auto.blk.22.ffn_gate.weight : tensor<14336x4096xf16>
    %205 = torch_c.from_builtin_tensor %__auto.blk.22.ffn_gate.weight : tensor<14336x4096xf16> -> !torch.vtensor<[14336,4096],f16>
    %__auto.blk.22.ffn_up.weight = util.global.load @__auto.blk.22.ffn_up.weight : tensor<14336x4096xf16>
    %206 = torch_c.from_builtin_tensor %__auto.blk.22.ffn_up.weight : tensor<14336x4096xf16> -> !torch.vtensor<[14336,4096],f16>
    %__auto.blk.22.ffn_down.weight = util.global.load @__auto.blk.22.ffn_down.weight : tensor<4096x14336xf16>
    %207 = torch_c.from_builtin_tensor %__auto.blk.22.ffn_down.weight : tensor<4096x14336xf16> -> !torch.vtensor<[4096,14336],f16>
    %__auto.blk.23.attn_norm.weight = util.global.load @__auto.blk.23.attn_norm.weight : tensor<4096xf32>
    %208 = torch_c.from_builtin_tensor %__auto.blk.23.attn_norm.weight : tensor<4096xf32> -> !torch.vtensor<[4096],f32>
    %__auto.blk.23.attn_q.weight = util.global.load @__auto.blk.23.attn_q.weight : tensor<4096x4096xf16>
    %209 = torch_c.from_builtin_tensor %__auto.blk.23.attn_q.weight : tensor<4096x4096xf16> -> !torch.vtensor<[4096,4096],f16>
    %__auto.blk.23.attn_k.weight = util.global.load @__auto.blk.23.attn_k.weight : tensor<1024x4096xf16>
    %210 = torch_c.from_builtin_tensor %__auto.blk.23.attn_k.weight : tensor<1024x4096xf16> -> !torch.vtensor<[1024,4096],f16>
    %__auto.blk.23.attn_v.weight = util.global.load @__auto.blk.23.attn_v.weight : tensor<1024x4096xf16>
    %211 = torch_c.from_builtin_tensor %__auto.blk.23.attn_v.weight : tensor<1024x4096xf16> -> !torch.vtensor<[1024,4096],f16>
    %__auto.blk.23.attn_output.weight = util.global.load @__auto.blk.23.attn_output.weight : tensor<4096x4096xf16>
    %212 = torch_c.from_builtin_tensor %__auto.blk.23.attn_output.weight : tensor<4096x4096xf16> -> !torch.vtensor<[4096,4096],f16>
    %__auto.blk.23.ffn_norm.weight = util.global.load @__auto.blk.23.ffn_norm.weight : tensor<4096xf32>
    %213 = torch_c.from_builtin_tensor %__auto.blk.23.ffn_norm.weight : tensor<4096xf32> -> !torch.vtensor<[4096],f32>
    %__auto.blk.23.ffn_gate.weight = util.global.load @__auto.blk.23.ffn_gate.weight : tensor<14336x4096xf16>
    %214 = torch_c.from_builtin_tensor %__auto.blk.23.ffn_gate.weight : tensor<14336x4096xf16> -> !torch.vtensor<[14336,4096],f16>
    %__auto.blk.23.ffn_up.weight = util.global.load @__auto.blk.23.ffn_up.weight : tensor<14336x4096xf16>
    %215 = torch_c.from_builtin_tensor %__auto.blk.23.ffn_up.weight : tensor<14336x4096xf16> -> !torch.vtensor<[14336,4096],f16>
    %__auto.blk.23.ffn_down.weight = util.global.load @__auto.blk.23.ffn_down.weight : tensor<4096x14336xf16>
    %216 = torch_c.from_builtin_tensor %__auto.blk.23.ffn_down.weight : tensor<4096x14336xf16> -> !torch.vtensor<[4096,14336],f16>
    %__auto.blk.24.attn_norm.weight = util.global.load @__auto.blk.24.attn_norm.weight : tensor<4096xf32>
    %217 = torch_c.from_builtin_tensor %__auto.blk.24.attn_norm.weight : tensor<4096xf32> -> !torch.vtensor<[4096],f32>
    %__auto.blk.24.attn_q.weight = util.global.load @__auto.blk.24.attn_q.weight : tensor<4096x4096xf16>
    %218 = torch_c.from_builtin_tensor %__auto.blk.24.attn_q.weight : tensor<4096x4096xf16> -> !torch.vtensor<[4096,4096],f16>
    %__auto.blk.24.attn_k.weight = util.global.load @__auto.blk.24.attn_k.weight : tensor<1024x4096xf16>
    %219 = torch_c.from_builtin_tensor %__auto.blk.24.attn_k.weight : tensor<1024x4096xf16> -> !torch.vtensor<[1024,4096],f16>
    %__auto.blk.24.attn_v.weight = util.global.load @__auto.blk.24.attn_v.weight : tensor<1024x4096xf16>
    %220 = torch_c.from_builtin_tensor %__auto.blk.24.attn_v.weight : tensor<1024x4096xf16> -> !torch.vtensor<[1024,4096],f16>
    %__auto.blk.24.attn_output.weight = util.global.load @__auto.blk.24.attn_output.weight : tensor<4096x4096xf16>
    %221 = torch_c.from_builtin_tensor %__auto.blk.24.attn_output.weight : tensor<4096x4096xf16> -> !torch.vtensor<[4096,4096],f16>
    %__auto.blk.24.ffn_norm.weight = util.global.load @__auto.blk.24.ffn_norm.weight : tensor<4096xf32>
    %222 = torch_c.from_builtin_tensor %__auto.blk.24.ffn_norm.weight : tensor<4096xf32> -> !torch.vtensor<[4096],f32>
    %__auto.blk.24.ffn_gate.weight = util.global.load @__auto.blk.24.ffn_gate.weight : tensor<14336x4096xf16>
    %223 = torch_c.from_builtin_tensor %__auto.blk.24.ffn_gate.weight : tensor<14336x4096xf16> -> !torch.vtensor<[14336,4096],f16>
    %__auto.blk.24.ffn_up.weight = util.global.load @__auto.blk.24.ffn_up.weight : tensor<14336x4096xf16>
    %224 = torch_c.from_builtin_tensor %__auto.blk.24.ffn_up.weight : tensor<14336x4096xf16> -> !torch.vtensor<[14336,4096],f16>
    %__auto.blk.24.ffn_down.weight = util.global.load @__auto.blk.24.ffn_down.weight : tensor<4096x14336xf16>
    %225 = torch_c.from_builtin_tensor %__auto.blk.24.ffn_down.weight : tensor<4096x14336xf16> -> !torch.vtensor<[4096,14336],f16>
    %__auto.blk.25.attn_norm.weight = util.global.load @__auto.blk.25.attn_norm.weight : tensor<4096xf32>
    %226 = torch_c.from_builtin_tensor %__auto.blk.25.attn_norm.weight : tensor<4096xf32> -> !torch.vtensor<[4096],f32>
    %__auto.blk.25.attn_q.weight = util.global.load @__auto.blk.25.attn_q.weight : tensor<4096x4096xf16>
    %227 = torch_c.from_builtin_tensor %__auto.blk.25.attn_q.weight : tensor<4096x4096xf16> -> !torch.vtensor<[4096,4096],f16>
    %__auto.blk.25.attn_k.weight = util.global.load @__auto.blk.25.attn_k.weight : tensor<1024x4096xf16>
    %228 = torch_c.from_builtin_tensor %__auto.blk.25.attn_k.weight : tensor<1024x4096xf16> -> !torch.vtensor<[1024,4096],f16>
    %__auto.blk.25.attn_v.weight = util.global.load @__auto.blk.25.attn_v.weight : tensor<1024x4096xf16>
    %229 = torch_c.from_builtin_tensor %__auto.blk.25.attn_v.weight : tensor<1024x4096xf16> -> !torch.vtensor<[1024,4096],f16>
    %__auto.blk.25.attn_output.weight = util.global.load @__auto.blk.25.attn_output.weight : tensor<4096x4096xf16>
    %230 = torch_c.from_builtin_tensor %__auto.blk.25.attn_output.weight : tensor<4096x4096xf16> -> !torch.vtensor<[4096,4096],f16>
    %__auto.blk.25.ffn_norm.weight = util.global.load @__auto.blk.25.ffn_norm.weight : tensor<4096xf32>
    %231 = torch_c.from_builtin_tensor %__auto.blk.25.ffn_norm.weight : tensor<4096xf32> -> !torch.vtensor<[4096],f32>
    %__auto.blk.25.ffn_gate.weight = util.global.load @__auto.blk.25.ffn_gate.weight : tensor<14336x4096xf16>
    %232 = torch_c.from_builtin_tensor %__auto.blk.25.ffn_gate.weight : tensor<14336x4096xf16> -> !torch.vtensor<[14336,4096],f16>
    %__auto.blk.25.ffn_up.weight = util.global.load @__auto.blk.25.ffn_up.weight : tensor<14336x4096xf16>
    %233 = torch_c.from_builtin_tensor %__auto.blk.25.ffn_up.weight : tensor<14336x4096xf16> -> !torch.vtensor<[14336,4096],f16>
    %__auto.blk.25.ffn_down.weight = util.global.load @__auto.blk.25.ffn_down.weight : tensor<4096x14336xf16>
    %234 = torch_c.from_builtin_tensor %__auto.blk.25.ffn_down.weight : tensor<4096x14336xf16> -> !torch.vtensor<[4096,14336],f16>
    %__auto.blk.26.attn_norm.weight = util.global.load @__auto.blk.26.attn_norm.weight : tensor<4096xf32>
    %235 = torch_c.from_builtin_tensor %__auto.blk.26.attn_norm.weight : tensor<4096xf32> -> !torch.vtensor<[4096],f32>
    %__auto.blk.26.attn_q.weight = util.global.load @__auto.blk.26.attn_q.weight : tensor<4096x4096xf16>
    %236 = torch_c.from_builtin_tensor %__auto.blk.26.attn_q.weight : tensor<4096x4096xf16> -> !torch.vtensor<[4096,4096],f16>
    %__auto.blk.26.attn_k.weight = util.global.load @__auto.blk.26.attn_k.weight : tensor<1024x4096xf16>
    %237 = torch_c.from_builtin_tensor %__auto.blk.26.attn_k.weight : tensor<1024x4096xf16> -> !torch.vtensor<[1024,4096],f16>
    %__auto.blk.26.attn_v.weight = util.global.load @__auto.blk.26.attn_v.weight : tensor<1024x4096xf16>
    %238 = torch_c.from_builtin_tensor %__auto.blk.26.attn_v.weight : tensor<1024x4096xf16> -> !torch.vtensor<[1024,4096],f16>
    %__auto.blk.26.attn_output.weight = util.global.load @__auto.blk.26.attn_output.weight : tensor<4096x4096xf16>
    %239 = torch_c.from_builtin_tensor %__auto.blk.26.attn_output.weight : tensor<4096x4096xf16> -> !torch.vtensor<[4096,4096],f16>
    %__auto.blk.26.ffn_norm.weight = util.global.load @__auto.blk.26.ffn_norm.weight : tensor<4096xf32>
    %240 = torch_c.from_builtin_tensor %__auto.blk.26.ffn_norm.weight : tensor<4096xf32> -> !torch.vtensor<[4096],f32>
    %__auto.blk.26.ffn_gate.weight = util.global.load @__auto.blk.26.ffn_gate.weight : tensor<14336x4096xf16>
    %241 = torch_c.from_builtin_tensor %__auto.blk.26.ffn_gate.weight : tensor<14336x4096xf16> -> !torch.vtensor<[14336,4096],f16>
    %__auto.blk.26.ffn_up.weight = util.global.load @__auto.blk.26.ffn_up.weight : tensor<14336x4096xf16>
    %242 = torch_c.from_builtin_tensor %__auto.blk.26.ffn_up.weight : tensor<14336x4096xf16> -> !torch.vtensor<[14336,4096],f16>
    %__auto.blk.26.ffn_down.weight = util.global.load @__auto.blk.26.ffn_down.weight : tensor<4096x14336xf16>
    %243 = torch_c.from_builtin_tensor %__auto.blk.26.ffn_down.weight : tensor<4096x14336xf16> -> !torch.vtensor<[4096,14336],f16>
    %__auto.blk.27.attn_norm.weight = util.global.load @__auto.blk.27.attn_norm.weight : tensor<4096xf32>
    %244 = torch_c.from_builtin_tensor %__auto.blk.27.attn_norm.weight : tensor<4096xf32> -> !torch.vtensor<[4096],f32>
    %__auto.blk.27.attn_q.weight = util.global.load @__auto.blk.27.attn_q.weight : tensor<4096x4096xf16>
    %245 = torch_c.from_builtin_tensor %__auto.blk.27.attn_q.weight : tensor<4096x4096xf16> -> !torch.vtensor<[4096,4096],f16>
    %__auto.blk.27.attn_k.weight = util.global.load @__auto.blk.27.attn_k.weight : tensor<1024x4096xf16>
    %246 = torch_c.from_builtin_tensor %__auto.blk.27.attn_k.weight : tensor<1024x4096xf16> -> !torch.vtensor<[1024,4096],f16>
    %__auto.blk.27.attn_v.weight = util.global.load @__auto.blk.27.attn_v.weight : tensor<1024x4096xf16>
    %247 = torch_c.from_builtin_tensor %__auto.blk.27.attn_v.weight : tensor<1024x4096xf16> -> !torch.vtensor<[1024,4096],f16>
    %__auto.blk.27.attn_output.weight = util.global.load @__auto.blk.27.attn_output.weight : tensor<4096x4096xf16>
    %248 = torch_c.from_builtin_tensor %__auto.blk.27.attn_output.weight : tensor<4096x4096xf16> -> !torch.vtensor<[4096,4096],f16>
    %__auto.blk.27.ffn_norm.weight = util.global.load @__auto.blk.27.ffn_norm.weight : tensor<4096xf32>
    %249 = torch_c.from_builtin_tensor %__auto.blk.27.ffn_norm.weight : tensor<4096xf32> -> !torch.vtensor<[4096],f32>
    %__auto.blk.27.ffn_gate.weight = util.global.load @__auto.blk.27.ffn_gate.weight : tensor<14336x4096xf16>
    %250 = torch_c.from_builtin_tensor %__auto.blk.27.ffn_gate.weight : tensor<14336x4096xf16> -> !torch.vtensor<[14336,4096],f16>
    %__auto.blk.27.ffn_up.weight = util.global.load @__auto.blk.27.ffn_up.weight : tensor<14336x4096xf16>
    %251 = torch_c.from_builtin_tensor %__auto.blk.27.ffn_up.weight : tensor<14336x4096xf16> -> !torch.vtensor<[14336,4096],f16>
    %__auto.blk.27.ffn_down.weight = util.global.load @__auto.blk.27.ffn_down.weight : tensor<4096x14336xf16>
    %252 = torch_c.from_builtin_tensor %__auto.blk.27.ffn_down.weight : tensor<4096x14336xf16> -> !torch.vtensor<[4096,14336],f16>
    %__auto.blk.28.attn_norm.weight = util.global.load @__auto.blk.28.attn_norm.weight : tensor<4096xf32>
    %253 = torch_c.from_builtin_tensor %__auto.blk.28.attn_norm.weight : tensor<4096xf32> -> !torch.vtensor<[4096],f32>
    %__auto.blk.28.attn_q.weight = util.global.load @__auto.blk.28.attn_q.weight : tensor<4096x4096xf16>
    %254 = torch_c.from_builtin_tensor %__auto.blk.28.attn_q.weight : tensor<4096x4096xf16> -> !torch.vtensor<[4096,4096],f16>
    %__auto.blk.28.attn_k.weight = util.global.load @__auto.blk.28.attn_k.weight : tensor<1024x4096xf16>
    %255 = torch_c.from_builtin_tensor %__auto.blk.28.attn_k.weight : tensor<1024x4096xf16> -> !torch.vtensor<[1024,4096],f16>
    %__auto.blk.28.attn_v.weight = util.global.load @__auto.blk.28.attn_v.weight : tensor<1024x4096xf16>
    %256 = torch_c.from_builtin_tensor %__auto.blk.28.attn_v.weight : tensor<1024x4096xf16> -> !torch.vtensor<[1024,4096],f16>
    %__auto.blk.28.attn_output.weight = util.global.load @__auto.blk.28.attn_output.weight : tensor<4096x4096xf16>
    %257 = torch_c.from_builtin_tensor %__auto.blk.28.attn_output.weight : tensor<4096x4096xf16> -> !torch.vtensor<[4096,4096],f16>
    %__auto.blk.28.ffn_norm.weight = util.global.load @__auto.blk.28.ffn_norm.weight : tensor<4096xf32>
    %258 = torch_c.from_builtin_tensor %__auto.blk.28.ffn_norm.weight : tensor<4096xf32> -> !torch.vtensor<[4096],f32>
    %__auto.blk.28.ffn_gate.weight = util.global.load @__auto.blk.28.ffn_gate.weight : tensor<14336x4096xf16>
    %259 = torch_c.from_builtin_tensor %__auto.blk.28.ffn_gate.weight : tensor<14336x4096xf16> -> !torch.vtensor<[14336,4096],f16>
    %__auto.blk.28.ffn_up.weight = util.global.load @__auto.blk.28.ffn_up.weight : tensor<14336x4096xf16>
    %260 = torch_c.from_builtin_tensor %__auto.blk.28.ffn_up.weight : tensor<14336x4096xf16> -> !torch.vtensor<[14336,4096],f16>
    %__auto.blk.28.ffn_down.weight = util.global.load @__auto.blk.28.ffn_down.weight : tensor<4096x14336xf16>
    %261 = torch_c.from_builtin_tensor %__auto.blk.28.ffn_down.weight : tensor<4096x14336xf16> -> !torch.vtensor<[4096,14336],f16>
    %__auto.blk.29.attn_norm.weight = util.global.load @__auto.blk.29.attn_norm.weight : tensor<4096xf32>
    %262 = torch_c.from_builtin_tensor %__auto.blk.29.attn_norm.weight : tensor<4096xf32> -> !torch.vtensor<[4096],f32>
    %__auto.blk.29.attn_q.weight = util.global.load @__auto.blk.29.attn_q.weight : tensor<4096x4096xf16>
    %263 = torch_c.from_builtin_tensor %__auto.blk.29.attn_q.weight : tensor<4096x4096xf16> -> !torch.vtensor<[4096,4096],f16>
    %__auto.blk.29.attn_k.weight = util.global.load @__auto.blk.29.attn_k.weight : tensor<1024x4096xf16>
    %264 = torch_c.from_builtin_tensor %__auto.blk.29.attn_k.weight : tensor<1024x4096xf16> -> !torch.vtensor<[1024,4096],f16>
    %__auto.blk.29.attn_v.weight = util.global.load @__auto.blk.29.attn_v.weight : tensor<1024x4096xf16>
    %265 = torch_c.from_builtin_tensor %__auto.blk.29.attn_v.weight : tensor<1024x4096xf16> -> !torch.vtensor<[1024,4096],f16>
    %__auto.blk.29.attn_output.weight = util.global.load @__auto.blk.29.attn_output.weight : tensor<4096x4096xf16>
    %266 = torch_c.from_builtin_tensor %__auto.blk.29.attn_output.weight : tensor<4096x4096xf16> -> !torch.vtensor<[4096,4096],f16>
    %__auto.blk.29.ffn_norm.weight = util.global.load @__auto.blk.29.ffn_norm.weight : tensor<4096xf32>
    %267 = torch_c.from_builtin_tensor %__auto.blk.29.ffn_norm.weight : tensor<4096xf32> -> !torch.vtensor<[4096],f32>
    %__auto.blk.29.ffn_gate.weight = util.global.load @__auto.blk.29.ffn_gate.weight : tensor<14336x4096xf16>
    %268 = torch_c.from_builtin_tensor %__auto.blk.29.ffn_gate.weight : tensor<14336x4096xf16> -> !torch.vtensor<[14336,4096],f16>
    %__auto.blk.29.ffn_up.weight = util.global.load @__auto.blk.29.ffn_up.weight : tensor<14336x4096xf16>
    %269 = torch_c.from_builtin_tensor %__auto.blk.29.ffn_up.weight : tensor<14336x4096xf16> -> !torch.vtensor<[14336,4096],f16>
    %__auto.blk.29.ffn_down.weight = util.global.load @__auto.blk.29.ffn_down.weight : tensor<4096x14336xf16>
    %270 = torch_c.from_builtin_tensor %__auto.blk.29.ffn_down.weight : tensor<4096x14336xf16> -> !torch.vtensor<[4096,14336],f16>
    %__auto.blk.30.attn_norm.weight = util.global.load @__auto.blk.30.attn_norm.weight : tensor<4096xf32>
    %271 = torch_c.from_builtin_tensor %__auto.blk.30.attn_norm.weight : tensor<4096xf32> -> !torch.vtensor<[4096],f32>
    %__auto.blk.30.attn_q.weight = util.global.load @__auto.blk.30.attn_q.weight : tensor<4096x4096xf16>
    %272 = torch_c.from_builtin_tensor %__auto.blk.30.attn_q.weight : tensor<4096x4096xf16> -> !torch.vtensor<[4096,4096],f16>
    %__auto.blk.30.attn_k.weight = util.global.load @__auto.blk.30.attn_k.weight : tensor<1024x4096xf16>
    %273 = torch_c.from_builtin_tensor %__auto.blk.30.attn_k.weight : tensor<1024x4096xf16> -> !torch.vtensor<[1024,4096],f16>
    %__auto.blk.30.attn_v.weight = util.global.load @__auto.blk.30.attn_v.weight : tensor<1024x4096xf16>
    %274 = torch_c.from_builtin_tensor %__auto.blk.30.attn_v.weight : tensor<1024x4096xf16> -> !torch.vtensor<[1024,4096],f16>
    %__auto.blk.30.attn_output.weight = util.global.load @__auto.blk.30.attn_output.weight : tensor<4096x4096xf16>
    %275 = torch_c.from_builtin_tensor %__auto.blk.30.attn_output.weight : tensor<4096x4096xf16> -> !torch.vtensor<[4096,4096],f16>
    %__auto.blk.30.ffn_norm.weight = util.global.load @__auto.blk.30.ffn_norm.weight : tensor<4096xf32>
    %276 = torch_c.from_builtin_tensor %__auto.blk.30.ffn_norm.weight : tensor<4096xf32> -> !torch.vtensor<[4096],f32>
    %__auto.blk.30.ffn_gate.weight = util.global.load @__auto.blk.30.ffn_gate.weight : tensor<14336x4096xf16>
    %277 = torch_c.from_builtin_tensor %__auto.blk.30.ffn_gate.weight : tensor<14336x4096xf16> -> !torch.vtensor<[14336,4096],f16>
    %__auto.blk.30.ffn_up.weight = util.global.load @__auto.blk.30.ffn_up.weight : tensor<14336x4096xf16>
    %278 = torch_c.from_builtin_tensor %__auto.blk.30.ffn_up.weight : tensor<14336x4096xf16> -> !torch.vtensor<[14336,4096],f16>
    %__auto.blk.30.ffn_down.weight = util.global.load @__auto.blk.30.ffn_down.weight : tensor<4096x14336xf16>
    %279 = torch_c.from_builtin_tensor %__auto.blk.30.ffn_down.weight : tensor<4096x14336xf16> -> !torch.vtensor<[4096,14336],f16>
    %__auto.blk.31.attn_norm.weight = util.global.load @__auto.blk.31.attn_norm.weight : tensor<4096xf32>
    %280 = torch_c.from_builtin_tensor %__auto.blk.31.attn_norm.weight : tensor<4096xf32> -> !torch.vtensor<[4096],f32>
    %__auto.blk.31.attn_q.weight = util.global.load @__auto.blk.31.attn_q.weight : tensor<4096x4096xf16>
    %281 = torch_c.from_builtin_tensor %__auto.blk.31.attn_q.weight : tensor<4096x4096xf16> -> !torch.vtensor<[4096,4096],f16>
    %__auto.blk.31.attn_k.weight = util.global.load @__auto.blk.31.attn_k.weight : tensor<1024x4096xf16>
    %282 = torch_c.from_builtin_tensor %__auto.blk.31.attn_k.weight : tensor<1024x4096xf16> -> !torch.vtensor<[1024,4096],f16>
    %__auto.blk.31.attn_v.weight = util.global.load @__auto.blk.31.attn_v.weight : tensor<1024x4096xf16>
    %283 = torch_c.from_builtin_tensor %__auto.blk.31.attn_v.weight : tensor<1024x4096xf16> -> !torch.vtensor<[1024,4096],f16>
    %__auto.blk.31.attn_output.weight = util.global.load @__auto.blk.31.attn_output.weight : tensor<4096x4096xf16>
    %284 = torch_c.from_builtin_tensor %__auto.blk.31.attn_output.weight : tensor<4096x4096xf16> -> !torch.vtensor<[4096,4096],f16>
    %__auto.blk.31.ffn_norm.weight = util.global.load @__auto.blk.31.ffn_norm.weight : tensor<4096xf32>
    %285 = torch_c.from_builtin_tensor %__auto.blk.31.ffn_norm.weight : tensor<4096xf32> -> !torch.vtensor<[4096],f32>
    %__auto.blk.31.ffn_gate.weight = util.global.load @__auto.blk.31.ffn_gate.weight : tensor<14336x4096xf16>
    %286 = torch_c.from_builtin_tensor %__auto.blk.31.ffn_gate.weight : tensor<14336x4096xf16> -> !torch.vtensor<[14336,4096],f16>
    %__auto.blk.31.ffn_up.weight = util.global.load @__auto.blk.31.ffn_up.weight : tensor<14336x4096xf16>
    %287 = torch_c.from_builtin_tensor %__auto.blk.31.ffn_up.weight : tensor<14336x4096xf16> -> !torch.vtensor<[14336,4096],f16>
    %__auto.blk.31.ffn_down.weight = util.global.load @__auto.blk.31.ffn_down.weight : tensor<4096x14336xf16>
    %288 = torch_c.from_builtin_tensor %__auto.blk.31.ffn_down.weight : tensor<4096x14336xf16> -> !torch.vtensor<[4096,14336],f16>
    %__auto.output_norm.weight = util.global.load @__auto.output_norm.weight : tensor<4096xf32>
    %289 = torch_c.from_builtin_tensor %__auto.output_norm.weight : tensor<4096xf32> -> !torch.vtensor<[4096],f32>
    %__auto.output.weight = util.global.load @__auto.output.weight : tensor<128256x4096xf16>
    %290 = torch_c.from_builtin_tensor %__auto.output.weight : tensor<128256x4096xf16> -> !torch.vtensor<[128256,4096],f16>
    %291 = torch.copy.to_vtensor %arg3 : !torch.vtensor<[?,2097152],f16>
    %292 = torch.symbolic_int "s1" {min_val = 2, max_val = 4095} : !torch.int
    %293 = torch.symbolic_int "s2" {min_val = 2, max_val = 9223372036854775806} : !torch.int
    torch.bind_symbolic_shape %arg0, [%292], affine_map<()[s0] -> (4, s0 * 32)> : !torch.vtensor<[4,?],si64>
    torch.bind_symbolic_shape %arg2, [%292], affine_map<()[s0] -> (4, s0)> : !torch.vtensor<[4,?],si64>
    torch.bind_symbolic_shape %291, [%293], affine_map<()[s0] -> (s0, 2097152)> : !torch.vtensor<[?,2097152],f16>
    %int-1 = torch.constant.int -1
    %false = torch.constant.bool false
    %false_0 = torch.constant.bool false
    %294 = torch.aten.embedding %0, %arg0, %int-1, %false, %false_0 : !torch.vtensor<[128256,4096],f16>, !torch.vtensor<[4,?],si64>, !torch.int, !torch.bool, !torch.bool -> !torch.vtensor<[4,?,4096],f16>
    torch.bind_symbolic_shape %294, [%292], affine_map<()[s0] -> (4, s0 * 32, 4096)> : !torch.vtensor<[4,?,4096],f16>
    %int6 = torch.constant.int 6
    %295 = torch.prims.convert_element_type %294, %int6 : !torch.vtensor<[4,?,4096],f16>, !torch.int -> !torch.vtensor<[4,?,4096],f32>
    torch.bind_symbolic_shape %295, [%292], affine_map<()[s0] -> (4, s0 * 32, 4096)> : !torch.vtensor<[4,?,4096],f32>
    %int2 = torch.constant.int 2
    %296 = torch.aten.pow.Tensor_Scalar %295, %int2 : !torch.vtensor<[4,?,4096],f32>, !torch.int -> !torch.vtensor<[4,?,4096],f32>
    torch.bind_symbolic_shape %296, [%292], affine_map<()[s0] -> (4, s0 * 32, 4096)> : !torch.vtensor<[4,?,4096],f32>
    %int-1_1 = torch.constant.int -1
    %297 = torch.prim.ListConstruct %int-1_1 : (!torch.int) -> !torch.list<int>
    %true = torch.constant.bool true
    %none = torch.constant.none
    %298 = torch.aten.mean.dim %296, %297, %true, %none : !torch.vtensor<[4,?,4096],f32>, !torch.list<int>, !torch.bool, !torch.none -> !torch.vtensor<[4,?,1],f32>
    torch.bind_symbolic_shape %298, [%292], affine_map<()[s0] -> (4, s0 * 32, 1)> : !torch.vtensor<[4,?,1],f32>
    %float9.999990e-06 = torch.constant.float 9.9999997473787516E-6
    %int1 = torch.constant.int 1
    %299 = torch.aten.add.Scalar %298, %float9.999990e-06, %int1 : !torch.vtensor<[4,?,1],f32>, !torch.float, !torch.int -> !torch.vtensor<[4,?,1],f32>
    torch.bind_symbolic_shape %299, [%292], affine_map<()[s0] -> (4, s0 * 32, 1)> : !torch.vtensor<[4,?,1],f32>
    %300 = torch.aten.rsqrt %299 : !torch.vtensor<[4,?,1],f32> -> !torch.vtensor<[4,?,1],f32>
    torch.bind_symbolic_shape %300, [%292], affine_map<()[s0] -> (4, s0 * 32, 1)> : !torch.vtensor<[4,?,1],f32>
    %301 = torch.aten.mul.Tensor %295, %300 : !torch.vtensor<[4,?,4096],f32>, !torch.vtensor<[4,?,1],f32> -> !torch.vtensor<[4,?,4096],f32>
    torch.bind_symbolic_shape %301, [%292], affine_map<()[s0] -> (4, s0 * 32, 4096)> : !torch.vtensor<[4,?,4096],f32>
    %int5 = torch.constant.int 5
    %302 = torch.prims.convert_element_type %301, %int5 : !torch.vtensor<[4,?,4096],f32>, !torch.int -> !torch.vtensor<[4,?,4096],f16>
    torch.bind_symbolic_shape %302, [%292], affine_map<()[s0] -> (4, s0 * 32, 4096)> : !torch.vtensor<[4,?,4096],f16>
    %303 = torch.aten.mul.Tensor %1, %302 : !torch.vtensor<[4096],f32>, !torch.vtensor<[4,?,4096],f16> -> !torch.vtensor<[4,?,4096],f32>
    torch.bind_symbolic_shape %303, [%292], affine_map<()[s0] -> (4, s0 * 32, 4096)> : !torch.vtensor<[4,?,4096],f32>
    %int5_2 = torch.constant.int 5
    %304 = torch.prims.convert_element_type %303, %int5_2 : !torch.vtensor<[4,?,4096],f32>, !torch.int -> !torch.vtensor<[4,?,4096],f16>
    torch.bind_symbolic_shape %304, [%292], affine_map<()[s0] -> (4, s0 * 32, 4096)> : !torch.vtensor<[4,?,4096],f16>
    %int-2 = torch.constant.int -2
    %int-1_3 = torch.constant.int -1
    %305 = torch.aten.transpose.int %2, %int-2, %int-1_3 : !torch.vtensor<[4096,4096],f16>, !torch.int, !torch.int -> !torch.vtensor<[4096,4096],f16>
    %int1_4 = torch.constant.int 1
    %306 = torch.aten.size.int %arg0, %int1_4 : !torch.vtensor<[4,?],si64>, !torch.int -> !torch.int
    %int4 = torch.constant.int 4
    %307 = torch.aten.mul.int %int4, %306 : !torch.int, !torch.int -> !torch.int
    %int4096 = torch.constant.int 4096
    %308 = torch.prim.ListConstruct %307, %int4096 : (!torch.int, !torch.int) -> !torch.list<int>
    %309 = torch.aten.view %304, %308 : !torch.vtensor<[4,?,4096],f16>, !torch.list<int> -> !torch.vtensor<[?,4096],f16>
    torch.bind_symbolic_shape %309, [%292], affine_map<()[s0] -> (s0 * 128, 4096)> : !torch.vtensor<[?,4096],f16>
    %310 = torch.aten.mm %309, %305 : !torch.vtensor<[?,4096],f16>, !torch.vtensor<[4096,4096],f16> -> !torch.vtensor<[?,4096],f16>
    torch.bind_symbolic_shape %310, [%292], affine_map<()[s0] -> (s0 * 128, 4096)> : !torch.vtensor<[?,4096],f16>
    %int4_5 = torch.constant.int 4
    %int4096_6 = torch.constant.int 4096
    %311 = torch.prim.ListConstruct %int4_5, %306, %int4096_6 : (!torch.int, !torch.int, !torch.int) -> !torch.list<int>
    %312 = torch.aten.view %310, %311 : !torch.vtensor<[?,4096],f16>, !torch.list<int> -> !torch.vtensor<[4,?,4096],f16>
    torch.bind_symbolic_shape %312, [%292], affine_map<()[s0] -> (4, s0 * 32, 4096)> : !torch.vtensor<[4,?,4096],f16>
    %int-2_7 = torch.constant.int -2
    %int-1_8 = torch.constant.int -1
    %313 = torch.aten.transpose.int %3, %int-2_7, %int-1_8 : !torch.vtensor<[1024,4096],f16>, !torch.int, !torch.int -> !torch.vtensor<[4096,1024],f16>
    %int4_9 = torch.constant.int 4
    %314 = torch.aten.mul.int %int4_9, %306 : !torch.int, !torch.int -> !torch.int
    %int4096_10 = torch.constant.int 4096
    %315 = torch.prim.ListConstruct %314, %int4096_10 : (!torch.int, !torch.int) -> !torch.list<int>
    %316 = torch.aten.view %304, %315 : !torch.vtensor<[4,?,4096],f16>, !torch.list<int> -> !torch.vtensor<[?,4096],f16>
    torch.bind_symbolic_shape %316, [%292], affine_map<()[s0] -> (s0 * 128, 4096)> : !torch.vtensor<[?,4096],f16>
    %317 = torch.aten.mm %316, %313 : !torch.vtensor<[?,4096],f16>, !torch.vtensor<[4096,1024],f16> -> !torch.vtensor<[?,1024],f16>
    torch.bind_symbolic_shape %317, [%292], affine_map<()[s0] -> (s0 * 128, 1024)> : !torch.vtensor<[?,1024],f16>
    %int4_11 = torch.constant.int 4
    %int1024 = torch.constant.int 1024
    %318 = torch.prim.ListConstruct %int4_11, %306, %int1024 : (!torch.int, !torch.int, !torch.int) -> !torch.list<int>
    %319 = torch.aten.view %317, %318 : !torch.vtensor<[?,1024],f16>, !torch.list<int> -> !torch.vtensor<[4,?,1024],f16>
    torch.bind_symbolic_shape %319, [%292], affine_map<()[s0] -> (4, s0 * 32, 1024)> : !torch.vtensor<[4,?,1024],f16>
    %int-2_12 = torch.constant.int -2
    %int-1_13 = torch.constant.int -1
    %320 = torch.aten.transpose.int %4, %int-2_12, %int-1_13 : !torch.vtensor<[1024,4096],f16>, !torch.int, !torch.int -> !torch.vtensor<[4096,1024],f16>
    %int4_14 = torch.constant.int 4
    %321 = torch.aten.mul.int %int4_14, %306 : !torch.int, !torch.int -> !torch.int
    %int4096_15 = torch.constant.int 4096
    %322 = torch.prim.ListConstruct %321, %int4096_15 : (!torch.int, !torch.int) -> !torch.list<int>
    %323 = torch.aten.view %304, %322 : !torch.vtensor<[4,?,4096],f16>, !torch.list<int> -> !torch.vtensor<[?,4096],f16>
    torch.bind_symbolic_shape %323, [%292], affine_map<()[s0] -> (s0 * 128, 4096)> : !torch.vtensor<[?,4096],f16>
    %324 = torch.aten.mm %323, %320 : !torch.vtensor<[?,4096],f16>, !torch.vtensor<[4096,1024],f16> -> !torch.vtensor<[?,1024],f16>
    torch.bind_symbolic_shape %324, [%292], affine_map<()[s0] -> (s0 * 128, 1024)> : !torch.vtensor<[?,1024],f16>
    %int4_16 = torch.constant.int 4
    %int1024_17 = torch.constant.int 1024
    %325 = torch.prim.ListConstruct %int4_16, %306, %int1024_17 : (!torch.int, !torch.int, !torch.int) -> !torch.list<int>
    %326 = torch.aten.view %324, %325 : !torch.vtensor<[?,1024],f16>, !torch.list<int> -> !torch.vtensor<[4,?,1024],f16>
    torch.bind_symbolic_shape %326, [%292], affine_map<()[s0] -> (4, s0 * 32, 1024)> : !torch.vtensor<[4,?,1024],f16>
    %int4_18 = torch.constant.int 4
    %int32 = torch.constant.int 32
    %int128 = torch.constant.int 128
    %327 = torch.prim.ListConstruct %int4_18, %306, %int32, %int128 : (!torch.int, !torch.int, !torch.int, !torch.int) -> !torch.list<int>
    %328 = torch.aten.view %312, %327 : !torch.vtensor<[4,?,4096],f16>, !torch.list<int> -> !torch.vtensor<[4,?,32,128],f16>
    torch.bind_symbolic_shape %328, [%292], affine_map<()[s0] -> (4, s0 * 32, 32, 128)> : !torch.vtensor<[4,?,32,128],f16>
    %int4_19 = torch.constant.int 4
    %int8 = torch.constant.int 8
    %int128_20 = torch.constant.int 128
    %329 = torch.prim.ListConstruct %int4_19, %306, %int8, %int128_20 : (!torch.int, !torch.int, !torch.int, !torch.int) -> !torch.list<int>
    %330 = torch.aten.view %319, %329 : !torch.vtensor<[4,?,1024],f16>, !torch.list<int> -> !torch.vtensor<[4,?,8,128],f16>
    torch.bind_symbolic_shape %330, [%292], affine_map<()[s0] -> (4, s0 * 32, 8, 128)> : !torch.vtensor<[4,?,8,128],f16>
    %int4_21 = torch.constant.int 4
    %int8_22 = torch.constant.int 8
    %int128_23 = torch.constant.int 128
    %331 = torch.prim.ListConstruct %int4_21, %306, %int8_22, %int128_23 : (!torch.int, !torch.int, !torch.int, !torch.int) -> !torch.list<int>
    %332 = torch.aten.view %326, %331 : !torch.vtensor<[4,?,1024],f16>, !torch.list<int> -> !torch.vtensor<[4,?,8,128],f16>
    torch.bind_symbolic_shape %332, [%292], affine_map<()[s0] -> (4, s0 * 32, 8, 128)> : !torch.vtensor<[4,?,8,128],f16>
    %int131072 = torch.constant.int 131072
    %none_24 = torch.constant.none
    %none_25 = torch.constant.none
    %cpu = torch.constant.device "cpu"
    %false_26 = torch.constant.bool false
    %333 = torch.aten.arange %int131072, %none_24, %none_25, %cpu, %false_26 : !torch.int, !torch.none, !torch.none, !torch.Device, !torch.bool -> !torch.vtensor<[131072],si64>
    %int0 = torch.constant.int 0
    %int128_27 = torch.constant.int 128
    %none_28 = torch.constant.none
    %none_29 = torch.constant.none
    %cpu_30 = torch.constant.device "cpu"
    %false_31 = torch.constant.bool false
    %334 = torch.aten.arange.start %int0, %int128_27, %none_28, %none_29, %cpu_30, %false_31 : !torch.int, !torch.int, !torch.none, !torch.none, !torch.Device, !torch.bool -> !torch.vtensor<[128],si64>
    %int2_32 = torch.constant.int 2
    %335 = torch.aten.floor_divide.Scalar %334, %int2_32 : !torch.vtensor<[128],si64>, !torch.int -> !torch.vtensor<[128],si64>
    %int6_33 = torch.constant.int 6
    %336 = torch.prims.convert_element_type %335, %int6_33 : !torch.vtensor<[128],si64>, !torch.int -> !torch.vtensor<[128],f32>
    %int128_34 = torch.constant.int 128
    %337 = torch.aten.div.Scalar %336, %int128_34 : !torch.vtensor<[128],f32>, !torch.int -> !torch.vtensor<[128],f32>
    %float2.000000e00 = torch.constant.float 2.000000e+00
    %338 = torch.aten.mul.Scalar %337, %float2.000000e00 : !torch.vtensor<[128],f32>, !torch.float -> !torch.vtensor<[128],f32>
    %float5.000000e05 = torch.constant.float 5.000000e+05
    %339 = torch.aten.pow.Scalar %float5.000000e05, %338 : !torch.float, !torch.vtensor<[128],f32> -> !torch.vtensor<[128],f32>
    %340 = torch.aten.reciprocal %339 : !torch.vtensor<[128],f32> -> !torch.vtensor<[128],f32>
    %float1.000000e00 = torch.constant.float 1.000000e+00
    %341 = torch.aten.mul.Scalar %340, %float1.000000e00 : !torch.vtensor<[128],f32>, !torch.float -> !torch.vtensor<[128],f32>
    %int1_35 = torch.constant.int 1
    %342 = torch.aten.unsqueeze %333, %int1_35 : !torch.vtensor<[131072],si64>, !torch.int -> !torch.vtensor<[131072,1],si64>
    %int0_36 = torch.constant.int 0
    %343 = torch.aten.unsqueeze %341, %int0_36 : !torch.vtensor<[128],f32>, !torch.int -> !torch.vtensor<[1,128],f32>
    %344 = torch.aten.mul.Tensor %342, %343 : !torch.vtensor<[131072,1],si64>, !torch.vtensor<[1,128],f32> -> !torch.vtensor<[131072,128],f32>
    %int1_37 = torch.constant.int 1
    %345 = torch.aten.size.int %312, %int1_37 : !torch.vtensor<[4,?,4096],f16>, !torch.int -> !torch.int
    %int0_38 = torch.constant.int 0
    %346 = torch.aten.add.int %int0_38, %345 : !torch.int, !torch.int -> !torch.int
    %int0_39 = torch.constant.int 0
    %int0_40 = torch.constant.int 0
    %int1_41 = torch.constant.int 1
    %347 = torch.aten.slice.Tensor %344, %int0_39, %int0_40, %346, %int1_41 : !torch.vtensor<[131072,128],f32>, !torch.int, !torch.int, !torch.int, !torch.int -> !torch.vtensor<[?,128],f32>
    torch.bind_symbolic_shape %347, [%292], affine_map<()[s0] -> (s0 * 32, 128)> : !torch.vtensor<[?,128],f32>
    %int1_42 = torch.constant.int 1
    %int0_43 = torch.constant.int 0
    %int9223372036854775807 = torch.constant.int 9223372036854775807
    %int1_44 = torch.constant.int 1
    %348 = torch.aten.slice.Tensor %347, %int1_42, %int0_43, %int9223372036854775807, %int1_44 : !torch.vtensor<[?,128],f32>, !torch.int, !torch.int, !torch.int, !torch.int -> !torch.vtensor<[?,128],f32>
    torch.bind_symbolic_shape %348, [%292], affine_map<()[s0] -> (s0 * 32, 128)> : !torch.vtensor<[?,128],f32>
    %int1_45 = torch.constant.int 1
    %int0_46 = torch.constant.int 0
    %int9223372036854775807_47 = torch.constant.int 9223372036854775807
    %int1_48 = torch.constant.int 1
    %349 = torch.aten.slice.Tensor %348, %int1_45, %int0_46, %int9223372036854775807_47, %int1_48 : !torch.vtensor<[?,128],f32>, !torch.int, !torch.int, !torch.int, !torch.int -> !torch.vtensor<[?,128],f32>
    torch.bind_symbolic_shape %349, [%292], affine_map<()[s0] -> (s0 * 32, 128)> : !torch.vtensor<[?,128],f32>
    %int0_49 = torch.constant.int 0
    %350 = torch.aten.unsqueeze %349, %int0_49 : !torch.vtensor<[?,128],f32>, !torch.int -> !torch.vtensor<[1,?,128],f32>
    torch.bind_symbolic_shape %350, [%292], affine_map<()[s0] -> (1, s0 * 32, 128)> : !torch.vtensor<[1,?,128],f32>
    %int1_50 = torch.constant.int 1
    %int0_51 = torch.constant.int 0
    %int9223372036854775807_52 = torch.constant.int 9223372036854775807
    %int1_53 = torch.constant.int 1
    %351 = torch.aten.slice.Tensor %350, %int1_50, %int0_51, %int9223372036854775807_52, %int1_53 : !torch.vtensor<[1,?,128],f32>, !torch.int, !torch.int, !torch.int, !torch.int -> !torch.vtensor<[1,?,128],f32>
    torch.bind_symbolic_shape %351, [%292], affine_map<()[s0] -> (1, s0 * 32, 128)> : !torch.vtensor<[1,?,128],f32>
    %int2_54 = torch.constant.int 2
    %int0_55 = torch.constant.int 0
    %int9223372036854775807_56 = torch.constant.int 9223372036854775807
    %int1_57 = torch.constant.int 1
    %352 = torch.aten.slice.Tensor %351, %int2_54, %int0_55, %int9223372036854775807_56, %int1_57 : !torch.vtensor<[1,?,128],f32>, !torch.int, !torch.int, !torch.int, !torch.int -> !torch.vtensor<[1,?,128],f32>
    torch.bind_symbolic_shape %352, [%292], affine_map<()[s0] -> (1, s0 * 32, 128)> : !torch.vtensor<[1,?,128],f32>
    %int4_58 = torch.constant.int 4
    %int1_59 = torch.constant.int 1
    %int1_60 = torch.constant.int 1
    %353 = torch.prim.ListConstruct %int4_58, %int1_59, %int1_60 : (!torch.int, !torch.int, !torch.int) -> !torch.list<int>
    %354 = torch.aten.repeat %352, %353 : !torch.vtensor<[1,?,128],f32>, !torch.list<int> -> !torch.vtensor<[4,?,128],f32>
    torch.bind_symbolic_shape %354, [%292], affine_map<()[s0] -> (4, s0 * 32, 128)> : !torch.vtensor<[4,?,128],f32>
    %int6_61 = torch.constant.int 6
    %355 = torch.prims.convert_element_type %328, %int6_61 : !torch.vtensor<[4,?,32,128],f16>, !torch.int -> !torch.vtensor<[4,?,32,128],f32>
    torch.bind_symbolic_shape %355, [%292], affine_map<()[s0] -> (4, s0 * 32, 32, 128)> : !torch.vtensor<[4,?,32,128],f32>
    %356 = torch_c.to_builtin_tensor %355 : !torch.vtensor<[4,?,32,128],f32> -> tensor<4x?x32x128xf32>
    %357 = torch_c.to_builtin_tensor %354 : !torch.vtensor<[4,?,128],f32> -> tensor<4x?x128xf32>
    %358 = util.call @sharktank_rotary_embedding_4_D_32_128_f32(%356, %357) : (tensor<4x?x32x128xf32>, tensor<4x?x128xf32>) -> tensor<4x?x32x128xf32>
    %359 = torch_c.from_builtin_tensor %358 : tensor<4x?x32x128xf32> -> !torch.vtensor<[4,?,32,128],f32>
    torch.bind_symbolic_shape %359, [%292], affine_map<()[s0] -> (4, s0 * 32, 32, 128)> : !torch.vtensor<[4,?,32,128],f32>
    %int5_62 = torch.constant.int 5
    %360 = torch.prims.convert_element_type %359, %int5_62 : !torch.vtensor<[4,?,32,128],f32>, !torch.int -> !torch.vtensor<[4,?,32,128],f16>
    torch.bind_symbolic_shape %360, [%292], affine_map<()[s0] -> (4, s0 * 32, 32, 128)> : !torch.vtensor<[4,?,32,128],f16>
    %int131072_63 = torch.constant.int 131072
    %none_64 = torch.constant.none
    %none_65 = torch.constant.none
    %cpu_66 = torch.constant.device "cpu"
    %false_67 = torch.constant.bool false
    %361 = torch.aten.arange %int131072_63, %none_64, %none_65, %cpu_66, %false_67 : !torch.int, !torch.none, !torch.none, !torch.Device, !torch.bool -> !torch.vtensor<[131072],si64>
    %int0_68 = torch.constant.int 0
    %int128_69 = torch.constant.int 128
    %none_70 = torch.constant.none
    %none_71 = torch.constant.none
    %cpu_72 = torch.constant.device "cpu"
    %false_73 = torch.constant.bool false
    %362 = torch.aten.arange.start %int0_68, %int128_69, %none_70, %none_71, %cpu_72, %false_73 : !torch.int, !torch.int, !torch.none, !torch.none, !torch.Device, !torch.bool -> !torch.vtensor<[128],si64>
    %int2_74 = torch.constant.int 2
    %363 = torch.aten.floor_divide.Scalar %362, %int2_74 : !torch.vtensor<[128],si64>, !torch.int -> !torch.vtensor<[128],si64>
    %int6_75 = torch.constant.int 6
    %364 = torch.prims.convert_element_type %363, %int6_75 : !torch.vtensor<[128],si64>, !torch.int -> !torch.vtensor<[128],f32>
    %int128_76 = torch.constant.int 128
    %365 = torch.aten.div.Scalar %364, %int128_76 : !torch.vtensor<[128],f32>, !torch.int -> !torch.vtensor<[128],f32>
    %float2.000000e00_77 = torch.constant.float 2.000000e+00
    %366 = torch.aten.mul.Scalar %365, %float2.000000e00_77 : !torch.vtensor<[128],f32>, !torch.float -> !torch.vtensor<[128],f32>
    %float5.000000e05_78 = torch.constant.float 5.000000e+05
    %367 = torch.aten.pow.Scalar %float5.000000e05_78, %366 : !torch.float, !torch.vtensor<[128],f32> -> !torch.vtensor<[128],f32>
    %368 = torch.aten.reciprocal %367 : !torch.vtensor<[128],f32> -> !torch.vtensor<[128],f32>
    %float1.000000e00_79 = torch.constant.float 1.000000e+00
    %369 = torch.aten.mul.Scalar %368, %float1.000000e00_79 : !torch.vtensor<[128],f32>, !torch.float -> !torch.vtensor<[128],f32>
    %int1_80 = torch.constant.int 1
    %370 = torch.aten.unsqueeze %361, %int1_80 : !torch.vtensor<[131072],si64>, !torch.int -> !torch.vtensor<[131072,1],si64>
    %int0_81 = torch.constant.int 0
    %371 = torch.aten.unsqueeze %369, %int0_81 : !torch.vtensor<[128],f32>, !torch.int -> !torch.vtensor<[1,128],f32>
    %372 = torch.aten.mul.Tensor %370, %371 : !torch.vtensor<[131072,1],si64>, !torch.vtensor<[1,128],f32> -> !torch.vtensor<[131072,128],f32>
    %int1_82 = torch.constant.int 1
    %373 = torch.aten.size.int %319, %int1_82 : !torch.vtensor<[4,?,1024],f16>, !torch.int -> !torch.int
    %int0_83 = torch.constant.int 0
    %374 = torch.aten.add.int %int0_83, %373 : !torch.int, !torch.int -> !torch.int
    %int0_84 = torch.constant.int 0
    %int0_85 = torch.constant.int 0
    %int1_86 = torch.constant.int 1
    %375 = torch.aten.slice.Tensor %372, %int0_84, %int0_85, %374, %int1_86 : !torch.vtensor<[131072,128],f32>, !torch.int, !torch.int, !torch.int, !torch.int -> !torch.vtensor<[?,128],f32>
    torch.bind_symbolic_shape %375, [%292], affine_map<()[s0] -> (s0 * 32, 128)> : !torch.vtensor<[?,128],f32>
    %int1_87 = torch.constant.int 1
    %int0_88 = torch.constant.int 0
    %int9223372036854775807_89 = torch.constant.int 9223372036854775807
    %int1_90 = torch.constant.int 1
    %376 = torch.aten.slice.Tensor %375, %int1_87, %int0_88, %int9223372036854775807_89, %int1_90 : !torch.vtensor<[?,128],f32>, !torch.int, !torch.int, !torch.int, !torch.int -> !torch.vtensor<[?,128],f32>
    torch.bind_symbolic_shape %376, [%292], affine_map<()[s0] -> (s0 * 32, 128)> : !torch.vtensor<[?,128],f32>
    %int1_91 = torch.constant.int 1
    %int0_92 = torch.constant.int 0
    %int9223372036854775807_93 = torch.constant.int 9223372036854775807
    %int1_94 = torch.constant.int 1
    %377 = torch.aten.slice.Tensor %376, %int1_91, %int0_92, %int9223372036854775807_93, %int1_94 : !torch.vtensor<[?,128],f32>, !torch.int, !torch.int, !torch.int, !torch.int -> !torch.vtensor<[?,128],f32>
    torch.bind_symbolic_shape %377, [%292], affine_map<()[s0] -> (s0 * 32, 128)> : !torch.vtensor<[?,128],f32>
    %int0_95 = torch.constant.int 0
    %378 = torch.aten.unsqueeze %377, %int0_95 : !torch.vtensor<[?,128],f32>, !torch.int -> !torch.vtensor<[1,?,128],f32>
    torch.bind_symbolic_shape %378, [%292], affine_map<()[s0] -> (1, s0 * 32, 128)> : !torch.vtensor<[1,?,128],f32>
    %int1_96 = torch.constant.int 1
    %int0_97 = torch.constant.int 0
    %int9223372036854775807_98 = torch.constant.int 9223372036854775807
    %int1_99 = torch.constant.int 1
    %379 = torch.aten.slice.Tensor %378, %int1_96, %int0_97, %int9223372036854775807_98, %int1_99 : !torch.vtensor<[1,?,128],f32>, !torch.int, !torch.int, !torch.int, !torch.int -> !torch.vtensor<[1,?,128],f32>
    torch.bind_symbolic_shape %379, [%292], affine_map<()[s0] -> (1, s0 * 32, 128)> : !torch.vtensor<[1,?,128],f32>
    %int2_100 = torch.constant.int 2
    %int0_101 = torch.constant.int 0
    %int9223372036854775807_102 = torch.constant.int 9223372036854775807
    %int1_103 = torch.constant.int 1
    %380 = torch.aten.slice.Tensor %379, %int2_100, %int0_101, %int9223372036854775807_102, %int1_103 : !torch.vtensor<[1,?,128],f32>, !torch.int, !torch.int, !torch.int, !torch.int -> !torch.vtensor<[1,?,128],f32>
    torch.bind_symbolic_shape %380, [%292], affine_map<()[s0] -> (1, s0 * 32, 128)> : !torch.vtensor<[1,?,128],f32>
    %int4_104 = torch.constant.int 4
    %int1_105 = torch.constant.int 1
    %int1_106 = torch.constant.int 1
    %381 = torch.prim.ListConstruct %int4_104, %int1_105, %int1_106 : (!torch.int, !torch.int, !torch.int) -> !torch.list<int>
    %382 = torch.aten.repeat %380, %381 : !torch.vtensor<[1,?,128],f32>, !torch.list<int> -> !torch.vtensor<[4,?,128],f32>
    torch.bind_symbolic_shape %382, [%292], affine_map<()[s0] -> (4, s0 * 32, 128)> : !torch.vtensor<[4,?,128],f32>
    %int6_107 = torch.constant.int 6
    %383 = torch.prims.convert_element_type %330, %int6_107 : !torch.vtensor<[4,?,8,128],f16>, !torch.int -> !torch.vtensor<[4,?,8,128],f32>
    torch.bind_symbolic_shape %383, [%292], affine_map<()[s0] -> (4, s0 * 32, 8, 128)> : !torch.vtensor<[4,?,8,128],f32>
    %384 = torch_c.to_builtin_tensor %383 : !torch.vtensor<[4,?,8,128],f32> -> tensor<4x?x8x128xf32>
    %385 = torch_c.to_builtin_tensor %382 : !torch.vtensor<[4,?,128],f32> -> tensor<4x?x128xf32>
    %386 = util.call @sharktank_rotary_embedding_4_D_8_128_f32(%384, %385) : (tensor<4x?x8x128xf32>, tensor<4x?x128xf32>) -> tensor<4x?x8x128xf32>
    %387 = torch_c.from_builtin_tensor %386 : tensor<4x?x8x128xf32> -> !torch.vtensor<[4,?,8,128],f32>
    torch.bind_symbolic_shape %387, [%292], affine_map<()[s0] -> (4, s0 * 32, 8, 128)> : !torch.vtensor<[4,?,8,128],f32>
    %int5_108 = torch.constant.int 5
    %388 = torch.prims.convert_element_type %387, %int5_108 : !torch.vtensor<[4,?,8,128],f32>, !torch.int -> !torch.vtensor<[4,?,8,128],f16>
    torch.bind_symbolic_shape %388, [%292], affine_map<()[s0] -> (4, s0 * 32, 8, 128)> : !torch.vtensor<[4,?,8,128],f16>
    %int0_109 = torch.constant.int 0
    %389 = torch.aten.size.int %291, %int0_109 : !torch.vtensor<[?,2097152],f16>, !torch.int -> !torch.int
    %int32_110 = torch.constant.int 32
    %int2_111 = torch.constant.int 2
    %int32_112 = torch.constant.int 32
    %int8_113 = torch.constant.int 8
    %int128_114 = torch.constant.int 128
    %390 = torch.prim.ListConstruct %389, %int32_110, %int2_111, %int32_112, %int8_113, %int128_114 : (!torch.int, !torch.int, !torch.int, !torch.int, !torch.int, !torch.int) -> !torch.list<int>
    %391 = torch.aten.view %291, %390 : !torch.vtensor<[?,2097152],f16>, !torch.list<int> -> !torch.vtensor<[?,32,2,32,8,128],f16>
    torch.bind_symbolic_shape %391, [%293], affine_map<()[s0] -> (s0, 32, 2, 32, 8, 128)> : !torch.vtensor<[?,32,2,32,8,128],f16>
    %int32_115 = torch.constant.int 32
    %392 = torch.aten.mul.int %389, %int32_115 : !torch.int, !torch.int -> !torch.int
    %int2_116 = torch.constant.int 2
    %393 = torch.aten.mul.int %392, %int2_116 : !torch.int, !torch.int -> !torch.int
    %int32_117 = torch.constant.int 32
    %int8_118 = torch.constant.int 8
    %int128_119 = torch.constant.int 128
    %394 = torch.prim.ListConstruct %393, %int32_117, %int8_118, %int128_119 : (!torch.int, !torch.int, !torch.int, !torch.int) -> !torch.list<int>
    %395 = torch.aten.view %391, %394 : !torch.vtensor<[?,32,2,32,8,128],f16>, !torch.list<int> -> !torch.vtensor<[?,32,8,128],f16>
    torch.bind_symbolic_shape %395, [%293], affine_map<()[s0] -> (s0 * 64, 32, 8, 128)> : !torch.vtensor<[?,32,8,128],f16>
    %int64 = torch.constant.int 64
    %396 = torch.aten.mul.Scalar %arg2, %int64 : !torch.vtensor<[4,?],si64>, !torch.int -> !torch.vtensor<[4,?],si64>
    torch.bind_symbolic_shape %396, [%292], affine_map<()[s0] -> (4, s0)> : !torch.vtensor<[4,?],si64>
    %int0_120 = torch.constant.int 0
    %int1_121 = torch.constant.int 1
    %397 = torch.aten.add.Scalar %396, %int0_120, %int1_121 : !torch.vtensor<[4,?],si64>, !torch.int, !torch.int -> !torch.vtensor<[4,?],si64>
    torch.bind_symbolic_shape %397, [%292], affine_map<()[s0] -> (4, s0)> : !torch.vtensor<[4,?],si64>
    %int1_122 = torch.constant.int 1
    %398 = torch.aten.size.int %arg2, %int1_122 : !torch.vtensor<[4,?],si64>, !torch.int -> !torch.int
    %int4_123 = torch.constant.int 4
    %int32_124 = torch.constant.int 32
    %int8_125 = torch.constant.int 8
    %int128_126 = torch.constant.int 128
    %399 = torch.prim.ListConstruct %int4_123, %398, %int32_124, %int8_125, %int128_126 : (!torch.int, !torch.int, !torch.int, !torch.int, !torch.int) -> !torch.list<int>
    %400 = torch.aten.view %388, %399 : !torch.vtensor<[4,?,8,128],f16>, !torch.list<int> -> !torch.vtensor<[4,?,32,8,128],f16>
    torch.bind_symbolic_shape %400, [%292], affine_map<()[s0] -> (4, s0, 32, 8, 128)> : !torch.vtensor<[4,?,32,8,128],f16>
    %int4_127 = torch.constant.int 4
    %401 = torch.aten.mul.int %int4_127, %398 : !torch.int, !torch.int -> !torch.int
    %int32_128 = torch.constant.int 32
    %int8_129 = torch.constant.int 8
    %int128_130 = torch.constant.int 128
    %402 = torch.prim.ListConstruct %401, %int32_128, %int8_129, %int128_130 : (!torch.int, !torch.int, !torch.int, !torch.int) -> !torch.list<int>
    %403 = torch.aten.view %400, %402 : !torch.vtensor<[4,?,32,8,128],f16>, !torch.list<int> -> !torch.vtensor<[?,32,8,128],f16>
    torch.bind_symbolic_shape %403, [%292], affine_map<()[s0] -> (s0 * 4, 32, 8, 128)> : !torch.vtensor<[?,32,8,128],f16>
    %int4_131 = torch.constant.int 4
    %404 = torch.aten.mul.int %int4_131, %398 : !torch.int, !torch.int -> !torch.int
    %405 = torch.prim.ListConstruct %404 : (!torch.int) -> !torch.list<int>
    %406 = torch.aten.view %397, %405 : !torch.vtensor<[4,?],si64>, !torch.list<int> -> !torch.vtensor<[?],si64>
    torch.bind_symbolic_shape %406, [%292], affine_map<()[s0] -> (s0 * 4)> : !torch.vtensor<[?],si64>
    %407 = torch.prim.ListConstruct %406 : (!torch.vtensor<[?],si64>) -> !torch.list<optional<vtensor>>
    %false_132 = torch.constant.bool false
    %408 = torch.aten.index_put %395, %407, %403, %false_132 : !torch.vtensor<[?,32,8,128],f16>, !torch.list<optional<vtensor>>, !torch.vtensor<[?,32,8,128],f16>, !torch.bool -> !torch.vtensor<[?,32,8,128],f16>
    torch.bind_symbolic_shape %408, [%293], affine_map<()[s0] -> (s0 * 64, 32, 8, 128)> : !torch.vtensor<[?,32,8,128],f16>
    %int32_133 = torch.constant.int 32
    %int2_134 = torch.constant.int 2
    %int32_135 = torch.constant.int 32
    %int8_136 = torch.constant.int 8
    %int128_137 = torch.constant.int 128
    %409 = torch.prim.ListConstruct %389, %int32_133, %int2_134, %int32_135, %int8_136, %int128_137 : (!torch.int, !torch.int, !torch.int, !torch.int, !torch.int, !torch.int) -> !torch.list<int>
    %410 = torch.aten.view %408, %409 : !torch.vtensor<[?,32,8,128],f16>, !torch.list<int> -> !torch.vtensor<[?,32,2,32,8,128],f16>
    torch.bind_symbolic_shape %410, [%293], affine_map<()[s0] -> (s0, 32, 2, 32, 8, 128)> : !torch.vtensor<[?,32,2,32,8,128],f16>
    %int2097152 = torch.constant.int 2097152
    %411 = torch.prim.ListConstruct %389, %int2097152 : (!torch.int, !torch.int) -> !torch.list<int>
    %412 = torch.aten.view %410, %411 : !torch.vtensor<[?,32,2,32,8,128],f16>, !torch.list<int> -> !torch.vtensor<[?,2097152],f16>
    torch.bind_symbolic_shape %412, [%293], affine_map<()[s0] -> (s0, 2097152)> : !torch.vtensor<[?,2097152],f16>
    %int32_138 = torch.constant.int 32
    %int2_139 = torch.constant.int 2
    %int32_140 = torch.constant.int 32
    %int8_141 = torch.constant.int 8
    %int128_142 = torch.constant.int 128
    %413 = torch.prim.ListConstruct %389, %int32_138, %int2_139, %int32_140, %int8_141, %int128_142 : (!torch.int, !torch.int, !torch.int, !torch.int, !torch.int, !torch.int) -> !torch.list<int>
    %414 = torch.aten.view %412, %413 : !torch.vtensor<[?,2097152],f16>, !torch.list<int> -> !torch.vtensor<[?,32,2,32,8,128],f16>
    torch.bind_symbolic_shape %414, [%293], affine_map<()[s0] -> (s0, 32, 2, 32, 8, 128)> : !torch.vtensor<[?,32,2,32,8,128],f16>
    %int32_143 = torch.constant.int 32
    %int8_144 = torch.constant.int 8
    %int128_145 = torch.constant.int 128
    %415 = torch.prim.ListConstruct %393, %int32_143, %int8_144, %int128_145 : (!torch.int, !torch.int, !torch.int, !torch.int) -> !torch.list<int>
    %416 = torch.aten.view %414, %415 : !torch.vtensor<[?,32,2,32,8,128],f16>, !torch.list<int> -> !torch.vtensor<[?,32,8,128],f16>
    torch.bind_symbolic_shape %416, [%293], affine_map<()[s0] -> (s0 * 64, 32, 8, 128)> : !torch.vtensor<[?,32,8,128],f16>
    %int4_146 = torch.constant.int 4
    %int32_147 = torch.constant.int 32
    %int8_148 = torch.constant.int 8
    %int128_149 = torch.constant.int 128
    %417 = torch.prim.ListConstruct %int4_146, %398, %int32_147, %int8_148, %int128_149 : (!torch.int, !torch.int, !torch.int, !torch.int, !torch.int) -> !torch.list<int>
    %418 = torch.aten.view %332, %417 : !torch.vtensor<[4,?,8,128],f16>, !torch.list<int> -> !torch.vtensor<[4,?,32,8,128],f16>
    torch.bind_symbolic_shape %418, [%292], affine_map<()[s0] -> (4, s0, 32, 8, 128)> : !torch.vtensor<[4,?,32,8,128],f16>
    %int4_150 = torch.constant.int 4
    %419 = torch.aten.mul.int %int4_150, %398 : !torch.int, !torch.int -> !torch.int
    %int32_151 = torch.constant.int 32
    %int8_152 = torch.constant.int 8
    %int128_153 = torch.constant.int 128
    %420 = torch.prim.ListConstruct %419, %int32_151, %int8_152, %int128_153 : (!torch.int, !torch.int, !torch.int, !torch.int) -> !torch.list<int>
    %421 = torch.aten.view %418, %420 : !torch.vtensor<[4,?,32,8,128],f16>, !torch.list<int> -> !torch.vtensor<[?,32,8,128],f16>
    torch.bind_symbolic_shape %421, [%292], affine_map<()[s0] -> (s0 * 4, 32, 8, 128)> : !torch.vtensor<[?,32,8,128],f16>
    %int1_154 = torch.constant.int 1
    %int1_155 = torch.constant.int 1
    %422 = torch.aten.add.Scalar %397, %int1_154, %int1_155 : !torch.vtensor<[4,?],si64>, !torch.int, !torch.int -> !torch.vtensor<[4,?],si64>
    torch.bind_symbolic_shape %422, [%292], affine_map<()[s0] -> (4, s0)> : !torch.vtensor<[4,?],si64>
    %int4_156 = torch.constant.int 4
    %423 = torch.aten.mul.int %int4_156, %398 : !torch.int, !torch.int -> !torch.int
    %424 = torch.prim.ListConstruct %423 : (!torch.int) -> !torch.list<int>
    %425 = torch.aten.view %422, %424 : !torch.vtensor<[4,?],si64>, !torch.list<int> -> !torch.vtensor<[?],si64>
    torch.bind_symbolic_shape %425, [%292], affine_map<()[s0] -> (s0 * 4)> : !torch.vtensor<[?],si64>
    %426 = torch.prim.ListConstruct %425 : (!torch.vtensor<[?],si64>) -> !torch.list<optional<vtensor>>
    %false_157 = torch.constant.bool false
    %427 = torch.aten.index_put %416, %426, %421, %false_157 : !torch.vtensor<[?,32,8,128],f16>, !torch.list<optional<vtensor>>, !torch.vtensor<[?,32,8,128],f16>, !torch.bool -> !torch.vtensor<[?,32,8,128],f16>
    torch.bind_symbolic_shape %427, [%293], affine_map<()[s0] -> (s0 * 64, 32, 8, 128)> : !torch.vtensor<[?,32,8,128],f16>
    %int32_158 = torch.constant.int 32
    %int2_159 = torch.constant.int 2
    %int32_160 = torch.constant.int 32
    %int8_161 = torch.constant.int 8
    %int128_162 = torch.constant.int 128
    %428 = torch.prim.ListConstruct %389, %int32_158, %int2_159, %int32_160, %int8_161, %int128_162 : (!torch.int, !torch.int, !torch.int, !torch.int, !torch.int, !torch.int) -> !torch.list<int>
    %429 = torch.aten.view %427, %428 : !torch.vtensor<[?,32,8,128],f16>, !torch.list<int> -> !torch.vtensor<[?,32,2,32,8,128],f16>
    torch.bind_symbolic_shape %429, [%293], affine_map<()[s0] -> (s0, 32, 2, 32, 8, 128)> : !torch.vtensor<[?,32,2,32,8,128],f16>
    %int2097152_163 = torch.constant.int 2097152
    %430 = torch.prim.ListConstruct %389, %int2097152_163 : (!torch.int, !torch.int) -> !torch.list<int>
    %431 = torch.aten.view %429, %430 : !torch.vtensor<[?,32,2,32,8,128],f16>, !torch.list<int> -> !torch.vtensor<[?,2097152],f16>
    torch.bind_symbolic_shape %431, [%293], affine_map<()[s0] -> (s0, 2097152)> : !torch.vtensor<[?,2097152],f16>
    %int-2_164 = torch.constant.int -2
    %432 = torch.aten.unsqueeze %388, %int-2_164 : !torch.vtensor<[4,?,8,128],f16>, !torch.int -> !torch.vtensor<[4,?,8,1,128],f16>
    torch.bind_symbolic_shape %432, [%292], affine_map<()[s0] -> (4, s0 * 32, 8, 1, 128)> : !torch.vtensor<[4,?,8,1,128],f16>
    %int4_165 = torch.constant.int 4
    %int8_166 = torch.constant.int 8
    %int4_167 = torch.constant.int 4
    %int128_168 = torch.constant.int 128
    %433 = torch.prim.ListConstruct %int4_165, %373, %int8_166, %int4_167, %int128_168 : (!torch.int, !torch.int, !torch.int, !torch.int, !torch.int) -> !torch.list<int>
    %false_169 = torch.constant.bool false
    %434 = torch.aten.expand %432, %433, %false_169 : !torch.vtensor<[4,?,8,1,128],f16>, !torch.list<int>, !torch.bool -> !torch.vtensor<[4,?,8,4,128],f16>
    torch.bind_symbolic_shape %434, [%292], affine_map<()[s0] -> (4, s0 * 32, 8, 4, 128)> : !torch.vtensor<[4,?,8,4,128],f16>
    %int0_170 = torch.constant.int 0
    %435 = torch.aten.clone %434, %int0_170 : !torch.vtensor<[4,?,8,4,128],f16>, !torch.int -> !torch.vtensor<[4,?,8,4,128],f16>
    torch.bind_symbolic_shape %435, [%292], affine_map<()[s0] -> (4, s0 * 32, 8, 4, 128)> : !torch.vtensor<[4,?,8,4,128],f16>
    %int4_171 = torch.constant.int 4
    %int32_172 = torch.constant.int 32
    %int128_173 = torch.constant.int 128
    %436 = torch.prim.ListConstruct %int4_171, %373, %int32_172, %int128_173 : (!torch.int, !torch.int, !torch.int, !torch.int) -> !torch.list<int>
    %437 = torch.aten._unsafe_view %435, %436 : !torch.vtensor<[4,?,8,4,128],f16>, !torch.list<int> -> !torch.vtensor<[4,?,32,128],f16>
    torch.bind_symbolic_shape %437, [%292], affine_map<()[s0] -> (4, s0 * 32, 32, 128)> : !torch.vtensor<[4,?,32,128],f16>
    %int-2_174 = torch.constant.int -2
    %438 = torch.aten.unsqueeze %332, %int-2_174 : !torch.vtensor<[4,?,8,128],f16>, !torch.int -> !torch.vtensor<[4,?,8,1,128],f16>
    torch.bind_symbolic_shape %438, [%292], affine_map<()[s0] -> (4, s0 * 32, 8, 1, 128)> : !torch.vtensor<[4,?,8,1,128],f16>
    %int1_175 = torch.constant.int 1
    %439 = torch.aten.size.int %326, %int1_175 : !torch.vtensor<[4,?,1024],f16>, !torch.int -> !torch.int
    %int4_176 = torch.constant.int 4
    %int8_177 = torch.constant.int 8
    %int4_178 = torch.constant.int 4
    %int128_179 = torch.constant.int 128
    %440 = torch.prim.ListConstruct %int4_176, %439, %int8_177, %int4_178, %int128_179 : (!torch.int, !torch.int, !torch.int, !torch.int, !torch.int) -> !torch.list<int>
    %false_180 = torch.constant.bool false
    %441 = torch.aten.expand %438, %440, %false_180 : !torch.vtensor<[4,?,8,1,128],f16>, !torch.list<int>, !torch.bool -> !torch.vtensor<[4,?,8,4,128],f16>
    torch.bind_symbolic_shape %441, [%292], affine_map<()[s0] -> (4, s0 * 32, 8, 4, 128)> : !torch.vtensor<[4,?,8,4,128],f16>
    %int0_181 = torch.constant.int 0
    %442 = torch.aten.clone %441, %int0_181 : !torch.vtensor<[4,?,8,4,128],f16>, !torch.int -> !torch.vtensor<[4,?,8,4,128],f16>
    torch.bind_symbolic_shape %442, [%292], affine_map<()[s0] -> (4, s0 * 32, 8, 4, 128)> : !torch.vtensor<[4,?,8,4,128],f16>
    %int4_182 = torch.constant.int 4
    %int32_183 = torch.constant.int 32
    %int128_184 = torch.constant.int 128
    %443 = torch.prim.ListConstruct %int4_182, %439, %int32_183, %int128_184 : (!torch.int, !torch.int, !torch.int, !torch.int) -> !torch.list<int>
    %444 = torch.aten._unsafe_view %442, %443 : !torch.vtensor<[4,?,8,4,128],f16>, !torch.list<int> -> !torch.vtensor<[4,?,32,128],f16>
    torch.bind_symbolic_shape %444, [%292], affine_map<()[s0] -> (4, s0 * 32, 32, 128)> : !torch.vtensor<[4,?,32,128],f16>
    %int1_185 = torch.constant.int 1
    %int2_186 = torch.constant.int 2
    %445 = torch.aten.transpose.int %360, %int1_185, %int2_186 : !torch.vtensor<[4,?,32,128],f16>, !torch.int, !torch.int -> !torch.vtensor<[4,32,?,128],f16>
    torch.bind_symbolic_shape %445, [%292], affine_map<()[s0] -> (4, 32, s0 * 32, 128)> : !torch.vtensor<[4,32,?,128],f16>
    %int1_187 = torch.constant.int 1
    %int2_188 = torch.constant.int 2
    %446 = torch.aten.transpose.int %437, %int1_187, %int2_188 : !torch.vtensor<[4,?,32,128],f16>, !torch.int, !torch.int -> !torch.vtensor<[4,32,?,128],f16>
    torch.bind_symbolic_shape %446, [%292], affine_map<()[s0] -> (4, 32, s0 * 32, 128)> : !torch.vtensor<[4,32,?,128],f16>
    %int1_189 = torch.constant.int 1
    %int2_190 = torch.constant.int 2
    %447 = torch.aten.transpose.int %444, %int1_189, %int2_190 : !torch.vtensor<[4,?,32,128],f16>, !torch.int, !torch.int -> !torch.vtensor<[4,32,?,128],f16>
    torch.bind_symbolic_shape %447, [%292], affine_map<()[s0] -> (4, 32, s0 * 32, 128)> : !torch.vtensor<[4,32,?,128],f16>
    %float0.000000e00 = torch.constant.float 0.000000e+00
    %true_191 = torch.constant.bool true
    %none_192 = torch.constant.none
    %none_193 = torch.constant.none
    %448:2 = torch.operator "torch.aten._scaled_dot_product_flash_attention_for_cpu"(%445, %446, %447, %float0.000000e00, %true_191, %none_192, %none_193) : (!torch.vtensor<[4,32,?,128],f16>, !torch.vtensor<[4,32,?,128],f16>, !torch.vtensor<[4,32,?,128],f16>, !torch.float, !torch.bool, !torch.none, !torch.none) -> (!torch.vtensor<[4,32,?,128],f16>, !torch.vtensor<[4,32,?],f32>) 
    torch.bind_symbolic_shape %448#0, [%292], affine_map<()[s0] -> (4, 32, s0 * 32, 128)> : !torch.vtensor<[4,32,?,128],f16>
    %int1_194 = torch.constant.int 1
    %int2_195 = torch.constant.int 2
    %449 = torch.aten.transpose.int %448#0, %int1_194, %int2_195 : !torch.vtensor<[4,32,?,128],f16>, !torch.int, !torch.int -> !torch.vtensor<[4,?,32,128],f16>
    torch.bind_symbolic_shape %449, [%292], affine_map<()[s0] -> (4, s0 * 32, 32, 128)> : !torch.vtensor<[4,?,32,128],f16>
    %int4_196 = torch.constant.int 4
    %int4096_197 = torch.constant.int 4096
    %450 = torch.prim.ListConstruct %int4_196, %345, %int4096_197 : (!torch.int, !torch.int, !torch.int) -> !torch.list<int>
    %451 = torch.aten.view %449, %450 : !torch.vtensor<[4,?,32,128],f16>, !torch.list<int> -> !torch.vtensor<[4,?,4096],f16>
    torch.bind_symbolic_shape %451, [%292], affine_map<()[s0] -> (4, s0 * 32, 4096)> : !torch.vtensor<[4,?,4096],f16>
    %int-2_198 = torch.constant.int -2
    %int-1_199 = torch.constant.int -1
    %452 = torch.aten.transpose.int %5, %int-2_198, %int-1_199 : !torch.vtensor<[4096,4096],f16>, !torch.int, !torch.int -> !torch.vtensor<[4096,4096],f16>
    %int4_200 = torch.constant.int 4
    %453 = torch.aten.mul.int %int4_200, %345 : !torch.int, !torch.int -> !torch.int
    %int4096_201 = torch.constant.int 4096
    %454 = torch.prim.ListConstruct %453, %int4096_201 : (!torch.int, !torch.int) -> !torch.list<int>
    %455 = torch.aten.view %451, %454 : !torch.vtensor<[4,?,4096],f16>, !torch.list<int> -> !torch.vtensor<[?,4096],f16>
    torch.bind_symbolic_shape %455, [%292], affine_map<()[s0] -> (s0 * 128, 4096)> : !torch.vtensor<[?,4096],f16>
    %456 = torch.aten.mm %455, %452 : !torch.vtensor<[?,4096],f16>, !torch.vtensor<[4096,4096],f16> -> !torch.vtensor<[?,4096],f16>
    torch.bind_symbolic_shape %456, [%292], affine_map<()[s0] -> (s0 * 128, 4096)> : !torch.vtensor<[?,4096],f16>
    %int4_202 = torch.constant.int 4
    %int4096_203 = torch.constant.int 4096
    %457 = torch.prim.ListConstruct %int4_202, %345, %int4096_203 : (!torch.int, !torch.int, !torch.int) -> !torch.list<int>
    %458 = torch.aten.view %456, %457 : !torch.vtensor<[?,4096],f16>, !torch.list<int> -> !torch.vtensor<[4,?,4096],f16>
    torch.bind_symbolic_shape %458, [%292], affine_map<()[s0] -> (4, s0 * 32, 4096)> : !torch.vtensor<[4,?,4096],f16>
    %int1_204 = torch.constant.int 1
    %459 = torch.aten.add.Tensor %294, %458, %int1_204 : !torch.vtensor<[4,?,4096],f16>, !torch.vtensor<[4,?,4096],f16>, !torch.int -> !torch.vtensor<[4,?,4096],f16>
    torch.bind_symbolic_shape %459, [%292], affine_map<()[s0] -> (4, s0 * 32, 4096)> : !torch.vtensor<[4,?,4096],f16>
    %int6_205 = torch.constant.int 6
    %460 = torch.prims.convert_element_type %459, %int6_205 : !torch.vtensor<[4,?,4096],f16>, !torch.int -> !torch.vtensor<[4,?,4096],f32>
    torch.bind_symbolic_shape %460, [%292], affine_map<()[s0] -> (4, s0 * 32, 4096)> : !torch.vtensor<[4,?,4096],f32>
    %int2_206 = torch.constant.int 2
    %461 = torch.aten.pow.Tensor_Scalar %460, %int2_206 : !torch.vtensor<[4,?,4096],f32>, !torch.int -> !torch.vtensor<[4,?,4096],f32>
    torch.bind_symbolic_shape %461, [%292], affine_map<()[s0] -> (4, s0 * 32, 4096)> : !torch.vtensor<[4,?,4096],f32>
    %int-1_207 = torch.constant.int -1
    %462 = torch.prim.ListConstruct %int-1_207 : (!torch.int) -> !torch.list<int>
    %true_208 = torch.constant.bool true
    %none_209 = torch.constant.none
…
    %6746 = torch.prim.ListConstruct %int4_8564, %int1_8565, %int8_8566, %int128_8567 : (!torch.int, !torch.int, !torch.int, !torch.int) -> !torch.list<int>
    %6747 = torch.aten.view %6737, %6746 : !torch.vtensor<[4,1,1024],f16>, !torch.list<int> -> !torch.vtensor<[4,1,8,128],f16>
    %int4_8568 = torch.constant.int 4
    %int1_8569 = torch.constant.int 1
    %int8_8570 = torch.constant.int 8
    %int128_8571 = torch.constant.int 128
    %6748 = torch.prim.ListConstruct %int4_8568, %int1_8569, %int8_8570, %int128_8571 : (!torch.int, !torch.int, !torch.int, !torch.int) -> !torch.list<int>
    %6749 = torch.aten.view %6743, %6748 : !torch.vtensor<[4,1,1024],f16>, !torch.list<int> -> !torch.vtensor<[4,1,8,128],f16>
    %int6_8572 = torch.constant.int 6
    %6750 = torch.prims.convert_element_type %6745, %int6_8572 : !torch.vtensor<[4,1,32,128],f16>, !torch.int -> !torch.vtensor<[4,1,32,128],f32>
    %6751 = torch_c.to_builtin_tensor %6750 : !torch.vtensor<[4,1,32,128],f32> -> tensor<4x1x32x128xf32>
    %6752 = torch_c.to_builtin_tensor %389 : !torch.vtensor<[4,1,128],f32> -> tensor<4x1x128xf32>
    %6753 = util.call @sharktank_rotary_embedding_4_1_32_128_f32(%6751, %6752) : (tensor<4x1x32x128xf32>, tensor<4x1x128xf32>) -> tensor<4x1x32x128xf32>
    %6754 = torch_c.from_builtin_tensor %6753 : tensor<4x1x32x128xf32> -> !torch.vtensor<[4,1,32,128],f32>
    %int5_8573 = torch.constant.int 5
    %6755 = torch.prims.convert_element_type %6754, %int5_8573 : !torch.vtensor<[4,1,32,128],f32>, !torch.int -> !torch.vtensor<[4,1,32,128],f16>
    %int6_8574 = torch.constant.int 6
    %6756 = torch.prims.convert_element_type %6747, %int6_8574 : !torch.vtensor<[4,1,8,128],f16>, !torch.int -> !torch.vtensor<[4,1,8,128],f32>
    %6757 = torch_c.to_builtin_tensor %6756 : !torch.vtensor<[4,1,8,128],f32> -> tensor<4x1x8x128xf32>
    %6758 = torch_c.to_builtin_tensor %389 : !torch.vtensor<[4,1,128],f32> -> tensor<4x1x128xf32>
    %6759 = util.call @sharktank_rotary_embedding_4_1_8_128_f32(%6757, %6758) : (tensor<4x1x8x128xf32>, tensor<4x1x128xf32>) -> tensor<4x1x8x128xf32>
    %6760 = torch_c.from_builtin_tensor %6759 : tensor<4x1x8x128xf32> -> !torch.vtensor<[4,1,8,128],f32>
    %int5_8575 = torch.constant.int 5
    %6761 = torch.prims.convert_element_type %6760, %int5_8575 : !torch.vtensor<[4,1,8,128],f32>, !torch.int -> !torch.vtensor<[4,1,8,128],f16>
    %int32_8576 = torch.constant.int 32
    %6762 = torch.aten.floor_divide.Scalar %arg2, %int32_8576 : !torch.vtensor<[4],si64>, !torch.int -> !torch.vtensor<[4],si64>
    %int1_8577 = torch.constant.int 1
    %6763 = torch.aten.unsqueeze %6762, %int1_8577 : !torch.vtensor<[4],si64>, !torch.int -> !torch.vtensor<[4,1],si64>
    %int1_8578 = torch.constant.int 1
    %false_8579 = torch.constant.bool false
    %6764 = torch.aten.gather %arg3, %int1_8578, %6763, %false_8579 : !torch.vtensor<[4,?],si64>, !torch.int, !torch.vtensor<[4,1],si64>, !torch.bool -> !torch.vtensor<[4,1],si64>
    %int32_8580 = torch.constant.int 32
    %6765 = torch.aten.remainder.Scalar %arg2, %int32_8580 : !torch.vtensor<[4],si64>, !torch.int -> !torch.vtensor<[4],si64>
    %int1_8581 = torch.constant.int 1
    %6766 = torch.aten.unsqueeze %6765, %int1_8581 : !torch.vtensor<[4],si64>, !torch.int -> !torch.vtensor<[4,1],si64>
    %none_8582 = torch.constant.none
    %6767 = torch.aten.clone %346, %none_8582 : !torch.vtensor<[],si64>, !torch.none -> !torch.vtensor<[],si64>
    %int0_8583 = torch.constant.int 0
    %6768 = torch.aten.unsqueeze %6767, %int0_8583 : !torch.vtensor<[],si64>, !torch.int -> !torch.vtensor<[1],si64>
    %int4_8584 = torch.constant.int 4
    %int1_8585 = torch.constant.int 1
    %6769 = torch.prim.ListConstruct %int4_8584, %int1_8585 : (!torch.int, !torch.int) -> !torch.list<int>
    %int1_8586 = torch.constant.int 1
    %int1_8587 = torch.constant.int 1
    %6770 = torch.prim.ListConstruct %int1_8586, %int1_8587 : (!torch.int, !torch.int) -> !torch.list<int>
    %int4_8588 = torch.constant.int 4
    %int0_8589 = torch.constant.int 0
    %cpu_8590 = torch.constant.device "cpu"
    %false_8591 = torch.constant.bool false
    %6771 = torch.aten.empty_strided %6769, %6770, %int4_8588, %int0_8589, %cpu_8590, %false_8591 : !torch.list<int>, !torch.list<int>, !torch.int, !torch.int, !torch.Device, !torch.bool -> !torch.vtensor<[4,1],si64>
    %int31 = torch.constant.int 31
    %6772 = torch.aten.fill.Scalar %6771, %int31 : !torch.vtensor<[4,1],si64>, !torch.int -> !torch.vtensor<[4,1],si64>
    %int4_8592 = torch.constant.int 4
    %int1_8593 = torch.constant.int 1
    %6773 = torch.prim.ListConstruct %int4_8592, %int1_8593 : (!torch.int, !torch.int) -> !torch.list<int>
    %6774 = torch.aten.repeat %6768, %6773 : !torch.vtensor<[1],si64>, !torch.list<int> -> !torch.vtensor<[4,1],si64>
    %int32_8594 = torch.constant.int 32
    %6775 = torch.aten.mul.Scalar %6764, %int32_8594 : !torch.vtensor<[4,1],si64>, !torch.int -> !torch.vtensor<[4,1],si64>
    %int1_8595 = torch.constant.int 1
    %6776 = torch.aten.add.Tensor %6775, %6772, %int1_8595 : !torch.vtensor<[4,1],si64>, !torch.vtensor<[4,1],si64>, !torch.int -> !torch.vtensor<[4,1],si64>
    %int2_8596 = torch.constant.int 2
    %6777 = torch.aten.mul.Scalar %6776, %int2_8596 : !torch.vtensor<[4,1],si64>, !torch.int -> !torch.vtensor<[4,1],si64>
    %int1_8597 = torch.constant.int 1
    %6778 = torch.aten.add.Tensor %6777, %6774, %int1_8597 : !torch.vtensor<[4,1],si64>, !torch.vtensor<[4,1],si64>, !torch.int -> !torch.vtensor<[4,1],si64>
    %int32_8598 = torch.constant.int 32
    %6779 = torch.aten.mul.Scalar %6778, %int32_8598 : !torch.vtensor<[4,1],si64>, !torch.int -> !torch.vtensor<[4,1],si64>
    %int1_8599 = torch.constant.int 1
    %6780 = torch.aten.add.Tensor %6779, %6766, %int1_8599 : !torch.vtensor<[4,1],si64>, !torch.vtensor<[4,1],si64>, !torch.int -> !torch.vtensor<[4,1],si64>
    %int32_8600 = torch.constant.int 32
    %int2_8601 = torch.constant.int 2
    %int32_8602 = torch.constant.int 32
    %int8_8603 = torch.constant.int 8
    %int128_8604 = torch.constant.int 128
    %6781 = torch.prim.ListConstruct %437, %int32_8600, %int2_8601, %int32_8602, %int8_8603, %int128_8604 : (!torch.int, !torch.int, !torch.int, !torch.int, !torch.int, !torch.int) -> !torch.list<int>
    %6782 = torch.aten.view %6618, %6781 : !torch.vtensor<[?,2097152],f16>, !torch.list<int> -> !torch.vtensor<[?,32,2,32,8,128],f16>
    torch.bind_symbolic_shape %6782, [%357], affine_map<()[s0] -> (s0, 32, 2, 32, 8, 128)> : !torch.vtensor<[?,32,2,32,8,128],f16>
    %int32_8605 = torch.constant.int 32
    %6783 = torch.aten.mul.int %437, %int32_8605 : !torch.int, !torch.int -> !torch.int
    %int2_8606 = torch.constant.int 2
    %6784 = torch.aten.mul.int %6783, %int2_8606 : !torch.int, !torch.int -> !torch.int
    %int32_8607 = torch.constant.int 32
    %6785 = torch.aten.mul.int %6784, %int32_8607 : !torch.int, !torch.int -> !torch.int
    %int8_8608 = torch.constant.int 8
    %int128_8609 = torch.constant.int 128
    %6786 = torch.prim.ListConstruct %6785, %int8_8608, %int128_8609 : (!torch.int, !torch.int, !torch.int) -> !torch.list<int>
    %6787 = torch.aten.view %6782, %6786 : !torch.vtensor<[?,32,2,32,8,128],f16>, !torch.list<int> -> !torch.vtensor<[?,8,128],f16>
    torch.bind_symbolic_shape %6787, [%357], affine_map<()[s0] -> (s0 * 2048, 8, 128)> : !torch.vtensor<[?,8,128],f16>
    %6788 = torch.prim.ListConstruct %6780 : (!torch.vtensor<[4,1],si64>) -> !torch.list<optional<vtensor>>
    %false_8610 = torch.constant.bool false
    %6789 = torch.aten.index_put %6787, %6788, %6761, %false_8610 : !torch.vtensor<[?,8,128],f16>, !torch.list<optional<vtensor>>, !torch.vtensor<[4,1,8,128],f16>, !torch.bool -> !torch.vtensor<[?,8,128],f16>
    torch.bind_symbolic_shape %6789, [%357], affine_map<()[s0] -> (s0 * 2048, 8, 128)> : !torch.vtensor<[?,8,128],f16>
    %int32_8611 = torch.constant.int 32
    %int2_8612 = torch.constant.int 2
    %int32_8613 = torch.constant.int 32
    %int8_8614 = torch.constant.int 8
    %int128_8615 = torch.constant.int 128
    %6790 = torch.prim.ListConstruct %437, %int32_8611, %int2_8612, %int32_8613, %int8_8614, %int128_8615 : (!torch.int, !torch.int, !torch.int, !torch.int, !torch.int, !torch.int) -> !torch.list<int>
    %6791 = torch.aten.view %6789, %6790 : !torch.vtensor<[?,8,128],f16>, !torch.list<int> -> !torch.vtensor<[?,32,2,32,8,128],f16>
    torch.bind_symbolic_shape %6791, [%357], affine_map<()[s0] -> (s0, 32, 2, 32, 8, 128)> : !torch.vtensor<[?,32,2,32,8,128],f16>
    %int2097152_8616 = torch.constant.int 2097152
    %6792 = torch.prim.ListConstruct %437, %int2097152_8616 : (!torch.int, !torch.int) -> !torch.list<int>
    %6793 = torch.aten.view %6791, %6792 : !torch.vtensor<[?,32,2,32,8,128],f16>, !torch.list<int> -> !torch.vtensor<[?,2097152],f16>
    torch.bind_symbolic_shape %6793, [%357], affine_map<()[s0] -> (s0, 2097152)> : !torch.vtensor<[?,2097152],f16>
    %int32_8617 = torch.constant.int 32
    %int2_8618 = torch.constant.int 2
    %int32_8619 = torch.constant.int 32
    %int8_8620 = torch.constant.int 8
    %int128_8621 = torch.constant.int 128
    %6794 = torch.prim.ListConstruct %437, %int32_8617, %int2_8618, %int32_8619, %int8_8620, %int128_8621 : (!torch.int, !torch.int, !torch.int, !torch.int, !torch.int, !torch.int) -> !torch.list<int>
    %6795 = torch.aten.view %6793, %6794 : !torch.vtensor<[?,2097152],f16>, !torch.list<int> -> !torch.vtensor<[?,32,2,32,8,128],f16>
    torch.bind_symbolic_shape %6795, [%357], affine_map<()[s0] -> (s0, 32, 2, 32, 8, 128)> : !torch.vtensor<[?,32,2,32,8,128],f16>
    %int8_8622 = torch.constant.int 8
    %int128_8623 = torch.constant.int 128
    %6796 = torch.prim.ListConstruct %6785, %int8_8622, %int128_8623 : (!torch.int, !torch.int, !torch.int) -> !torch.list<int>
    %6797 = torch.aten.view %6795, %6796 : !torch.vtensor<[?,32,2,32,8,128],f16>, !torch.list<int> -> !torch.vtensor<[?,8,128],f16>
    torch.bind_symbolic_shape %6797, [%357], affine_map<()[s0] -> (s0 * 2048, 8, 128)> : !torch.vtensor<[?,8,128],f16>
    %int32_8624 = torch.constant.int 32
    %6798 = torch.aten.floor_divide.Scalar %arg2, %int32_8624 : !torch.vtensor<[4],si64>, !torch.int -> !torch.vtensor<[4],si64>
    %int1_8625 = torch.constant.int 1
    %6799 = torch.aten.unsqueeze %6798, %int1_8625 : !torch.vtensor<[4],si64>, !torch.int -> !torch.vtensor<[4,1],si64>
    %int1_8626 = torch.constant.int 1
    %false_8627 = torch.constant.bool false
    %6800 = torch.aten.gather %arg3, %int1_8626, %6799, %false_8627 : !torch.vtensor<[4,?],si64>, !torch.int, !torch.vtensor<[4,1],si64>, !torch.bool -> !torch.vtensor<[4,1],si64>
    %int32_8628 = torch.constant.int 32
    %6801 = torch.aten.remainder.Scalar %arg2, %int32_8628 : !torch.vtensor<[4],si64>, !torch.int -> !torch.vtensor<[4],si64>
    %int1_8629 = torch.constant.int 1
    %6802 = torch.aten.unsqueeze %6801, %int1_8629 : !torch.vtensor<[4],si64>, !torch.int -> !torch.vtensor<[4,1],si64>
    %none_8630 = torch.constant.none
    %6803 = torch.aten.clone %347, %none_8630 : !torch.vtensor<[],si64>, !torch.none -> !torch.vtensor<[],si64>
    %int0_8631 = torch.constant.int 0
    %6804 = torch.aten.unsqueeze %6803, %int0_8631 : !torch.vtensor<[],si64>, !torch.int -> !torch.vtensor<[1],si64>
    %int4_8632 = torch.constant.int 4
    %int1_8633 = torch.constant.int 1
    %6805 = torch.prim.ListConstruct %int4_8632, %int1_8633 : (!torch.int, !torch.int) -> !torch.list<int>
    %int1_8634 = torch.constant.int 1
    %int1_8635 = torch.constant.int 1
    %6806 = torch.prim.ListConstruct %int1_8634, %int1_8635 : (!torch.int, !torch.int) -> !torch.list<int>
    %int4_8636 = torch.constant.int 4
    %int0_8637 = torch.constant.int 0
    %cpu_8638 = torch.constant.device "cpu"
    %false_8639 = torch.constant.bool false
    %6807 = torch.aten.empty_strided %6805, %6806, %int4_8636, %int0_8637, %cpu_8638, %false_8639 : !torch.list<int>, !torch.list<int>, !torch.int, !torch.int, !torch.Device, !torch.bool -> !torch.vtensor<[4,1],si64>
    %int31_8640 = torch.constant.int 31
    %6808 = torch.aten.fill.Scalar %6807, %int31_8640 : !torch.vtensor<[4,1],si64>, !torch.int -> !torch.vtensor<[4,1],si64>
    %int4_8641 = torch.constant.int 4
    %int1_8642 = torch.constant.int 1
    %6809 = torch.prim.ListConstruct %int4_8641, %int1_8642 : (!torch.int, !torch.int) -> !torch.list<int>
    %6810 = torch.aten.repeat %6804, %6809 : !torch.vtensor<[1],si64>, !torch.list<int> -> !torch.vtensor<[4,1],si64>
    %int32_8643 = torch.constant.int 32
    %6811 = torch.aten.mul.Scalar %6800, %int32_8643 : !torch.vtensor<[4,1],si64>, !torch.int -> !torch.vtensor<[4,1],si64>
    %int1_8644 = torch.constant.int 1
    %6812 = torch.aten.add.Tensor %6811, %6808, %int1_8644 : !torch.vtensor<[4,1],si64>, !torch.vtensor<[4,1],si64>, !torch.int -> !torch.vtensor<[4,1],si64>
    %int2_8645 = torch.constant.int 2
    %6813 = torch.aten.mul.Scalar %6812, %int2_8645 : !torch.vtensor<[4,1],si64>, !torch.int -> !torch.vtensor<[4,1],si64>
    %int1_8646 = torch.constant.int 1
    %6814 = torch.aten.add.Tensor %6813, %6810, %int1_8646 : !torch.vtensor<[4,1],si64>, !torch.vtensor<[4,1],si64>, !torch.int -> !torch.vtensor<[4,1],si64>
    %int32_8647 = torch.constant.int 32
    %6815 = torch.aten.mul.Scalar %6814, %int32_8647 : !torch.vtensor<[4,1],si64>, !torch.int -> !torch.vtensor<[4,1],si64>
    %int1_8648 = torch.constant.int 1
    %6816 = torch.aten.add.Tensor %6815, %6802, %int1_8648 : !torch.vtensor<[4,1],si64>, !torch.vtensor<[4,1],si64>, !torch.int -> !torch.vtensor<[4,1],si64>
    %6817 = torch.prim.ListConstruct %6816 : (!torch.vtensor<[4,1],si64>) -> !torch.list<optional<vtensor>>
    %false_8649 = torch.constant.bool false
    %6818 = torch.aten.index_put %6797, %6817, %6749, %false_8649 : !torch.vtensor<[?,8,128],f16>, !torch.list<optional<vtensor>>, !torch.vtensor<[4,1,8,128],f16>, !torch.bool -> !torch.vtensor<[?,8,128],f16>
    torch.bind_symbolic_shape %6818, [%357], affine_map<()[s0] -> (s0 * 2048, 8, 128)> : !torch.vtensor<[?,8,128],f16>
    %int32_8650 = torch.constant.int 32
    %int2_8651 = torch.constant.int 2
    %int32_8652 = torch.constant.int 32
    %int8_8653 = torch.constant.int 8
    %int128_8654 = torch.constant.int 128
    %6819 = torch.prim.ListConstruct %437, %int32_8650, %int2_8651, %int32_8652, %int8_8653, %int128_8654 : (!torch.int, !torch.int, !torch.int, !torch.int, !torch.int, !torch.int) -> !torch.list<int>
    %6820 = torch.aten.view %6818, %6819 : !torch.vtensor<[?,8,128],f16>, !torch.list<int> -> !torch.vtensor<[?,32,2,32,8,128],f16>
    torch.bind_symbolic_shape %6820, [%357], affine_map<()[s0] -> (s0, 32, 2, 32, 8, 128)> : !torch.vtensor<[?,32,2,32,8,128],f16>
    %int2097152_8655 = torch.constant.int 2097152
    %6821 = torch.prim.ListConstruct %437, %int2097152_8655 : (!torch.int, !torch.int) -> !torch.list<int>
    %6822 = torch.aten.view %6820, %6821 : !torch.vtensor<[?,32,2,32,8,128],f16>, !torch.list<int> -> !torch.vtensor<[?,2097152],f16>
    torch.overwrite.tensor.contents %6822 overwrites %arg4 : !torch.vtensor<[?,2097152],f16>, !torch.tensor<[?,2097152],f16>
    torch.bind_symbolic_shape %6822, [%357], affine_map<()[s0] -> (s0, 2097152)> : !torch.vtensor<[?,2097152],f16>
    %int4_8656 = torch.constant.int 4
    %6823 = torch.prim.ListConstruct %int4_8656, %358 : (!torch.int, !torch.int) -> !torch.list<int>
    %int1_8657 = torch.constant.int 1
    %6824 = torch.prim.ListConstruct %358, %int1_8657 : (!torch.int, !torch.int) -> !torch.list<int>
    %int4_8658 = torch.constant.int 4
    %int0_8659 = torch.constant.int 0
    %cpu_8660 = torch.constant.device "cpu"
    %false_8661 = torch.constant.bool false
    %6825 = torch.aten.empty_strided %6823, %6824, %int4_8658, %int0_8659, %cpu_8660, %false_8661 : !torch.list<int>, !torch.list<int>, !torch.int, !torch.int, !torch.Device, !torch.bool -> !torch.vtensor<[4,?],si64>
    torch.bind_symbolic_shape %6825, [%356], affine_map<()[s0] -> (4, s0)> : !torch.vtensor<[4,?],si64>
    %int31_8662 = torch.constant.int 31
    %6826 = torch.aten.fill.Scalar %6825, %int31_8662 : !torch.vtensor<[4,?],si64>, !torch.int -> !torch.vtensor<[4,?],si64>
    torch.bind_symbolic_shape %6826, [%356], affine_map<()[s0] -> (4, s0)> : !torch.vtensor<[4,?],si64>
    %int32_8663 = torch.constant.int 32
    %6827 = torch.aten.mul.Scalar %arg3, %int32_8663 : !torch.vtensor<[4,?],si64>, !torch.int -> !torch.vtensor<[4,?],si64>
    torch.bind_symbolic_shape %6827, [%356], affine_map<()[s0] -> (4, s0)> : !torch.vtensor<[4,?],si64>
    %int1_8664 = torch.constant.int 1
    %6828 = torch.aten.add.Tensor %6827, %6826, %int1_8664 : !torch.vtensor<[4,?],si64>, !torch.vtensor<[4,?],si64>, !torch.int -> !torch.vtensor<[4,?],si64>
    torch.bind_symbolic_shape %6828, [%356], affine_map<()[s0] -> (4, s0)> : !torch.vtensor<[4,?],si64>
    %int4_8665 = torch.constant.int 4
    %6829 = torch.aten.mul.int %int4_8665, %358 : !torch.int, !torch.int -> !torch.int
    %6830 = torch.prim.ListConstruct %6829 : (!torch.int) -> !torch.list<int>
    %6831 = torch.aten.view %6828, %6830 : !torch.vtensor<[4,?],si64>, !torch.list<int> -> !torch.vtensor<[?],si64>
    torch.bind_symbolic_shape %6831, [%356], affine_map<()[s0] -> (s0 * 4)> : !torch.vtensor<[?],si64>
    %int32_8666 = torch.constant.int 32
    %int2_8667 = torch.constant.int 2
    %int32_8668 = torch.constant.int 32
    %int8_8669 = torch.constant.int 8
    %int128_8670 = torch.constant.int 128
    %6832 = torch.prim.ListConstruct %437, %int32_8666, %int2_8667, %int32_8668, %int8_8669, %int128_8670 : (!torch.int, !torch.int, !torch.int, !torch.int, !torch.int, !torch.int) -> !torch.list<int>
    %6833 = torch.aten.view %6822, %6832 : !torch.vtensor<[?,2097152],f16>, !torch.list<int> -> !torch.vtensor<[?,32,2,32,8,128],f16>
    torch.bind_symbolic_shape %6833, [%357], affine_map<()[s0] -> (s0, 32, 2, 32, 8, 128)> : !torch.vtensor<[?,32,2,32,8,128],f16>
    %int32_8671 = torch.constant.int 32
    %6834 = torch.aten.mul.int %437, %int32_8671 : !torch.int, !torch.int -> !torch.int
    %int2_8672 = torch.constant.int 2
    %int32_8673 = torch.constant.int 32
    %int8_8674 = torch.constant.int 8
    %int128_8675 = torch.constant.int 128
    %6835 = torch.prim.ListConstruct %6834, %int2_8672, %int32_8673, %int8_8674, %int128_8675 : (!torch.int, !torch.int, !torch.int, !torch.int, !torch.int) -> !torch.list<int>
    %6836 = torch.aten.view %6833, %6835 : !torch.vtensor<[?,32,2,32,8,128],f16>, !torch.list<int> -> !torch.vtensor<[?,2,32,8,128],f16>
    torch.bind_symbolic_shape %6836, [%357], affine_map<()[s0] -> (s0 * 32, 2, 32, 8, 128)> : !torch.vtensor<[?,2,32,8,128],f16>
    %int0_8676 = torch.constant.int 0
    %6837 = torch.aten.index_select %6836, %int0_8676, %6831 : !torch.vtensor<[?,2,32,8,128],f16>, !torch.int, !torch.vtensor<[?],si64> -> !torch.vtensor<[?,2,32,8,128],f16>
    torch.bind_symbolic_shape %6837, [%356], affine_map<()[s0] -> (s0 * 4, 2, 32, 8, 128)> : !torch.vtensor<[?,2,32,8,128],f16>
    %int4_8677 = torch.constant.int 4
    %int2_8678 = torch.constant.int 2
    %int32_8679 = torch.constant.int 32
    %int8_8680 = torch.constant.int 8
    %int128_8681 = torch.constant.int 128
    %6838 = torch.prim.ListConstruct %int4_8677, %358, %int2_8678, %int32_8679, %int8_8680, %int128_8681 : (!torch.int, !torch.int, !torch.int, !torch.int, !torch.int, !torch.int) -> !torch.list<int>
    %6839 = torch.aten.view %6837, %6838 : !torch.vtensor<[?,2,32,8,128],f16>, !torch.list<int> -> !torch.vtensor<[4,?,2,32,8,128],f16>
    torch.bind_symbolic_shape %6839, [%356], affine_map<()[s0] -> (4, s0, 2, 32, 8, 128)> : !torch.vtensor<[4,?,2,32,8,128],f16>
    %int0_8682 = torch.constant.int 0
    %int0_8683 = torch.constant.int 0
    %int9223372036854775807_8684 = torch.constant.int 9223372036854775807
    %int1_8685 = torch.constant.int 1
    %6840 = torch.aten.slice.Tensor %6839, %int0_8682, %int0_8683, %int9223372036854775807_8684, %int1_8685 : !torch.vtensor<[4,?,2,32,8,128],f16>, !torch.int, !torch.int, !torch.int, !torch.int -> !torch.vtensor<[4,?,2,32,8,128],f16>
    torch.bind_symbolic_shape %6840, [%356], affine_map<()[s0] -> (4, s0, 2, 32, 8, 128)> : !torch.vtensor<[4,?,2,32,8,128],f16>
    %int1_8686 = torch.constant.int 1
    %int0_8687 = torch.constant.int 0
    %int9223372036854775807_8688 = torch.constant.int 9223372036854775807
    %int1_8689 = torch.constant.int 1
    %6841 = torch.aten.slice.Tensor %6840, %int1_8686, %int0_8687, %int9223372036854775807_8688, %int1_8689 : !torch.vtensor<[4,?,2,32,8,128],f16>, !torch.int, !torch.int, !torch.int, !torch.int -> !torch.vtensor<[4,?,2,32,8,128],f16>
    torch.bind_symbolic_shape %6841, [%356], affine_map<()[s0] -> (4, s0, 2, 32, 8, 128)> : !torch.vtensor<[4,?,2,32,8,128],f16>
    %int2_8690 = torch.constant.int 2
    %int0_8691 = torch.constant.int 0
    %6842 = torch.aten.select.int %6841, %int2_8690, %int0_8691 : !torch.vtensor<[4,?,2,32,8,128],f16>, !torch.int, !torch.int -> !torch.vtensor<[4,?,32,8,128],f16>
    torch.bind_symbolic_shape %6842, [%356], affine_map<()[s0] -> (4, s0, 32, 8, 128)> : !torch.vtensor<[4,?,32,8,128],f16>
    %int32_8692 = torch.constant.int 32
    %6843 = torch.aten.mul.int %358, %int32_8692 : !torch.int, !torch.int -> !torch.int
    %int2_8693 = torch.constant.int 2
    %int0_8694 = torch.constant.int 0
    %int1_8695 = torch.constant.int 1
    %6844 = torch.aten.slice.Tensor %6842, %int2_8693, %int0_8694, %6843, %int1_8695 : !torch.vtensor<[4,?,32,8,128],f16>, !torch.int, !torch.int, !torch.int, !torch.int -> !torch.vtensor<[4,?,32,8,128],f16>
    torch.bind_symbolic_shape %6844, [%356], affine_map<()[s0] -> (4, s0, 32, 8, 128)> : !torch.vtensor<[4,?,32,8,128],f16>
    %int0_8696 = torch.constant.int 0
    %6845 = torch.aten.clone %6844, %int0_8696 : !torch.vtensor<[4,?,32,8,128],f16>, !torch.int -> !torch.vtensor<[4,?,32,8,128],f16>
    torch.bind_symbolic_shape %6845, [%356], affine_map<()[s0] -> (4, s0, 32, 8, 128)> : !torch.vtensor<[4,?,32,8,128],f16>
    %int1_8697 = torch.constant.int 1
    %6846 = torch.aten.size.int %6841, %int1_8697 : !torch.vtensor<[4,?,2,32,8,128],f16>, !torch.int -> !torch.int
    %int32_8698 = torch.constant.int 32
    %6847 = torch.aten.mul.int %6846, %int32_8698 : !torch.int, !torch.int -> !torch.int
    %int4_8699 = torch.constant.int 4
    %int8_8700 = torch.constant.int 8
    %int128_8701 = torch.constant.int 128
    %6848 = torch.prim.ListConstruct %int4_8699, %6847, %int8_8700, %int128_8701 : (!torch.int, !torch.int, !torch.int, !torch.int) -> !torch.list<int>
    %6849 = torch.aten._unsafe_view %6845, %6848 : !torch.vtensor<[4,?,32,8,128],f16>, !torch.list<int> -> !torch.vtensor<[4,?,8,128],f16>
    torch.bind_symbolic_shape %6849, [%356], affine_map<()[s0] -> (4, s0 * 32, 8, 128)> : !torch.vtensor<[4,?,8,128],f16>
    %int0_8702 = torch.constant.int 0
    %int0_8703 = torch.constant.int 0
    %int9223372036854775807_8704 = torch.constant.int 9223372036854775807
    %int1_8705 = torch.constant.int 1
    %6850 = torch.aten.slice.Tensor %6849, %int0_8702, %int0_8703, %int9223372036854775807_8704, %int1_8705 : !torch.vtensor<[4,?,8,128],f16>, !torch.int, !torch.int, !torch.int, !torch.int -> !torch.vtensor<[4,?,8,128],f16>
    torch.bind_symbolic_shape %6850, [%356], affine_map<()[s0] -> (4, s0 * 32, 8, 128)> : !torch.vtensor<[4,?,8,128],f16>
    %int0_8706 = torch.constant.int 0
    %int0_8707 = torch.constant.int 0
    %int9223372036854775807_8708 = torch.constant.int 9223372036854775807
    %int1_8709 = torch.constant.int 1
    %6851 = torch.aten.slice.Tensor %6839, %int0_8706, %int0_8707, %int9223372036854775807_8708, %int1_8709 : !torch.vtensor<[4,?,2,32,8,128],f16>, !torch.int, !torch.int, !torch.int, !torch.int -> !torch.vtensor<[4,?,2,32,8,128],f16>
    torch.bind_symbolic_shape %6851, [%356], affine_map<()[s0] -> (4, s0, 2, 32, 8, 128)> : !torch.vtensor<[4,?,2,32,8,128],f16>
    %int1_8710 = torch.constant.int 1
    %int0_8711 = torch.constant.int 0
    %int9223372036854775807_8712 = torch.constant.int 9223372036854775807
    %int1_8713 = torch.constant.int 1
    %6852 = torch.aten.slice.Tensor %6851, %int1_8710, %int0_8711, %int9223372036854775807_8712, %int1_8713 : !torch.vtensor<[4,?,2,32,8,128],f16>, !torch.int, !torch.int, !torch.int, !torch.int -> !torch.vtensor<[4,?,2,32,8,128],f16>
    torch.bind_symbolic_shape %6852, [%356], affine_map<()[s0] -> (4, s0, 2, 32, 8, 128)> : !torch.vtensor<[4,?,2,32,8,128],f16>
    %int2_8714 = torch.constant.int 2
    %int1_8715 = torch.constant.int 1
    %6853 = torch.aten.select.int %6852, %int2_8714, %int1_8715 : !torch.vtensor<[4,?,2,32,8,128],f16>, !torch.int, !torch.int -> !torch.vtensor<[4,?,32,8,128],f16>
    torch.bind_symbolic_shape %6853, [%356], affine_map<()[s0] -> (4, s0, 32, 8, 128)> : !torch.vtensor<[4,?,32,8,128],f16>
    %int2_8716 = torch.constant.int 2
    %int0_8717 = torch.constant.int 0
    %int1_8718 = torch.constant.int 1
    %6854 = torch.aten.slice.Tensor %6853, %int2_8716, %int0_8717, %6843, %int1_8718 : !torch.vtensor<[4,?,32,8,128],f16>, !torch.int, !torch.int, !torch.int, !torch.int -> !torch.vtensor<[4,?,32,8,128],f16>
    torch.bind_symbolic_shape %6854, [%356], affine_map<()[s0] -> (4, s0, 32, 8, 128)> : !torch.vtensor<[4,?,32,8,128],f16>
    %int0_8719 = torch.constant.int 0
    %6855 = torch.aten.clone %6854, %int0_8719 : !torch.vtensor<[4,?,32,8,128],f16>, !torch.int -> !torch.vtensor<[4,?,32,8,128],f16>
    torch.bind_symbolic_shape %6855, [%356], affine_map<()[s0] -> (4, s0, 32, 8, 128)> : !torch.vtensor<[4,?,32,8,128],f16>
    %int1_8720 = torch.constant.int 1
    %6856 = torch.aten.size.int %6852, %int1_8720 : !torch.vtensor<[4,?,2,32,8,128],f16>, !torch.int -> !torch.int
    %int32_8721 = torch.constant.int 32
    %6857 = torch.aten.mul.int %6856, %int32_8721 : !torch.int, !torch.int -> !torch.int
    %int4_8722 = torch.constant.int 4
    %int8_8723 = torch.constant.int 8
    %int128_8724 = torch.constant.int 128
    %6858 = torch.prim.ListConstruct %int4_8722, %6857, %int8_8723, %int128_8724 : (!torch.int, !torch.int, !torch.int, !torch.int) -> !torch.list<int>
    %6859 = torch.aten._unsafe_view %6855, %6858 : !torch.vtensor<[4,?,32,8,128],f16>, !torch.list<int> -> !torch.vtensor<[4,?,8,128],f16>
    torch.bind_symbolic_shape %6859, [%356], affine_map<()[s0] -> (4, s0 * 32, 8, 128)> : !torch.vtensor<[4,?,8,128],f16>
    %int0_8725 = torch.constant.int 0
    %int0_8726 = torch.constant.int 0
    %int9223372036854775807_8727 = torch.constant.int 9223372036854775807
    %int1_8728 = torch.constant.int 1
    %6860 = torch.aten.slice.Tensor %6859, %int0_8725, %int0_8726, %int9223372036854775807_8727, %int1_8728 : !torch.vtensor<[4,?,8,128],f16>, !torch.int, !torch.int, !torch.int, !torch.int -> !torch.vtensor<[4,?,8,128],f16>
    torch.bind_symbolic_shape %6860, [%356], affine_map<()[s0] -> (4, s0 * 32, 8, 128)> : !torch.vtensor<[4,?,8,128],f16>
    %int-2_8729 = torch.constant.int -2
    %6861 = torch.aten.unsqueeze %6850, %int-2_8729 : !torch.vtensor<[4,?,8,128],f16>, !torch.int -> !torch.vtensor<[4,?,8,1,128],f16>
    torch.bind_symbolic_shape %6861, [%356], affine_map<()[s0] -> (4, s0 * 32, 8, 1, 128)> : !torch.vtensor<[4,?,8,1,128],f16>
    %int1_8730 = torch.constant.int 1
    %6862 = torch.aten.size.int %6849, %int1_8730 : !torch.vtensor<[4,?,8,128],f16>, !torch.int -> !torch.int
    %int4_8731 = torch.constant.int 4
    %int8_8732 = torch.constant.int 8
    %int4_8733 = torch.constant.int 4
    %int128_8734 = torch.constant.int 128
    %6863 = torch.prim.ListConstruct %int4_8731, %6862, %int8_8732, %int4_8733, %int128_8734 : (!torch.int, !torch.int, !torch.int, !torch.int, !torch.int) -> !torch.list<int>
    %false_8735 = torch.constant.bool false
    %6864 = torch.aten.expand %6861, %6863, %false_8735 : !torch.vtensor<[4,?,8,1,128],f16>, !torch.list<int>, !torch.bool -> !torch.vtensor<[4,?,8,4,128],f16>
    torch.bind_symbolic_shape %6864, [%356], affine_map<()[s0] -> (4, s0 * 32, 8, 4, 128)> : !torch.vtensor<[4,?,8,4,128],f16>
    %int0_8736 = torch.constant.int 0
    %6865 = torch.aten.clone %6864, %int0_8736 : !torch.vtensor<[4,?,8,4,128],f16>, !torch.int -> !torch.vtensor<[4,?,8,4,128],f16>
    torch.bind_symbolic_shape %6865, [%356], affine_map<()[s0] -> (4, s0 * 32, 8, 4, 128)> : !torch.vtensor<[4,?,8,4,128],f16>
    %int4_8737 = torch.constant.int 4
    %int32_8738 = torch.constant.int 32
    %int128_8739 = torch.constant.int 128
    %6866 = torch.prim.ListConstruct %int4_8737, %6862, %int32_8738, %int128_8739 : (!torch.int, !torch.int, !torch.int, !torch.int) -> !torch.list<int>
    %6867 = torch.aten._unsafe_view %6865, %6866 : !torch.vtensor<[4,?,8,4,128],f16>, !torch.list<int> -> !torch.vtensor<[4,?,32,128],f16>
    torch.bind_symbolic_shape %6867, [%356], affine_map<()[s0] -> (4, s0 * 32, 32, 128)> : !torch.vtensor<[4,?,32,128],f16>
    %int-2_8740 = torch.constant.int -2
    %6868 = torch.aten.unsqueeze %6860, %int-2_8740 : !torch.vtensor<[4,?,8,128],f16>, !torch.int -> !torch.vtensor<[4,?,8,1,128],f16>
    torch.bind_symbolic_shape %6868, [%356], affine_map<()[s0] -> (4, s0 * 32, 8, 1, 128)> : !torch.vtensor<[4,?,8,1,128],f16>
    %int1_8741 = torch.constant.int 1
    %6869 = torch.aten.size.int %6859, %int1_8741 : !torch.vtensor<[4,?,8,128],f16>, !torch.int -> !torch.int
    %int4_8742 = torch.constant.int 4
    %int8_8743 = torch.constant.int 8
    %int4_8744 = torch.constant.int 4
    %int128_8745 = torch.constant.int 128
    %6870 = torch.prim.ListConstruct %int4_8742, %6869, %int8_8743, %int4_8744, %int128_8745 : (!torch.int, !torch.int, !torch.int, !torch.int, !torch.int) -> !torch.list<int>
    %false_8746 = torch.constant.bool false
    %6871 = torch.aten.expand %6868, %6870, %false_8746 : !torch.vtensor<[4,?,8,1,128],f16>, !torch.list<int>, !torch.bool -> !torch.vtensor<[4,?,8,4,128],f16>
    torch.bind_symbolic_shape %6871, [%356], affine_map<()[s0] -> (4, s0 * 32, 8, 4, 128)> : !torch.vtensor<[4,?,8,4,128],f16>
    %int0_8747 = torch.constant.int 0
    %6872 = torch.aten.clone %6871, %int0_8747 : !torch.vtensor<[4,?,8,4,128],f16>, !torch.int -> !torch.vtensor<[4,?,8,4,128],f16>
    torch.bind_symbolic_shape %6872, [%356], affine_map<()[s0] -> (4, s0 * 32, 8, 4, 128)> : !torch.vtensor<[4,?,8,4,128],f16>
    %int4_8748 = torch.constant.int 4
    %int32_8749 = torch.constant.int 32
    %int128_8750 = torch.constant.int 128
    %6873 = torch.prim.ListConstruct %int4_8748, %6869, %int32_8749, %int128_8750 : (!torch.int, !torch.int, !torch.int, !torch.int) -> !torch.list<int>
    %6874 = torch.aten._unsafe_view %6872, %6873 : !torch.vtensor<[4,?,8,4,128],f16>, !torch.list<int> -> !torch.vtensor<[4,?,32,128],f16>
    torch.bind_symbolic_shape %6874, [%356], affine_map<()[s0] -> (4, s0 * 32, 32, 128)> : !torch.vtensor<[4,?,32,128],f16>
    %int1_8751 = torch.constant.int 1
    %int2_8752 = torch.constant.int 2
    %6875 = torch.aten.transpose.int %6755, %int1_8751, %int2_8752 : !torch.vtensor<[4,1,32,128],f16>, !torch.int, !torch.int -> !torch.vtensor<[4,32,1,128],f16>
    %int1_8753 = torch.constant.int 1
    %int2_8754 = torch.constant.int 2
    %6876 = torch.aten.transpose.int %6867, %int1_8753, %int2_8754 : !torch.vtensor<[4,?,32,128],f16>, !torch.int, !torch.int -> !torch.vtensor<[4,32,?,128],f16>
    torch.bind_symbolic_shape %6876, [%356], affine_map<()[s0] -> (4, 32, s0 * 32, 128)> : !torch.vtensor<[4,32,?,128],f16>
    %int1_8755 = torch.constant.int 1
    %int2_8756 = torch.constant.int 2
    %6877 = torch.aten.transpose.int %6874, %int1_8755, %int2_8756 : !torch.vtensor<[4,?,32,128],f16>, !torch.int, !torch.int -> !torch.vtensor<[4,32,?,128],f16>
    torch.bind_symbolic_shape %6877, [%356], affine_map<()[s0] -> (4, 32, s0 * 32, 128)> : !torch.vtensor<[4,32,?,128],f16>
    %float0.000000e00_8757 = torch.constant.float 0.000000e+00
    %false_8758 = torch.constant.bool false
    %none_8759 = torch.constant.none
    %6878:2 = torch.operator "torch.aten._scaled_dot_product_flash_attention_for_cpu"(%6875, %6876, %6877, %float0.000000e00_8757, %false_8758, %368, %none_8759) : (!torch.vtensor<[4,32,1,128],f16>, !torch.vtensor<[4,32,?,128],f16>, !torch.vtensor<[4,32,?,128],f16>, !torch.float, !torch.bool, !torch.vtensor<[4,1,1,?],f16>, !torch.none) -> (!torch.vtensor<[4,32,1,128],f16>, !torch.vtensor<[4,32,1],f32>) 
    %int1_8760 = torch.constant.int 1
    %int2_8761 = torch.constant.int 2
    %6879 = torch.aten.transpose.int %6878#0, %int1_8760, %int2_8761 : !torch.vtensor<[4,32,1,128],f16>, !torch.int, !torch.int -> !torch.vtensor<[4,1,32,128],f16>
    %int4_8762 = torch.constant.int 4
    %int1_8763 = torch.constant.int 1
    %int4096_8764 = torch.constant.int 4096
    %6880 = torch.prim.ListConstruct %int4_8762, %int1_8763, %int4096_8764 : (!torch.int, !torch.int, !torch.int) -> !torch.list<int>
    %6881 = torch.aten.view %6879, %6880 : !torch.vtensor<[4,1,32,128],f16>, !torch.list<int> -> !torch.vtensor<[4,1,4096],f16>
    %int-2_8765 = torch.constant.int -2
    %int-1_8766 = torch.constant.int -1
    %6882 = torch.aten.transpose.int %348, %int-2_8765, %int-1_8766 : !torch.vtensor<[4096,4096],f16>, !torch.int, !torch.int -> !torch.vtensor<[4096,4096],f16>
    %int4_8767 = torch.constant.int 4
    %int4096_8768 = torch.constant.int 4096
    %6883 = torch.prim.ListConstruct %int4_8767, %int4096_8768 : (!torch.int, !torch.int) -> !torch.list<int>
    %6884 = torch.aten.view %6881, %6883 : !torch.vtensor<[4,1,4096],f16>, !torch.list<int> -> !torch.vtensor<[4,4096],f16>
    %6885 = torch.aten.mm %6884, %6882 : !torch.vtensor<[4,4096],f16>, !torch.vtensor<[4096,4096],f16> -> !torch.vtensor<[4,4096],f16>
    %int4_8769 = torch.constant.int 4
    %int1_8770 = torch.constant.int 1
    %int4096_8771 = torch.constant.int 4096
    %6886 = torch.prim.ListConstruct %int4_8769, %int1_8770, %int4096_8771 : (!torch.int, !torch.int, !torch.int) -> !torch.list<int>
    %6887 = torch.aten.view %6885, %6886 : !torch.vtensor<[4,4096],f16>, !torch.list<int> -> !torch.vtensor<[4,1,4096],f16>
    %int1_8772 = torch.constant.int 1
    %6888 = torch.aten.add.Tensor %6715, %6887, %int1_8772 : !torch.vtensor<[4,1,4096],f16>, !torch.vtensor<[4,1,4096],f16>, !torch.int -> !torch.vtensor<[4,1,4096],f16>
    %int6_8773 = torch.constant.int 6
    %6889 = torch.prims.convert_element_type %6888, %int6_8773 : !torch.vtensor<[4,1,4096],f16>, !torch.int -> !torch.vtensor<[4,1,4096],f32>
    %int2_8774 = torch.constant.int 2
    %6890 = torch.aten.pow.Tensor_Scalar %6889, %int2_8774 : !torch.vtensor<[4,1,4096],f32>, !torch.int -> !torch.vtensor<[4,1,4096],f32>
    %int-1_8775 = torch.constant.int -1
    %6891 = torch.prim.ListConstruct %int-1_8775 : (!torch.int) -> !torch.list<int>
    %true_8776 = torch.constant.bool true
    %none_8777 = torch.constant.none
    %6892 = torch.aten.mean.dim %6890, %6891, %true_8776, %none_8777 : !torch.vtensor<[4,1,4096],f32>, !torch.list<int>, !torch.bool, !torch.none -> !torch.vtensor<[4,1,1],f32>
    %float9.999990e-06_8778 = torch.constant.float 9.9999997473787516E-6
    %int1_8779 = torch.constant.int 1
    %6893 = torch.aten.add.Scalar %6892, %float9.999990e-06_8778, %int1_8779 : !torch.vtensor<[4,1,1],f32>, !torch.float, !torch.int -> !torch.vtensor<[4,1,1],f32>
    %6894 = torch.aten.rsqrt %6893 : !torch.vtensor<[4,1,1],f32> -> !torch.vtensor<[4,1,1],f32>
    %6895 = torch.aten.mul.Tensor %6889, %6894 : !torch.vtensor<[4,1,4096],f32>, !torch.vtensor<[4,1,1],f32> -> !torch.vtensor<[4,1,4096],f32>
    %int5_8780 = torch.constant.int 5
    %6896 = torch.prims.convert_element_type %6895, %int5_8780 : !torch.vtensor<[4,1,4096],f32>, !torch.int -> !torch.vtensor<[4,1,4096],f16>
    %6897 = torch.aten.mul.Tensor %349, %6896 : !torch.vtensor<[4096],f32>, !torch.vtensor<[4,1,4096],f16> -> !torch.vtensor<[4,1,4096],f32>
    %int5_8781 = torch.constant.int 5
    %6898 = torch.prims.convert_element_type %6897, %int5_8781 : !torch.vtensor<[4,1,4096],f32>, !torch.int -> !torch.vtensor<[4,1,4096],f16>
    %int-2_8782 = torch.constant.int -2
    %int-1_8783 = torch.constant.int -1
    %6899 = torch.aten.transpose.int %350, %int-2_8782, %int-1_8783 : !torch.vtensor<[14336,4096],f16>, !torch.int, !torch.int -> !torch.vtensor<[4096,14336],f16>
    %int4_8784 = torch.constant.int 4
    %int4096_8785 = torch.constant.int 4096
    %6900 = torch.prim.ListConstruct %int4_8784, %int4096_8785 : (!torch.int, !torch.int) -> !torch.list<int>
    %6901 = torch.aten.view %6898, %6900 : !torch.vtensor<[4,1,4096],f16>, !torch.list<int> -> !torch.vtensor<[4,4096],f16>
    %6902 = torch.aten.mm %6901, %6899 : !torch.vtensor<[4,4096],f16>, !torch.vtensor<[4096,14336],f16> -> !torch.vtensor<[4,14336],f16>
    %int4_8786 = torch.constant.int 4
    %int1_8787 = torch.constant.int 1
    %int14336_8788 = torch.constant.int 14336
    %6903 = torch.prim.ListConstruct %int4_8786, %int1_8787, %int14336_8788 : (!torch.int, !torch.int, !torch.int) -> !torch.list<int>
    %6904 = torch.aten.view %6902, %6903 : !torch.vtensor<[4,14336],f16>, !torch.list<int> -> !torch.vtensor<[4,1,14336],f16>
    %6905 = torch.aten.silu %6904 : !torch.vtensor<[4,1,14336],f16> -> !torch.vtensor<[4,1,14336],f16>
    %int-2_8789 = torch.constant.int -2
    %int-1_8790 = torch.constant.int -1
    %6906 = torch.aten.transpose.int %351, %int-2_8789, %int-1_8790 : !torch.vtensor<[14336,4096],f16>, !torch.int, !torch.int -> !torch.vtensor<[4096,14336],f16>
    %int4_8791 = torch.constant.int 4
    %int4096_8792 = torch.constant.int 4096
    %6907 = torch.prim.ListConstruct %int4_8791, %int4096_8792 : (!torch.int, !torch.int) -> !torch.list<int>
    %6908 = torch.aten.view %6898, %6907 : !torch.vtensor<[4,1,4096],f16>, !torch.list<int> -> !torch.vtensor<[4,4096],f16>
    %6909 = torch.aten.mm %6908, %6906 : !torch.vtensor<[4,4096],f16>, !torch.vtensor<[4096,14336],f16> -> !torch.vtensor<[4,14336],f16>
    %int4_8793 = torch.constant.int 4
    %int1_8794 = torch.constant.int 1
    %int14336_8795 = torch.constant.int 14336
    %6910 = torch.prim.ListConstruct %int4_8793, %int1_8794, %int14336_8795 : (!torch.int, !torch.int, !torch.int) -> !torch.list<int>
    %6911 = torch.aten.view %6909, %6910 : !torch.vtensor<[4,14336],f16>, !torch.list<int> -> !torch.vtensor<[4,1,14336],f16>
    %6912 = torch.aten.mul.Tensor %6905, %6911 : !torch.vtensor<[4,1,14336],f16>, !torch.vtensor<[4,1,14336],f16> -> !torch.vtensor<[4,1,14336],f16>
    %int-2_8796 = torch.constant.int -2
    %int-1_8797 = torch.constant.int -1
    %6913 = torch.aten.transpose.int %352, %int-2_8796, %int-1_8797 : !torch.vtensor<[4096,14336],f16>, !torch.int, !torch.int -> !torch.vtensor<[14336,4096],f16>
    %int4_8798 = torch.constant.int 4
    %int14336_8799 = torch.constant.int 14336
    %6914 = torch.prim.ListConstruct %int4_8798, %int14336_8799 : (!torch.int, !torch.int) -> !torch.list<int>
    %6915 = torch.aten.view %6912, %6914 : !torch.vtensor<[4,1,14336],f16>, !torch.list<int> -> !torch.vtensor<[4,14336],f16>
    %6916 = torch.aten.mm %6915, %6913 : !torch.vtensor<[4,14336],f16>, !torch.vtensor<[14336,4096],f16> -> !torch.vtensor<[4,4096],f16>
    %int4_8800 = torch.constant.int 4
    %int1_8801 = torch.constant.int 1
    %int4096_8802 = torch.constant.int 4096
    %6917 = torch.prim.ListConstruct %int4_8800, %int1_8801, %int4096_8802 : (!torch.int, !torch.int, !torch.int) -> !torch.list<int>
    %6918 = torch.aten.view %6916, %6917 : !torch.vtensor<[4,4096],f16>, !torch.list<int> -> !torch.vtensor<[4,1,4096],f16>
    %int1_8803 = torch.constant.int 1
    %6919 = torch.aten.add.Tensor %6888, %6918, %int1_8803 : !torch.vtensor<[4,1,4096],f16>, !torch.vtensor<[4,1,4096],f16>, !torch.int -> !torch.vtensor<[4,1,4096],f16>
    %int6_8804 = torch.constant.int 6
    %6920 = torch.prims.convert_element_type %6919, %int6_8804 : !torch.vtensor<[4,1,4096],f16>, !torch.int -> !torch.vtensor<[4,1,4096],f32>
    %int2_8805 = torch.constant.int 2
    %6921 = torch.aten.pow.Tensor_Scalar %6920, %int2_8805 : !torch.vtensor<[4,1,4096],f32>, !torch.int -> !torch.vtensor<[4,1,4096],f32>
    %int-1_8806 = torch.constant.int -1
    %6922 = torch.prim.ListConstruct %int-1_8806 : (!torch.int) -> !torch.list<int>
    %true_8807 = torch.constant.bool true
    %none_8808 = torch.constant.none
    %6923 = torch.aten.mean.dim %6921, %6922, %true_8807, %none_8808 : !torch.vtensor<[4,1,4096],f32>, !torch.list<int>, !torch.bool, !torch.none -> !torch.vtensor<[4,1,1],f32>
    %float9.999990e-06_8809 = torch.constant.float 9.9999997473787516E-6
    %int1_8810 = torch.constant.int 1
    %6924 = torch.aten.add.Scalar %6923, %float9.999990e-06_8809, %int1_8810 : !torch.vtensor<[4,1,1],f32>, !torch.float, !torch.int -> !torch.vtensor<[4,1,1],f32>
    %6925 = torch.aten.rsqrt %6924 : !torch.vtensor<[4,1,1],f32> -> !torch.vtensor<[4,1,1],f32>
    %6926 = torch.aten.mul.Tensor %6920, %6925 : !torch.vtensor<[4,1,4096],f32>, !torch.vtensor<[4,1,1],f32> -> !torch.vtensor<[4,1,4096],f32>
    %int5_8811 = torch.constant.int 5
    %6927 = torch.prims.convert_element_type %6926, %int5_8811 : !torch.vtensor<[4,1,4096],f32>, !torch.int -> !torch.vtensor<[4,1,4096],f16>
    %6928 = torch.aten.mul.Tensor %353, %6927 : !torch.vtensor<[4096],f32>, !torch.vtensor<[4,1,4096],f16> -> !torch.vtensor<[4,1,4096],f32>
    %int5_8812 = torch.constant.int 5
    %6929 = torch.prims.convert_element_type %6928, %int5_8812 : !torch.vtensor<[4,1,4096],f32>, !torch.int -> !torch.vtensor<[4,1,4096],f16>
    %int-2_8813 = torch.constant.int -2
    %int-1_8814 = torch.constant.int -1
    %6930 = torch.aten.transpose.int %354, %int-2_8813, %int-1_8814 : !torch.vtensor<[128256,4096],f16>, !torch.int, !torch.int -> !torch.vtensor<[4096,128256],f16>
    %int4_8815 = torch.constant.int 4
    %int4096_8816 = torch.constant.int 4096
    %6931 = torch.prim.ListConstruct %int4_8815, %int4096_8816 : (!torch.int, !torch.int) -> !torch.list<int>
    %6932 = torch.aten.view %6929, %6931 : !torch.vtensor<[4,1,4096],f16>, !torch.list<int> -> !torch.vtensor<[4,4096],f16>
    %6933 = torch.aten.mm %6932, %6930 : !torch.vtensor<[4,4096],f16>, !torch.vtensor<[4096,128256],f16> -> !torch.vtensor<[4,128256],f16>
    %int4_8817 = torch.constant.int 4
    %int1_8818 = torch.constant.int 1
    %int128256 = torch.constant.int 128256
    %6934 = torch.prim.ListConstruct %int4_8817, %int1_8818, %int128256 : (!torch.int, !torch.int, !torch.int) -> !torch.list<int>
    %6935 = torch.aten.view %6933, %6934 : !torch.vtensor<[4,128256],f16>, !torch.list<int> -> !torch.vtensor<[4,1,128256],f16>
    return %6935 : !torch.vtensor<[4,1,128256],f16>
  }
  util.func private @sharktank_rotary_embedding_4_D_32_128_f32(%arg0: tensor<4x?x32x128xf32>, %arg1: tensor<4x?x128xf32>) -> tensor<4x?x32x128xf32> {
    %c0 = arith.constant 0 : index
    %c1 = arith.constant 1 : index
    %c2 = arith.constant 2 : index
    %c3 = arith.constant 3 : index
    %dim = tensor.dim %arg0, %c0 : tensor<4x?x32x128xf32>
    %dim_0 = tensor.dim %arg0, %c1 : tensor<4x?x32x128xf32>
    %dim_1 = tensor.dim %arg0, %c2 : tensor<4x?x32x128xf32>
    %dim_2 = tensor.dim %arg0, %c3 : tensor<4x?x32x128xf32>
    %0 = tensor.empty(%dim, %dim_0, %dim_1, %dim_2) : tensor<?x?x?x?xf32>
    %cast = tensor.cast %0 : tensor<?x?x?x?xf32> to tensor<4x?x32x128xf32>
    %1 = linalg.generic {indexing_maps = [#map, #map1], iterator_types = ["parallel", "parallel", "parallel", "parallel"]} ins(%arg1 : tensor<4x?x128xf32>) outs(%cast : tensor<4x?x32x128xf32>) {
    ^bb0(%in: f32, %out: f32):
      %2 = linalg.index 0 : index
      %3 = linalg.index 1 : index
      %4 = linalg.index 2 : index
      %5 = linalg.index 3 : index
      %6 = arith.divui %5, %c2 : index
      %7 = arith.remui %5, %c2 : index
      %8 = math.cos %in : f32
      %9 = math.sin %in : f32
      %10 = arith.muli %6, %c2 : index
      %11 = arith.addi %10, %c1 : index
      %extracted = tensor.extract %arg0[%2, %3, %4, %10] : tensor<4x?x32x128xf32>
      %extracted_3 = tensor.extract %arg0[%2, %3, %4, %11] : tensor<4x?x32x128xf32>
      %12 = arith.cmpi eq, %7, %c0 : index
      %13 = arith.mulf %extracted, %8 : f32
      %14 = arith.mulf %extracted_3, %9 : f32
      %15 = arith.subf %13, %14 : f32
      %16 = arith.mulf %extracted_3, %8 : f32
      %17 = arith.mulf %extracted, %9 : f32
      %18 = arith.addf %16, %17 : f32
      %19 = arith.select %12, %15, %18 : f32
      linalg.yield %19 : f32
    } -> tensor<4x?x32x128xf32>
    util.return %1 : tensor<4x?x32x128xf32>
  }
  util.func private @sharktank_rotary_embedding_4_D_8_128_f32(%arg0: tensor<4x?x8x128xf32>, %arg1: tensor<4x?x128xf32>) -> tensor<4x?x8x128xf32> {
    %c0 = arith.constant 0 : index
    %c1 = arith.constant 1 : index
    %c2 = arith.constant 2 : index
    %c3 = arith.constant 3 : index
    %dim = tensor.dim %arg0, %c0 : tensor<4x?x8x128xf32>
    %dim_0 = tensor.dim %arg0, %c1 : tensor<4x?x8x128xf32>
    %dim_1 = tensor.dim %arg0, %c2 : tensor<4x?x8x128xf32>
    %dim_2 = tensor.dim %arg0, %c3 : tensor<4x?x8x128xf32>
    %0 = tensor.empty(%dim, %dim_0, %dim_1, %dim_2) : tensor<?x?x?x?xf32>
    %cast = tensor.cast %0 : tensor<?x?x?x?xf32> to tensor<4x?x8x128xf32>
    %1 = linalg.generic {indexing_maps = [#map, #map1], iterator_types = ["parallel", "parallel", "parallel", "parallel"]} ins(%arg1 : tensor<4x?x128xf32>) outs(%cast : tensor<4x?x8x128xf32>) {
    ^bb0(%in: f32, %out: f32):
      %2 = linalg.index 0 : index
      %3 = linalg.index 1 : index
      %4 = linalg.index 2 : index
      %5 = linalg.index 3 : index
      %6 = arith.divui %5, %c2 : index
      %7 = arith.remui %5, %c2 : index
      %8 = math.cos %in : f32
      %9 = math.sin %in : f32
      %10 = arith.muli %6, %c2 : index
      %11 = arith.addi %10, %c1 : index
      %extracted = tensor.extract %arg0[%2, %3, %4, %10] : tensor<4x?x8x128xf32>
      %extracted_3 = tensor.extract %arg0[%2, %3, %4, %11] : tensor<4x?x8x128xf32>
      %12 = arith.cmpi eq, %7, %c0 : index
      %13 = arith.mulf %extracted, %8 : f32
      %14 = arith.mulf %extracted_3, %9 : f32
      %15 = arith.subf %13, %14 : f32
      %16 = arith.mulf %extracted_3, %8 : f32
      %17 = arith.mulf %extracted, %9 : f32
      %18 = arith.addf %16, %17 : f32
      %19 = arith.select %12, %15, %18 : f32
      linalg.yield %19 : f32
    } -> tensor<4x?x8x128xf32>
    util.return %1 : tensor<4x?x8x128xf32>
  }
  util.func private @sharktank_rotary_embedding_4_1_32_128_f32(%arg0: tensor<4x1x32x128xf32>, %arg1: tensor<4x1x128xf32>) -> tensor<4x1x32x128xf32> {
    %c0 = arith.constant 0 : index
    %c1 = arith.constant 1 : index
    %c2 = arith.constant 2 : index
    %c3 = arith.constant 3 : index
    %dim = tensor.dim %arg0, %c0 : tensor<4x1x32x128xf32>
    %dim_0 = tensor.dim %arg0, %c1 : tensor<4x1x32x128xf32>
    %dim_1 = tensor.dim %arg0, %c2 : tensor<4x1x32x128xf32>
    %dim_2 = tensor.dim %arg0, %c3 : tensor<4x1x32x128xf32>
    %0 = tensor.empty(%dim, %dim_0, %dim_1, %dim_2) : tensor<?x?x?x?xf32>
    %cast = tensor.cast %0 : tensor<?x?x?x?xf32> to tensor<4x1x32x128xf32>
    %1 = linalg.generic {indexing_maps = [#map, #map1], iterator_types = ["parallel", "parallel", "parallel", "parallel"]} ins(%arg1 : tensor<4x1x128xf32>) outs(%cast : tensor<4x1x32x128xf32>) {
    ^bb0(%in: f32, %out: f32):
      %2 = linalg.index 0 : index
      %3 = linalg.index 1 : index
      %4 = linalg.index 2 : index
      %5 = linalg.index 3 : index
      %6 = arith.divui %5, %c2 : index
      %7 = arith.remui %5, %c2 : index
      %8 = math.cos %in : f32
      %9 = math.sin %in : f32
      %10 = arith.muli %6, %c2 : index
      %11 = arith.addi %10, %c1 : index
      %extracted = tensor.extract %arg0[%2, %3, %4, %10] : tensor<4x1x32x128xf32>
      %extracted_3 = tensor.extract %arg0[%2, %3, %4, %11] : tensor<4x1x32x128xf32>
      %12 = arith.cmpi eq, %7, %c0 : index
      %13 = arith.mulf %extracted, %8 : f32
      %14 = arith.mulf %extracted_3, %9 : f32
      %15 = arith.subf %13, %14 : f32
      %16 = arith.mulf %extracted_3, %8 : f32
      %17 = arith.mulf %extracted, %9 : f32
      %18 = arith.addf %16, %17 : f32
      %19 = arith.select %12, %15, %18 : f32
      linalg.yield %19 : f32
    } -> tensor<4x1x32x128xf32>
    util.return %1 : tensor<4x1x32x128xf32>
  }
  util.func private @sharktank_rotary_embedding_4_1_8_128_f32(%arg0: tensor<4x1x8x128xf32>, %arg1: tensor<4x1x128xf32>) -> tensor<4x1x8x128xf32> {
    %c0 = arith.constant 0 : index
    %c1 = arith.constant 1 : index
    %c2 = arith.constant 2 : index
    %c3 = arith.constant 3 : index
    %dim = tensor.dim %arg0, %c0 : tensor<4x1x8x128xf32>
    %dim_0 = tensor.dim %arg0, %c1 : tensor<4x1x8x128xf32>
    %dim_1 = tensor.dim %arg0, %c2 : tensor<4x1x8x128xf32>
    %dim_2 = tensor.dim %arg0, %c3 : tensor<4x1x8x128xf32>
    %0 = tensor.empty(%dim, %dim_0, %dim_1, %dim_2) : tensor<?x?x?x?xf32>
    %cast = tensor.cast %0 : tensor<?x?x?x?xf32> to tensor<4x1x8x128xf32>
    %1 = linalg.generic {indexing_maps = [#map, #map1], iterator_types = ["parallel", "parallel", "parallel", "parallel"]} ins(%arg1 : tensor<4x1x128xf32>) outs(%cast : tensor<4x1x8x128xf32>) {
    ^bb0(%in: f32, %out: f32):
      %2 = linalg.index 0 : index
      %3 = linalg.index 1 : index
      %4 = linalg.index 2 : index
      %5 = linalg.index 3 : index
      %6 = arith.divui %5, %c2 : index
      %7 = arith.remui %5, %c2 : index
      %8 = math.cos %in : f32
      %9 = math.sin %in : f32
      %10 = arith.muli %6, %c2 : index
      %11 = arith.addi %10, %c1 : index
      %extracted = tensor.extract %arg0[%2, %3, %4, %10] : tensor<4x1x8x128xf32>
      %extracted_3 = tensor.extract %arg0[%2, %3, %4, %11] : tensor<4x1x8x128xf32>
      %12 = arith.cmpi eq, %7, %c0 : index
      %13 = arith.mulf %extracted, %8 : f32
      %14 = arith.mulf %extracted_3, %9 : f32
      %15 = arith.subf %13, %14 : f32
      %16 = arith.mulf %extracted_3, %8 : f32
      %17 = arith.mulf %extracted, %9 : f32
      %18 = arith.addf %16, %17 : f32
      %19 = arith.select %12, %15, %18 : f32
      linalg.yield %19 : f32
    } -> tensor<4x1x8x128xf32>
    util.return %1 : tensor<4x1x8x128xf32>
  }
}
