module @module {
  util.global private @__auto.token_embd.weight = #stream.parameter.named<"model"::"token_embd.weight"> : tensor<128256x4096xf16>
  util.global private @__auto.blk.0.attn_norm.weight = #stream.parameter.named<"model"::"blk.0.attn_norm.weight"> : tensor<4096xf32>
  util.global private @__auto.blk.0.attn_q.weight = #stream.parameter.named<"model"::"blk.0.attn_q.weight"> : tensor<4096x4096xf16>
  util.global private @__auto.blk.0.attn_k.weight = #stream.parameter.named<"model"::"blk.0.attn_k.weight"> : tensor<1024x4096xf16>
  util.global private @__auto.blk.0.attn_v.weight = #stream.parameter.named<"model"::"blk.0.attn_v.weight"> : tensor<1024x4096xf16>
  util.global private @__auto.blk.0.attn_output.weight = #stream.parameter.named<"model"::"blk.0.attn_output.weight"> : tensor<4096x4096xf16>
  util.global private @__auto.blk.0.ffn_norm.weight = #stream.parameter.named<"model"::"blk.0.ffn_norm.weight"> : tensor<4096xf32>
  util.global private @__auto.blk.0.ffn_gate.weight = #stream.parameter.named<"model"::"blk.0.ffn_gate.weight"> : tensor<14336x4096xf16>
  util.global private @__auto.blk.0.ffn_up.weight = #stream.parameter.named<"model"::"blk.0.ffn_up.weight"> : tensor<14336x4096xf16>
  util.global private @__auto.blk.0.ffn_down.weight = #stream.parameter.named<"model"::"blk.0.ffn_down.weight"> : tensor<4096x14336xf16>
  util.global private @__auto.blk.1.attn_norm.weight = #stream.parameter.named<"model"::"blk.1.attn_norm.weight"> : tensor<4096xf32>
  util.global private @__auto.blk.1.attn_q.weight = #stream.parameter.named<"model"::"blk.1.attn_q.weight"> : tensor<4096x4096xf16>
  util.global private @__auto.blk.1.attn_k.weight = #stream.parameter.named<"model"::"blk.1.attn_k.weight"> : tensor<1024x4096xf16>
  util.global private @__auto.blk.1.attn_v.weight = #stream.parameter.named<"model"::"blk.1.attn_v.weight"> : tensor<1024x4096xf16>
  util.global private @__auto.blk.1.attn_output.weight = #stream.parameter.named<"model"::"blk.1.attn_output.weight"> : tensor<4096x4096xf16>
  util.global private @__auto.blk.1.ffn_norm.weight = #stream.parameter.named<"model"::"blk.1.ffn_norm.weight"> : tensor<4096xf32>
  util.global private @__auto.blk.1.ffn_gate.weight = #stream.parameter.named<"model"::"blk.1.ffn_gate.weight"> : tensor<14336x4096xf16>
  util.global private @__auto.blk.1.ffn_up.weight = #stream.parameter.named<"model"::"blk.1.ffn_up.weight"> : tensor<14336x4096xf16>
  util.global private @__auto.blk.1.ffn_down.weight = #stream.parameter.named<"model"::"blk.1.ffn_down.weight"> : tensor<4096x14336xf16>
  util.global private @__auto.blk.2.attn_norm.weight = #stream.parameter.named<"model"::"blk.2.attn_norm.weight"> : tensor<4096xf32>
  util.global private @__auto.blk.2.attn_q.weight = #stream.parameter.named<"model"::"blk.2.attn_q.weight"> : tensor<4096x4096xf16>
  util.global private @__auto.blk.2.attn_k.weight = #stream.parameter.named<"model"::"blk.2.attn_k.weight"> : tensor<1024x4096xf16>
  util.global private @__auto.blk.2.attn_v.weight = #stream.parameter.named<"model"::"blk.2.attn_v.weight"> : tensor<1024x4096xf16>
  util.global private @__auto.blk.2.attn_output.weight = #stream.parameter.named<"model"::"blk.2.attn_output.weight"> : tensor<4096x4096xf16>
  util.global private @__auto.blk.2.ffn_norm.weight = #stream.parameter.named<"model"::"blk.2.ffn_norm.weight"> : tensor<4096xf32>
  util.global private @__auto.blk.2.ffn_gate.weight = #stream.parameter.named<"model"::"blk.2.ffn_gate.weight"> : tensor<14336x4096xf16>
  util.global private @__auto.blk.2.ffn_up.weight = #stream.parameter.named<"model"::"blk.2.ffn_up.weight"> : tensor<14336x4096xf16>
  util.global private @__auto.blk.2.ffn_down.weight = #stream.parameter.named<"model"::"blk.2.ffn_down.weight"> : tensor<4096x14336xf16>
  util.global private @__auto.blk.3.attn_norm.weight = #stream.parameter.named<"model"::"blk.3.attn_norm.weight"> : tensor<4096xf32>
  util.global private @__auto.blk.3.attn_q.weight = #stream.parameter.named<"model"::"blk.3.attn_q.weight"> : tensor<4096x4096xf16>
  util.global private @__auto.blk.3.attn_k.weight = #stream.parameter.named<"model"::"blk.3.attn_k.weight"> : tensor<1024x4096xf16>
  util.global private @__auto.blk.3.attn_v.weight = #stream.parameter.named<"model"::"blk.3.attn_v.weight"> : tensor<1024x4096xf16>
  util.global private @__auto.blk.3.attn_output.weight = #stream.parameter.named<"model"::"blk.3.attn_output.weight"> : tensor<4096x4096xf16>
  util.global private @__auto.blk.3.ffn_norm.weight = #stream.parameter.named<"model"::"blk.3.ffn_norm.weight"> : tensor<4096xf32>
  util.global private @__auto.blk.3.ffn_gate.weight = #stream.parameter.named<"model"::"blk.3.ffn_gate.weight"> : tensor<14336x4096xf16>
  util.global private @__auto.blk.3.ffn_up.weight = #stream.parameter.named<"model"::"blk.3.ffn_up.weight"> : tensor<14336x4096xf16>
  util.global private @__auto.blk.3.ffn_down.weight = #stream.parameter.named<"model"::"blk.3.ffn_down.weight"> : tensor<4096x14336xf16>
  util.global private @__auto.blk.4.attn_norm.weight = #stream.parameter.named<"model"::"blk.4.attn_norm.weight"> : tensor<4096xf32>
  util.global private @__auto.blk.4.attn_q.weight = #stream.parameter.named<"model"::"blk.4.attn_q.weight"> : tensor<4096x4096xf16>
  util.global private @__auto.blk.4.attn_k.weight = #stream.parameter.named<"model"::"blk.4.attn_k.weight"> : tensor<1024x4096xf16>
  util.global private @__auto.blk.4.attn_v.weight = #stream.parameter.named<"model"::"blk.4.attn_v.weight"> : tensor<1024x4096xf16>
  util.global private @__auto.blk.4.attn_output.weight = #stream.parameter.named<"model"::"blk.4.attn_output.weight"> : tensor<4096x4096xf16>
  util.global private @__auto.blk.4.ffn_norm.weight = #stream.parameter.named<"model"::"blk.4.ffn_norm.weight"> : tensor<4096xf32>
  util.global private @__auto.blk.4.ffn_gate.weight = #stream.parameter.named<"model"::"blk.4.ffn_gate.weight"> : tensor<14336x4096xf16>
  util.global private @__auto.blk.4.ffn_up.weight = #stream.parameter.named<"model"::"blk.4.ffn_up.weight"> : tensor<14336x4096xf16>
  util.global private @__auto.blk.4.ffn_down.weight = #stream.parameter.named<"model"::"blk.4.ffn_down.weight"> : tensor<4096x14336xf16>
  util.global private @__auto.blk.5.attn_norm.weight = #stream.parameter.named<"model"::"blk.5.attn_norm.weight"> : tensor<4096xf32>
  util.global private @__auto.blk.5.attn_q.weight = #stream.parameter.named<"model"::"blk.5.attn_q.weight"> : tensor<4096x4096xf16>
  util.global private @__auto.blk.5.attn_k.weight = #stream.parameter.named<"model"::"blk.5.attn_k.weight"> : tensor<1024x4096xf16>
  util.global private @__auto.blk.5.attn_v.weight = #stream.parameter.named<"model"::"blk.5.attn_v.weight"> : tensor<1024x4096xf16>
  util.global private @__auto.blk.5.attn_output.weight = #stream.parameter.named<"model"::"blk.5.attn_output.weight"> : tensor<4096x4096xf16>
  util.global private @__auto.blk.5.ffn_norm.weight = #stream.parameter.named<"model"::"blk.5.ffn_norm.weight"> : tensor<4096xf32>
  util.global private @__auto.blk.5.ffn_gate.weight = #stream.parameter.named<"model"::"blk.5.ffn_gate.weight"> : tensor<14336x4096xf16>
  util.global private @__auto.blk.5.ffn_up.weight = #stream.parameter.named<"model"::"blk.5.ffn_up.weight"> : tensor<14336x4096xf16>
  util.global private @__auto.blk.5.ffn_down.weight = #stream.parameter.named<"model"::"blk.5.ffn_down.weight"> : tensor<4096x14336xf16>
  util.global private @__auto.blk.6.attn_norm.weight = #stream.parameter.named<"model"::"blk.6.attn_norm.weight"> : tensor<4096xf32>
  util.global private @__auto.blk.6.attn_q.weight = #stream.parameter.named<"model"::"blk.6.attn_q.weight"> : tensor<4096x4096xf16>
  util.global private @__auto.blk.6.attn_k.weight = #stream.parameter.named<"model"::"blk.6.attn_k.weight"> : tensor<1024x4096xf16>
  util.global private @__auto.blk.6.attn_v.weight = #stream.parameter.named<"model"::"blk.6.attn_v.weight"> : tensor<1024x4096xf16>
  util.global private @__auto.blk.6.attn_output.weight = #stream.parameter.named<"model"::"blk.6.attn_output.weight"> : tensor<4096x4096xf16>
  util.global private @__auto.blk.6.ffn_norm.weight = #stream.parameter.named<"model"::"blk.6.ffn_norm.weight"> : tensor<4096xf32>
  util.global private @__auto.blk.6.ffn_gate.weight = #stream.parameter.named<"model"::"blk.6.ffn_gate.weight"> : tensor<14336x4096xf16>
  util.global private @__auto.blk.6.ffn_up.weight = #stream.parameter.named<"model"::"blk.6.ffn_up.weight"> : tensor<14336x4096xf16>
  util.global private @__auto.blk.6.ffn_down.weight = #stream.parameter.named<"model"::"blk.6.ffn_down.weight"> : tensor<4096x14336xf16>
  util.global private @__auto.blk.7.attn_norm.weight = #stream.parameter.named<"model"::"blk.7.attn_norm.weight"> : tensor<4096xf32>
  util.global private @__auto.blk.7.attn_q.weight = #stream.parameter.named<"model"::"blk.7.attn_q.weight"> : tensor<4096x4096xf16>
  util.global private @__auto.blk.7.attn_k.weight = #stream.parameter.named<"model"::"blk.7.attn_k.weight"> : tensor<1024x4096xf16>
  util.global private @__auto.blk.7.attn_v.weight = #stream.parameter.named<"model"::"blk.7.attn_v.weight"> : tensor<1024x4096xf16>
  util.global private @__auto.blk.7.attn_output.weight = #stream.parameter.named<"model"::"blk.7.attn_output.weight"> : tensor<4096x4096xf16>
  util.global private @__auto.blk.7.ffn_norm.weight = #stream.parameter.named<"model"::"blk.7.ffn_norm.weight"> : tensor<4096xf32>
  util.global private @__auto.blk.7.ffn_gate.weight = #stream.parameter.named<"model"::"blk.7.ffn_gate.weight"> : tensor<14336x4096xf16>
  util.global private @__auto.blk.7.ffn_up.weight = #stream.parameter.named<"model"::"blk.7.ffn_up.weight"> : tensor<14336x4096xf16>
  util.global private @__auto.blk.7.ffn_down.weight = #stream.parameter.named<"model"::"blk.7.ffn_down.weight"> : tensor<4096x14336xf16>
  util.global private @__auto.blk.8.attn_norm.weight = #stream.parameter.named<"model"::"blk.8.attn_norm.weight"> : tensor<4096xf32>
  util.global private @__auto.blk.8.attn_q.weight = #stream.parameter.named<"model"::"blk.8.attn_q.weight"> : tensor<4096x4096xf16>
  util.global private @__auto.blk.8.attn_k.weight = #stream.parameter.named<"model"::"blk.8.attn_k.weight"> : tensor<1024x4096xf16>
  util.global private @__auto.blk.8.attn_v.weight = #stream.parameter.named<"model"::"blk.8.attn_v.weight"> : tensor<1024x4096xf16>
  util.global private @__auto.blk.8.attn_output.weight = #stream.parameter.named<"model"::"blk.8.attn_output.weight"> : tensor<4096x4096xf16>
  util.global private @__auto.blk.8.ffn_norm.weight = #stream.parameter.named<"model"::"blk.8.ffn_norm.weight"> : tensor<4096xf32>
  util.global private @__auto.blk.8.ffn_gate.weight = #stream.parameter.named<"model"::"blk.8.ffn_gate.weight"> : tensor<14336x4096xf16>
  util.global private @__auto.blk.8.ffn_up.weight = #stream.parameter.named<"model"::"blk.8.ffn_up.weight"> : tensor<14336x4096xf16>
  util.global private @__auto.blk.8.ffn_down.weight = #stream.parameter.named<"model"::"blk.8.ffn_down.weight"> : tensor<4096x14336xf16>
  util.global private @__auto.blk.9.attn_norm.weight = #stream.parameter.named<"model"::"blk.9.attn_norm.weight"> : tensor<4096xf32>
  util.global private @__auto.blk.9.attn_q.weight = #stream.parameter.named<"model"::"blk.9.attn_q.weight"> : tensor<4096x4096xf16>
  util.global private @__auto.blk.9.attn_k.weight = #stream.parameter.named<"model"::"blk.9.attn_k.weight"> : tensor<1024x4096xf16>
  util.global private @__auto.blk.9.attn_v.weight = #stream.parameter.named<"model"::"blk.9.attn_v.weight"> : tensor<1024x4096xf16>
  util.global private @__auto.blk.9.attn_output.weight = #stream.parameter.named<"model"::"blk.9.attn_output.weight"> : tensor<4096x4096xf16>
  util.global private @__auto.blk.9.ffn_norm.weight = #stream.parameter.named<"model"::"blk.9.ffn_norm.weight"> : tensor<4096xf32>
  util.global private @__auto.blk.9.ffn_gate.weight = #stream.parameter.named<"model"::"blk.9.ffn_gate.weight"> : tensor<14336x4096xf16>
  util.global private @__auto.blk.9.ffn_up.weight = #stream.parameter.named<"model"::"blk.9.ffn_up.weight"> : tensor<14336x4096xf16>
  util.global private @__auto.blk.9.ffn_down.weight = #stream.parameter.named<"model"::"blk.9.ffn_down.weight"> : tensor<4096x14336xf16>
  util.global private @__auto.blk.10.attn_norm.weight = #stream.parameter.named<"model"::"blk.10.attn_norm.weight"> : tensor<4096xf32>
  util.global private @__auto.blk.10.attn_q.weight = #stream.parameter.named<"model"::"blk.10.attn_q.weight"> : tensor<4096x4096xf16>
  util.global private @__auto.blk.10.attn_k.weight = #stream.parameter.named<"model"::"blk.10.attn_k.weight"> : tensor<1024x4096xf16>
  util.global private @__auto.blk.10.attn_v.weight = #stream.parameter.named<"model"::"blk.10.attn_v.weight"> : tensor<1024x4096xf16>
  util.global private @__auto.blk.10.attn_output.weight = #stream.parameter.named<"model"::"blk.10.attn_output.weight"> : tensor<4096x4096xf16>
  util.global private @__auto.blk.10.ffn_norm.weight = #stream.parameter.named<"model"::"blk.10.ffn_norm.weight"> : tensor<4096xf32>
  util.global private @__auto.blk.10.ffn_gate.weight = #stream.parameter.named<"model"::"blk.10.ffn_gate.weight"> : tensor<14336x4096xf16>
  util.global private @__auto.blk.10.ffn_up.weight = #stream.parameter.named<"model"::"blk.10.ffn_up.weight"> : tensor<14336x4096xf16>
  util.global private @__auto.blk.10.ffn_down.weight = #stream.parameter.named<"model"::"blk.10.ffn_down.weight"> : tensor<4096x14336xf16>
  util.global private @__auto.blk.11.attn_norm.weight = #stream.parameter.named<"model"::"blk.11.attn_norm.weight"> : tensor<4096xf32>
  util.global private @__auto.blk.11.attn_q.weight = #stream.parameter.named<"model"::"blk.11.attn_q.weight"> : tensor<4096x4096xf16>
  util.global private @__auto.blk.11.attn_k.weight = #stream.parameter.named<"model"::"blk.11.attn_k.weight"> : tensor<1024x4096xf16>
  util.global private @__auto.blk.11.attn_v.weight = #stream.parameter.named<"model"::"blk.11.attn_v.weight"> : tensor<1024x4096xf16>
  util.global private @__auto.blk.11.attn_output.weight = #stream.parameter.named<"model"::"blk.11.attn_output.weight"> : tensor<4096x4096xf16>
  util.global private @__auto.blk.11.ffn_norm.weight = #stream.parameter.named<"model"::"blk.11.ffn_norm.weight"> : tensor<4096xf32>
  util.global private @__auto.blk.11.ffn_gate.weight = #stream.parameter.named<"model"::"blk.11.ffn_gate.weight"> : tensor<14336x4096xf16>
  util.global private @__auto.blk.11.ffn_up.weight = #stream.parameter.named<"model"::"blk.11.ffn_up.weight"> : tensor<14336x4096xf16>
  util.global private @__auto.blk.11.ffn_down.weight = #stream.parameter.named<"model"::"blk.11.ffn_down.weight"> : tensor<4096x14336xf16>
  util.global private @__auto.blk.12.attn_norm.weight = #stream.parameter.named<"model"::"blk.12.attn_norm.weight"> : tensor<4096xf32>
  util.global private @__auto.blk.12.attn_q.weight = #stream.parameter.named<"model"::"blk.12.attn_q.weight"> : tensor<4096x4096xf16>
  util.global private @__auto.blk.12.attn_k.weight = #stream.parameter.named<"model"::"blk.12.attn_k.weight"> : tensor<1024x4096xf16>
  util.global private @__auto.blk.12.attn_v.weight = #stream.parameter.named<"model"::"blk.12.attn_v.weight"> : tensor<1024x4096xf16>
  util.global private @__auto.blk.12.attn_output.weight = #stream.parameter.named<"model"::"blk.12.attn_output.weight"> : tensor<4096x4096xf16>
  util.global private @__auto.blk.12.ffn_norm.weight = #stream.parameter.named<"model"::"blk.12.ffn_norm.weight"> : tensor<4096xf32>
  util.global private @__auto.blk.12.ffn_gate.weight = #stream.parameter.named<"model"::"blk.12.ffn_gate.weight"> : tensor<14336x4096xf16>
  util.global private @__auto.blk.12.ffn_up.weight = #stream.parameter.named<"model"::"blk.12.ffn_up.weight"> : tensor<14336x4096xf16>
  util.global private @__auto.blk.12.ffn_down.weight = #stream.parameter.named<"model"::"blk.12.ffn_down.weight"> : tensor<4096x14336xf16>
  util.global private @__auto.blk.13.attn_norm.weight = #stream.parameter.named<"model"::"blk.13.attn_norm.weight"> : tensor<4096xf32>
  util.global private @__auto.blk.13.attn_q.weight = #stream.parameter.named<"model"::"blk.13.attn_q.weight"> : tensor<4096x4096xf16>
  util.global private @__auto.blk.13.attn_k.weight = #stream.parameter.named<"model"::"blk.13.attn_k.weight"> : tensor<1024x4096xf16>
  util.global private @__auto.blk.13.attn_v.weight = #stream.parameter.named<"model"::"blk.13.attn_v.weight"> : tensor<1024x4096xf16>
  util.global private @__auto.blk.13.attn_output.weight = #stream.parameter.named<"model"::"blk.13.attn_output.weight"> : tensor<4096x4096xf16>
  util.global private @__auto.blk.13.ffn_norm.weight = #stream.parameter.named<"model"::"blk.13.ffn_norm.weight"> : tensor<4096xf32>
  util.global private @__auto.blk.13.ffn_gate.weight = #stream.parameter.named<"model"::"blk.13.ffn_gate.weight"> : tensor<14336x4096xf16>
  util.global private @__auto.blk.13.ffn_up.weight = #stream.parameter.named<"model"::"blk.13.ffn_up.weight"> : tensor<14336x4096xf16>
  util.global private @__auto.blk.13.ffn_down.weight = #stream.parameter.named<"model"::"blk.13.ffn_down.weight"> : tensor<4096x14336xf16>
  util.global private @__auto.blk.14.attn_norm.weight = #stream.parameter.named<"model"::"blk.14.attn_norm.weight"> : tensor<4096xf32>
  util.global private @__auto.blk.14.attn_q.weight = #stream.parameter.named<"model"::"blk.14.attn_q.weight"> : tensor<4096x4096xf16>
  util.global private @__auto.blk.14.attn_k.weight = #stream.parameter.named<"model"::"blk.14.attn_k.weight"> : tensor<1024x4096xf16>
  util.global private @__auto.blk.14.attn_v.weight = #stream.parameter.named<"model"::"blk.14.attn_v.weight"> : tensor<1024x4096xf16>
  util.global private @__auto.blk.14.attn_output.weight = #stream.parameter.named<"model"::"blk.14.attn_output.weight"> : tensor<4096x4096xf16>
  util.global private @__auto.blk.14.ffn_norm.weight = #stream.parameter.named<"model"::"blk.14.ffn_norm.weight"> : tensor<4096xf32>
  util.global private @__auto.blk.14.ffn_gate.weight = #stream.parameter.named<"model"::"blk.14.ffn_gate.weight"> : tensor<14336x4096xf16>
  util.global private @__auto.blk.14.ffn_up.weight = #stream.parameter.named<"model"::"blk.14.ffn_up.weight"> : tensor<14336x4096xf16>
  util.global private @__auto.blk.14.ffn_down.weight = #stream.parameter.named<"model"::"blk.14.ffn_down.weight"> : tensor<4096x14336xf16>
  util.global private @__auto.blk.15.attn_norm.weight = #stream.parameter.named<"model"::"blk.15.attn_norm.weight"> : tensor<4096xf32>
  util.global private @__auto.blk.15.attn_q.weight = #stream.parameter.named<"model"::"blk.15.attn_q.weight"> : tensor<4096x4096xf16>
  util.global private @__auto.blk.15.attn_k.weight = #stream.parameter.named<"model"::"blk.15.attn_k.weight"> : tensor<1024x4096xf16>
  util.global private @__auto.blk.15.attn_v.weight = #stream.parameter.named<"model"::"blk.15.attn_v.weight"> : tensor<1024x4096xf16>
  util.global private @__auto.blk.15.attn_output.weight = #stream.parameter.named<"model"::"blk.15.attn_output.weight"> : tensor<4096x4096xf16>
  util.global private @__auto.blk.15.ffn_norm.weight = #stream.parameter.named<"model"::"blk.15.ffn_norm.weight"> : tensor<4096xf32>
  util.global private @__auto.blk.15.ffn_gate.weight = #stream.parameter.named<"model"::"blk.15.ffn_gate.weight"> : tensor<14336x4096xf16>
  util.global private @__auto.blk.15.ffn_up.weight = #stream.parameter.named<"model"::"blk.15.ffn_up.weight"> : tensor<14336x4096xf16>
  util.global private @__auto.blk.15.ffn_down.weight = #stream.parameter.named<"model"::"blk.15.ffn_down.weight"> : tensor<4096x14336xf16>
  util.global private @__auto.blk.16.attn_norm.weight = #stream.parameter.named<"model"::"blk.16.attn_norm.weight"> : tensor<4096xf32>
  util.global private @__auto.blk.16.attn_q.weight = #stream.parameter.named<"model"::"blk.16.attn_q.weight"> : tensor<4096x4096xf16>
  util.global private @__auto.blk.16.attn_k.weight = #stream.parameter.named<"model"::"blk.16.attn_k.weight"> : tensor<1024x4096xf16>
  util.global private @__auto.blk.16.attn_v.weight = #stream.parameter.named<"model"::"blk.16.attn_v.weight"> : tensor<1024x4096xf16>
  util.global private @__auto.blk.16.attn_output.weight = #stream.parameter.named<"model"::"blk.16.attn_output.weight"> : tensor<4096x4096xf16>
  util.global private @__auto.blk.16.ffn_norm.weight = #stream.parameter.named<"model"::"blk.16.ffn_norm.weight"> : tensor<4096xf32>
  util.global private @__auto.blk.16.ffn_gate.weight = #stream.parameter.named<"model"::"blk.16.ffn_gate.weight"> : tensor<14336x4096xf16>
  util.global private @__auto.blk.16.ffn_up.weight = #stream.parameter.named<"model"::"blk.16.ffn_up.weight"> : tensor<14336x4096xf16>
  util.global private @__auto.blk.16.ffn_down.weight = #stream.parameter.named<"model"::"blk.16.ffn_down.weight"> : tensor<4096x14336xf16>
  util.global private @__auto.blk.17.attn_norm.weight = #stream.parameter.named<"model"::"blk.17.attn_norm.weight"> : tensor<4096xf32>
  util.global private @__auto.blk.17.attn_q.weight = #stream.parameter.named<"model"::"blk.17.attn_q.weight"> : tensor<4096x4096xf16>
  util.global private @__auto.blk.17.attn_k.weight = #stream.parameter.named<"model"::"blk.17.attn_k.weight"> : tensor<1024x4096xf16>
  util.global private @__auto.blk.17.attn_v.weight = #stream.parameter.named<"model"::"blk.17.attn_v.weight"> : tensor<1024x4096xf16>
  util.global private @__auto.blk.17.attn_output.weight = #stream.parameter.named<"model"::"blk.17.attn_output.weight"> : tensor<4096x4096xf16>
  util.global private @__auto.blk.17.ffn_norm.weight = #stream.parameter.named<"model"::"blk.17.ffn_norm.weight"> : tensor<4096xf32>
  util.global private @__auto.blk.17.ffn_gate.weight = #stream.parameter.named<"model"::"blk.17.ffn_gate.weight"> : tensor<14336x4096xf16>
  util.global private @__auto.blk.17.ffn_up.weight = #stream.parameter.named<"model"::"blk.17.ffn_up.weight"> : tensor<14336x4096xf16>
  util.global private @__auto.blk.17.ffn_down.weight = #stream.parameter.named<"model"::"blk.17.ffn_down.weight"> : tensor<4096x14336xf16>
  util.global private @__auto.blk.18.attn_norm.weight = #stream.parameter.named<"model"::"blk.18.attn_norm.weight"> : tensor<4096xf32>
  util.global private @__auto.blk.18.attn_q.weight = #stream.parameter.named<"model"::"blk.18.attn_q.weight"> : tensor<4096x4096xf16>
  util.global private @__auto.blk.18.attn_k.weight = #stream.parameter.named<"model"::"blk.18.attn_k.weight"> : tensor<1024x4096xf16>
  util.global private @__auto.blk.18.attn_v.weight = #stream.parameter.named<"model"::"blk.18.attn_v.weight"> : tensor<1024x4096xf16>
  util.global private @__auto.blk.18.attn_output.weight = #stream.parameter.named<"model"::"blk.18.attn_output.weight"> : tensor<4096x4096xf16>
  util.global private @__auto.blk.18.ffn_norm.weight = #stream.parameter.named<"model"::"blk.18.ffn_norm.weight"> : tensor<4096xf32>
  util.global private @__auto.blk.18.ffn_gate.weight = #stream.parameter.named<"model"::"blk.18.ffn_gate.weight"> : tensor<14336x4096xf16>
  util.global private @__auto.blk.18.ffn_up.weight = #stream.parameter.named<"model"::"blk.18.ffn_up.weight"> : tensor<14336x4096xf16>
  util.global private @__auto.blk.18.ffn_down.weight = #stream.parameter.named<"model"::"blk.18.ffn_down.weight"> : tensor<4096x14336xf16>
  util.global private @__auto.blk.19.attn_norm.weight = #stream.parameter.named<"model"::"blk.19.attn_norm.weight"> : tensor<4096xf32>
  util.global private @__auto.blk.19.attn_q.weight = #stream.parameter.named<"model"::"blk.19.attn_q.weight"> : tensor<4096x4096xf16>
  util.global private @__auto.blk.19.attn_k.weight = #stream.parameter.named<"model"::"blk.19.attn_k.weight"> : tensor<1024x4096xf16>
  util.global private @__auto.blk.19.attn_v.weight = #stream.parameter.named<"model"::"blk.19.attn_v.weight"> : tensor<1024x4096xf16>
  util.global private @__auto.blk.19.attn_output.weight = #stream.parameter.named<"model"::"blk.19.attn_output.weight"> : tensor<4096x4096xf16>
  util.global private @__auto.blk.19.ffn_norm.weight = #stream.parameter.named<"model"::"blk.19.ffn_norm.weight"> : tensor<4096xf32>
  util.global private @__auto.blk.19.ffn_gate.weight = #stream.parameter.named<"model"::"blk.19.ffn_gate.weight"> : tensor<14336x4096xf16>
  util.global private @__auto.blk.19.ffn_up.weight = #stream.parameter.named<"model"::"blk.19.ffn_up.weight"> : tensor<14336x4096xf16>
  util.global private @__auto.blk.19.ffn_down.weight = #stream.parameter.named<"model"::"blk.19.ffn_down.weight"> : tensor<4096x14336xf16>
  util.global private @__auto.blk.20.attn_norm.weight = #stream.parameter.named<"model"::"blk.20.attn_norm.weight"> : tensor<4096xf32>
  util.global private @__auto.blk.20.attn_q.weight = #stream.parameter.named<"model"::"blk.20.attn_q.weight"> : tensor<4096x4096xf16>
  util.global private @__auto.blk.20.attn_k.weight = #stream.parameter.named<"model"::"blk.20.attn_k.weight"> : tensor<1024x4096xf16>
  util.global private @__auto.blk.20.attn_v.weight = #stream.parameter.named<"model"::"blk.20.attn_v.weight"> : tensor<1024x4096xf16>
  util.global private @__auto.blk.20.attn_output.weight = #stream.parameter.named<"model"::"blk.20.attn_output.weight"> : tensor<4096x4096xf16>
  util.global private @__auto.blk.20.ffn_norm.weight = #stream.parameter.named<"model"::"blk.20.ffn_norm.weight"> : tensor<4096xf32>
  util.global private @__auto.blk.20.ffn_gate.weight = #stream.parameter.named<"model"::"blk.20.ffn_gate.weight"> : tensor<14336x4096xf16>
  util.global private @__auto.blk.20.ffn_up.weight = #stream.parameter.named<"model"::"blk.20.ffn_up.weight"> : tensor<14336x4096xf16>
  util.global private @__auto.blk.20.ffn_down.weight = #stream.parameter.named<"model"::"blk.20.ffn_down.weight"> : tensor<4096x14336xf16>
  util.global private @__auto.blk.21.attn_norm.weight = #stream.parameter.named<"model"::"blk.21.attn_norm.weight"> : tensor<4096xf32>
  util.global private @__auto.blk.21.attn_q.weight = #stream.parameter.named<"model"::"blk.21.attn_q.weight"> : tensor<4096x4096xf16>
  util.global private @__auto.blk.21.attn_k.weight = #stream.parameter.named<"model"::"blk.21.attn_k.weight"> : tensor<1024x4096xf16>
  util.global private @__auto.blk.21.attn_v.weight = #stream.parameter.named<"model"::"blk.21.attn_v.weight"> : tensor<1024x4096xf16>
  util.global private @__auto.blk.21.attn_output.weight = #stream.parameter.named<"model"::"blk.21.attn_output.weight"> : tensor<4096x4096xf16>
  util.global private @__auto.blk.21.ffn_norm.weight = #stream.parameter.named<"model"::"blk.21.ffn_norm.weight"> : tensor<4096xf32>
  util.global private @__auto.blk.21.ffn_gate.weight = #stream.parameter.named<"model"::"blk.21.ffn_gate.weight"> : tensor<14336x4096xf16>
  util.global private @__auto.blk.21.ffn_up.weight = #stream.parameter.named<"model"::"blk.21.ffn_up.weight"> : tensor<14336x4096xf16>
  util.global private @__auto.blk.21.ffn_down.weight = #stream.parameter.named<"model"::"blk.21.ffn_down.weight"> : tensor<4096x14336xf16>
  util.global private @__auto.blk.22.attn_norm.weight = #stream.parameter.named<"model"::"blk.22.attn_norm.weight"> : tensor<4096xf32>
  util.global private @__auto.blk.22.attn_q.weight = #stream.parameter.named<"model"::"blk.22.attn_q.weight"> : tensor<4096x4096xf16>
  util.global private @__auto.blk.22.attn_k.weight = #stream.parameter.named<"model"::"blk.22.attn_k.weight"> : tensor<1024x4096xf16>
  util.global private @__auto.blk.22.attn_v.weight = #stream.parameter.named<"model"::"blk.22.attn_v.weight"> : tensor<1024x4096xf16>
  util.global private @__auto.blk.22.attn_output.weight = #stream.parameter.named<"model"::"blk.22.attn_output.weight"> : tensor<4096x4096xf16>
  util.global private @__auto.blk.22.ffn_norm.weight = #stream.parameter.named<"model"::"blk.22.ffn_norm.weight"> : tensor<4096xf32>
  util.global private @__auto.blk.22.ffn_gate.weight = #stream.parameter.named<"model"::"blk.22.ffn_gate.weight"> : tensor<14336x4096xf16>
  util.global private @__auto.blk.22.ffn_up.weight = #stream.parameter.named<"model"::"blk.22.ffn_up.weight"> : tensor<14336x4096xf16>
  util.global private @__auto.blk.22.ffn_down.weight = #stream.parameter.named<"model"::"blk.22.ffn_down.weight"> : tensor<4096x14336xf16>
  util.global private @__auto.blk.23.attn_norm.weight = #stream.parameter.named<"model"::"blk.23.attn_norm.weight"> : tensor<4096xf32>
  util.global private @__auto.blk.23.attn_q.weight = #stream.parameter.named<"model"::"blk.23.attn_q.weight"> : tensor<4096x4096xf16>
  util.global private @__auto.blk.23.attn_k.weight = #stream.parameter.named<"model"::"blk.23.attn_k.weight"> : tensor<1024x4096xf16>
  util.global private @__auto.blk.23.attn_v.weight = #stream.parameter.named<"model"::"blk.23.attn_v.weight"> : tensor<1024x4096xf16>
  util.global private @__auto.blk.23.attn_output.weight = #stream.parameter.named<"model"::"blk.23.attn_output.weight"> : tensor<4096x4096xf16>
  util.global private @__auto.blk.23.ffn_norm.weight = #stream.parameter.named<"model"::"blk.23.ffn_norm.weight"> : tensor<4096xf32>
  util.global private @__auto.blk.23.ffn_gate.weight = #stream.parameter.named<"model"::"blk.23.ffn_gate.weight"> : tensor<14336x4096xf16>
  util.global private @__auto.blk.23.ffn_up.weight = #stream.parameter.named<"model"::"blk.23.ffn_up.weight"> : tensor<14336x4096xf16>
  util.global private @__auto.blk.23.ffn_down.weight = #stream.parameter.named<"model"::"blk.23.ffn_down.weight"> : tensor<4096x14336xf16>
  util.global private @__auto.blk.24.attn_norm.weight = #stream.parameter.named<"model"::"blk.24.attn_norm.weight"> : tensor<4096xf32>
  util.global private @__auto.blk.24.attn_q.weight = #stream.parameter.named<"model"::"blk.24.attn_q.weight"> : tensor<4096x4096xf16>
  util.global private @__auto.blk.24.attn_k.weight = #stream.parameter.named<"model"::"blk.24.attn_k.weight"> : tensor<1024x4096xf16>
  util.global private @__auto.blk.24.attn_v.weight = #stream.parameter.named<"model"::"blk.24.attn_v.weight"> : tensor<1024x4096xf16>
  util.global private @__auto.blk.24.attn_output.weight = #stream.parameter.named<"model"::"blk.24.attn_output.weight"> : tensor<4096x4096xf16>
  util.global private @__auto.blk.24.ffn_norm.weight = #stream.parameter.named<"model"::"blk.24.ffn_norm.weight"> : tensor<4096xf32>
  util.global private @__auto.blk.24.ffn_gate.weight = #stream.parameter.named<"model"::"blk.24.ffn_gate.weight"> : tensor<14336x4096xf16>
  util.global private @__auto.blk.24.ffn_up.weight = #stream.parameter.named<"model"::"blk.24.ffn_up.weight"> : tensor<14336x4096xf16>
  util.global private @__auto.blk.24.ffn_down.weight = #stream.parameter.named<"model"::"blk.24.ffn_down.weight"> : tensor<4096x14336xf16>
  util.global private @__auto.blk.25.attn_norm.weight = #stream.parameter.named<"model"::"blk.25.attn_norm.weight"> : tensor<4096xf32>
  util.global private @__auto.blk.25.attn_q.weight = #stream.parameter.named<"model"::"blk.25.attn_q.weight"> : tensor<4096x4096xf16>
  util.global private @__auto.blk.25.attn_k.weight = #stream.parameter.named<"model"::"blk.25.attn_k.weight"> : tensor<1024x4096xf16>
  util.global private @__auto.blk.25.attn_v.weight = #stream.parameter.named<"model"::"blk.25.attn_v.weight"> : tensor<1024x4096xf16>
  util.global private @__auto.blk.25.attn_output.weight = #stream.parameter.named<"model"::"blk.25.attn_output.weight"> : tensor<4096x4096xf16>
  util.global private @__auto.blk.25.ffn_norm.weight = #stream.parameter.named<"model"::"blk.25.ffn_norm.weight"> : tensor<4096xf32>
  util.global private @__auto.blk.25.ffn_gate.weight = #stream.parameter.named<"model"::"blk.25.ffn_gate.weight"> : tensor<14336x4096xf16>
  util.global private @__auto.blk.25.ffn_up.weight = #stream.parameter.named<"model"::"blk.25.ffn_up.weight"> : tensor<14336x4096xf16>
  util.global private @__auto.blk.25.ffn_down.weight = #stream.parameter.named<"model"::"blk.25.ffn_down.weight"> : tensor<4096x14336xf16>
  util.global private @__auto.blk.26.attn_norm.weight = #stream.parameter.named<"model"::"blk.26.attn_norm.weight"> : tensor<4096xf32>
  util.global private @__auto.blk.26.attn_q.weight = #stream.parameter.named<"model"::"blk.26.attn_q.weight"> : tensor<4096x4096xf16>
  util.global private @__auto.blk.26.attn_k.weight = #stream.parameter.named<"model"::"blk.26.attn_k.weight"> : tensor<1024x4096xf16>
  util.global private @__auto.blk.26.attn_v.weight = #stream.parameter.named<"model"::"blk.26.attn_v.weight"> : tensor<1024x4096xf16>
  util.global private @__auto.blk.26.attn_output.weight = #stream.parameter.named<"model"::"blk.26.attn_output.weight"> : tensor<4096x4096xf16>
  util.global private @__auto.blk.26.ffn_norm.weight = #stream.parameter.named<"model"::"blk.26.ffn_norm.weight"> : tensor<4096xf32>
  util.global private @__auto.blk.26.ffn_gate.weight = #stream.parameter.named<"model"::"blk.26.ffn_gate.weight"> : tensor<14336x4096xf16>
  util.global private @__auto.blk.26.ffn_up.weight = #stream.parameter.named<"model"::"blk.26.ffn_up.weight"> : tensor<14336x4096xf16>
  util.global private @__auto.blk.26.ffn_down.weight = #stream.parameter.named<"model"::"blk.26.ffn_down.weight"> : tensor<4096x14336xf16>
  util.global private @__auto.blk.27.attn_norm.weight = #stream.parameter.named<"model"::"blk.27.attn_norm.weight"> : tensor<4096xf32>
  util.global private @__auto.blk.27.attn_q.weight = #stream.parameter.named<"model"::"blk.27.attn_q.weight"> : tensor<4096x4096xf16>
  util.global private @__auto.blk.27.attn_k.weight = #stream.parameter.named<"model"::"blk.27.attn_k.weight"> : tensor<1024x4096xf16>
  util.global private @__auto.blk.27.attn_v.weight = #stream.parameter.named<"model"::"blk.27.attn_v.weight"> : tensor<1024x4096xf16>
  util.global private @__auto.blk.27.attn_output.weight = #stream.parameter.named<"model"::"blk.27.attn_output.weight"> : tensor<4096x4096xf16>
  util.global private @__auto.blk.27.ffn_norm.weight = #stream.parameter.named<"model"::"blk.27.ffn_norm.weight"> : tensor<4096xf32>
  util.global private @__auto.blk.27.ffn_gate.weight = #stream.parameter.named<"model"::"blk.27.ffn_gate.weight"> : tensor<14336x4096xf16>
  util.global private @__auto.blk.27.ffn_up.weight = #stream.parameter.named<"model"::"blk.27.ffn_up.weight"> : tensor<14336x4096xf16>
  util.global private @__auto.blk.27.ffn_down.weight = #stream.parameter.named<"model"::"blk.27.ffn_down.weight"> : tensor<4096x14336xf16>
  util.global private @__auto.blk.28.attn_norm.weight = #stream.parameter.named<"model"::"blk.28.attn_norm.weight"> : tensor<4096xf32>
  util.global private @__auto.blk.28.attn_q.weight = #stream.parameter.named<"model"::"blk.28.attn_q.weight"> : tensor<4096x4096xf16>
  util.global private @__auto.blk.28.attn_k.weight = #stream.parameter.named<"model"::"blk.28.attn_k.weight"> : tensor<1024x4096xf16>
  util.global private @__auto.blk.28.attn_v.weight = #stream.parameter.named<"model"::"blk.28.attn_v.weight"> : tensor<1024x4096xf16>
  util.global private @__auto.blk.28.attn_output.weight = #stream.parameter.named<"model"::"blk.28.attn_output.weight"> : tensor<4096x4096xf16>
  util.global private @__auto.blk.28.ffn_norm.weight = #stream.parameter.named<"model"::"blk.28.ffn_norm.weight"> : tensor<4096xf32>
  util.global private @__auto.blk.28.ffn_gate.weight = #stream.parameter.named<"model"::"blk.28.ffn_gate.weight"> : tensor<14336x4096xf16>
  util.global private @__auto.blk.28.ffn_up.weight = #stream.parameter.named<"model"::"blk.28.ffn_up.weight"> : tensor<14336x4096xf16>
  util.global private @__auto.blk.28.ffn_down.weight = #stream.parameter.named<"model"::"blk.28.ffn_down.weight"> : tensor<4096x14336xf16>
  util.global private @__auto.blk.29.attn_norm.weight = #stream.parameter.named<"model"::"blk.29.attn_norm.weight"> : tensor<4096xf32>
  util.global private @__auto.blk.29.attn_q.weight = #stream.parameter.named<"model"::"blk.29.attn_q.weight"> : tensor<4096x4096xf16>
  util.global private @__auto.blk.29.attn_k.weight = #stream.parameter.named<"model"::"blk.29.attn_k.weight"> : tensor<1024x4096xf16>
  util.global private @__auto.blk.29.attn_v.weight = #stream.parameter.named<"model"::"blk.29.attn_v.weight"> : tensor<1024x4096xf16>
  util.global private @__auto.blk.29.attn_output.weight = #stream.parameter.named<"model"::"blk.29.attn_output.weight"> : tensor<4096x4096xf16>
  util.global private @__auto.blk.29.ffn_norm.weight = #stream.parameter.named<"model"::"blk.29.ffn_norm.weight"> : tensor<4096xf32>
  util.global private @__auto.blk.29.ffn_gate.weight = #stream.parameter.named<"model"::"blk.29.ffn_gate.weight"> : tensor<14336x4096xf16>
  util.global private @__auto.blk.29.ffn_up.weight = #stream.parameter.named<"model"::"blk.29.ffn_up.weight"> : tensor<14336x4096xf16>
  util.global private @__auto.blk.29.ffn_down.weight = #stream.parameter.named<"model"::"blk.29.ffn_down.weight"> : tensor<4096x14336xf16>
  util.global private @__auto.blk.30.attn_norm.weight = #stream.parameter.named<"model"::"blk.30.attn_norm.weight"> : tensor<4096xf32>
  util.global private @__auto.blk.30.attn_q.weight = #stream.parameter.named<"model"::"blk.30.attn_q.weight"> : tensor<4096x4096xf16>
  util.global private @__auto.blk.30.attn_k.weight = #stream.parameter.named<"model"::"blk.30.attn_k.weight"> : tensor<1024x4096xf16>
  util.global private @__auto.blk.30.attn_v.weight = #stream.parameter.named<"model"::"blk.30.attn_v.weight"> : tensor<1024x4096xf16>
  util.global private @__auto.blk.30.attn_output.weight = #stream.parameter.named<"model"::"blk.30.attn_output.weight"> : tensor<4096x4096xf16>
  util.global private @__auto.blk.30.ffn_norm.weight = #stream.parameter.named<"model"::"blk.30.ffn_norm.weight"> : tensor<4096xf32>
  util.global private @__auto.blk.30.ffn_gate.weight = #stream.parameter.named<"model"::"blk.30.ffn_gate.weight"> : tensor<14336x4096xf16>
  util.global private @__auto.blk.30.ffn_up.weight = #stream.parameter.named<"model"::"blk.30.ffn_up.weight"> : tensor<14336x4096xf16>
  util.global private @__auto.blk.30.ffn_down.weight = #stream.parameter.named<"model"::"blk.30.ffn_down.weight"> : tensor<4096x14336xf16>
  util.global private @__auto.blk.31.attn_norm.weight = #stream.parameter.named<"model"::"blk.31.attn_norm.weight"> : tensor<4096xf32>
  util.global private @__auto.blk.31.attn_q.weight = #stream.parameter.named<"model"::"blk.31.attn_q.weight"> : tensor<4096x4096xf16>
  util.global private @__auto.blk.31.attn_k.weight = #stream.parameter.named<"model"::"blk.31.attn_k.weight"> : tensor<1024x4096xf16>
  util.global private @__auto.blk.31.attn_v.weight = #stream.parameter.named<"model"::"blk.31.attn_v.weight"> : tensor<1024x4096xf16>
  util.global private @__auto.blk.31.attn_output.weight = #stream.parameter.named<"model"::"blk.31.attn_output.weight"> : tensor<4096x4096xf16>
  util.global private @__auto.blk.31.ffn_norm.weight = #stream.parameter.named<"model"::"blk.31.ffn_norm.weight"> : tensor<4096xf32>
  util.global private @__auto.blk.31.ffn_gate.weight = #stream.parameter.named<"model"::"blk.31.ffn_gate.weight"> : tensor<14336x4096xf16>
  util.global private @__auto.blk.31.ffn_up.weight = #stream.parameter.named<"model"::"blk.31.ffn_up.weight"> : tensor<14336x4096xf16>
  util.global private @__auto.blk.31.ffn_down.weight = #stream.parameter.named<"model"::"blk.31.ffn_down.weight"> : tensor<4096x14336xf16>
  util.global private @__auto.output_norm.weight = #stream.parameter.named<"model"::"output_norm.weight"> : tensor<4096xf32>
  util.global private @__auto.output.weight = #stream.parameter.named<"model"::"output.weight"> : tensor<128256x4096xf16>
  func.func @prefill_bs4(%arg0: !torch.vtensor<[4,?],si64>, %arg1: !torch.vtensor<[4],si64>, %arg2: !torch.vtensor<[4,?],si64>, %arg3: !torch.tensor<[?,2097152],f16>) -> !torch.vtensor<[4,?,128256],f16> attributes {torch.assume_strict_symbolic_shapes} {
    %0 = torch.vtensor.literal(dense<0xFC00> : tensor<f16>) : !torch.vtensor<[],f16>
    %__auto.token_embd.weight = util.global.load @__auto.token_embd.weight : tensor<128256x4096xf16>
    %1 = torch_c.from_builtin_tensor %__auto.token_embd.weight : tensor<128256x4096xf16> -> !torch.vtensor<[128256,4096],f16>
    %__auto.blk.0.attn_norm.weight = util.global.load @__auto.blk.0.attn_norm.weight : tensor<4096xf32>
    %2 = torch_c.from_builtin_tensor %__auto.blk.0.attn_norm.weight : tensor<4096xf32> -> !torch.vtensor<[4096],f32>
    %__auto.blk.0.attn_q.weight = util.global.load @__auto.blk.0.attn_q.weight : tensor<4096x4096xf16>
    %3 = torch_c.from_builtin_tensor %__auto.blk.0.attn_q.weight : tensor<4096x4096xf16> -> !torch.vtensor<[4096,4096],f16>
    %__auto.blk.0.attn_k.weight = util.global.load @__auto.blk.0.attn_k.weight : tensor<1024x4096xf16>
    %4 = torch_c.from_builtin_tensor %__auto.blk.0.attn_k.weight : tensor<1024x4096xf16> -> !torch.vtensor<[1024,4096],f16>
    %__auto.blk.0.attn_v.weight = util.global.load @__auto.blk.0.attn_v.weight : tensor<1024x4096xf16>
    %5 = torch_c.from_builtin_tensor %__auto.blk.0.attn_v.weight : tensor<1024x4096xf16> -> !torch.vtensor<[1024,4096],f16>
    %__auto.blk.0.attn_output.weight = util.global.load @__auto.blk.0.attn_output.weight : tensor<4096x4096xf16>
    %6 = torch_c.from_builtin_tensor %__auto.blk.0.attn_output.weight : tensor<4096x4096xf16> -> !torch.vtensor<[4096,4096],f16>
    %__auto.blk.0.ffn_norm.weight = util.global.load @__auto.blk.0.ffn_norm.weight : tensor<4096xf32>
    %7 = torch_c.from_builtin_tensor %__auto.blk.0.ffn_norm.weight : tensor<4096xf32> -> !torch.vtensor<[4096],f32>
    %__auto.blk.0.ffn_gate.weight = util.global.load @__auto.blk.0.ffn_gate.weight : tensor<14336x4096xf16>
    %8 = torch_c.from_builtin_tensor %__auto.blk.0.ffn_gate.weight : tensor<14336x4096xf16> -> !torch.vtensor<[14336,4096],f16>
    %__auto.blk.0.ffn_up.weight = util.global.load @__auto.blk.0.ffn_up.weight : tensor<14336x4096xf16>
    %9 = torch_c.from_builtin_tensor %__auto.blk.0.ffn_up.weight : tensor<14336x4096xf16> -> !torch.vtensor<[14336,4096],f16>
    %__auto.blk.0.ffn_down.weight = util.global.load @__auto.blk.0.ffn_down.weight : tensor<4096x14336xf16>
    %10 = torch_c.from_builtin_tensor %__auto.blk.0.ffn_down.weight : tensor<4096x14336xf16> -> !torch.vtensor<[4096,14336],f16>
    %__auto.blk.1.attn_norm.weight = util.global.load @__auto.blk.1.attn_norm.weight : tensor<4096xf32>
    %11 = torch_c.from_builtin_tensor %__auto.blk.1.attn_norm.weight : tensor<4096xf32> -> !torch.vtensor<[4096],f32>
    %__auto.blk.1.attn_q.weight = util.global.load @__auto.blk.1.attn_q.weight : tensor<4096x4096xf16>
    %12 = torch_c.from_builtin_tensor %__auto.blk.1.attn_q.weight : tensor<4096x4096xf16> -> !torch.vtensor<[4096,4096],f16>
    %__auto.blk.1.attn_k.weight = util.global.load @__auto.blk.1.attn_k.weight : tensor<1024x4096xf16>
    %13 = torch_c.from_builtin_tensor %__auto.blk.1.attn_k.weight : tensor<1024x4096xf16> -> !torch.vtensor<[1024,4096],f16>
    %__auto.blk.1.attn_v.weight = util.global.load @__auto.blk.1.attn_v.weight : tensor<1024x4096xf16>
    %14 = torch_c.from_builtin_tensor %__auto.blk.1.attn_v.weight : tensor<1024x4096xf16> -> !torch.vtensor<[1024,4096],f16>
    %__auto.blk.1.attn_output.weight = util.global.load @__auto.blk.1.attn_output.weight : tensor<4096x4096xf16>
    %15 = torch_c.from_builtin_tensor %__auto.blk.1.attn_output.weight : tensor<4096x4096xf16> -> !torch.vtensor<[4096,4096],f16>
    %__auto.blk.1.ffn_norm.weight = util.global.load @__auto.blk.1.ffn_norm.weight : tensor<4096xf32>
    %16 = torch_c.from_builtin_tensor %__auto.blk.1.ffn_norm.weight : tensor<4096xf32> -> !torch.vtensor<[4096],f32>
    %__auto.blk.1.ffn_gate.weight = util.global.load @__auto.blk.1.ffn_gate.weight : tensor<14336x4096xf16>
    %17 = torch_c.from_builtin_tensor %__auto.blk.1.ffn_gate.weight : tensor<14336x4096xf16> -> !torch.vtensor<[14336,4096],f16>
    %__auto.blk.1.ffn_up.weight = util.global.load @__auto.blk.1.ffn_up.weight : tensor<14336x4096xf16>
    %18 = torch_c.from_builtin_tensor %__auto.blk.1.ffn_up.weight : tensor<14336x4096xf16> -> !torch.vtensor<[14336,4096],f16>
    %__auto.blk.1.ffn_down.weight = util.global.load @__auto.blk.1.ffn_down.weight : tensor<4096x14336xf16>
    %19 = torch_c.from_builtin_tensor %__auto.blk.1.ffn_down.weight : tensor<4096x14336xf16> -> !torch.vtensor<[4096,14336],f16>
    %__auto.blk.2.attn_norm.weight = util.global.load @__auto.blk.2.attn_norm.weight : tensor<4096xf32>
    %20 = torch_c.from_builtin_tensor %__auto.blk.2.attn_norm.weight : tensor<4096xf32> -> !torch.vtensor<[4096],f32>
    %__auto.blk.2.attn_q.weight = util.global.load @__auto.blk.2.attn_q.weight : tensor<4096x4096xf16>
    %21 = torch_c.from_builtin_tensor %__auto.blk.2.attn_q.weight : tensor<4096x4096xf16> -> !torch.vtensor<[4096,4096],f16>
    %__auto.blk.2.attn_k.weight = util.global.load @__auto.blk.2.attn_k.weight : tensor<1024x4096xf16>
    %22 = torch_c.from_builtin_tensor %__auto.blk.2.attn_k.weight : tensor<1024x4096xf16> -> !torch.vtensor<[1024,4096],f16>
    %__auto.blk.2.attn_v.weight = util.global.load @__auto.blk.2.attn_v.weight : tensor<1024x4096xf16>
    %23 = torch_c.from_builtin_tensor %__auto.blk.2.attn_v.weight : tensor<1024x4096xf16> -> !torch.vtensor<[1024,4096],f16>
    %__auto.blk.2.attn_output.weight = util.global.load @__auto.blk.2.attn_output.weight : tensor<4096x4096xf16>
    %24 = torch_c.from_builtin_tensor %__auto.blk.2.attn_output.weight : tensor<4096x4096xf16> -> !torch.vtensor<[4096,4096],f16>
    %__auto.blk.2.ffn_norm.weight = util.global.load @__auto.blk.2.ffn_norm.weight : tensor<4096xf32>
    %25 = torch_c.from_builtin_tensor %__auto.blk.2.ffn_norm.weight : tensor<4096xf32> -> !torch.vtensor<[4096],f32>
    %__auto.blk.2.ffn_gate.weight = util.global.load @__auto.blk.2.ffn_gate.weight : tensor<14336x4096xf16>
    %26 = torch_c.from_builtin_tensor %__auto.blk.2.ffn_gate.weight : tensor<14336x4096xf16> -> !torch.vtensor<[14336,4096],f16>
    %__auto.blk.2.ffn_up.weight = util.global.load @__auto.blk.2.ffn_up.weight : tensor<14336x4096xf16>
    %27 = torch_c.from_builtin_tensor %__auto.blk.2.ffn_up.weight : tensor<14336x4096xf16> -> !torch.vtensor<[14336,4096],f16>
    %__auto.blk.2.ffn_down.weight = util.global.load @__auto.blk.2.ffn_down.weight : tensor<4096x14336xf16>
    %28 = torch_c.from_builtin_tensor %__auto.blk.2.ffn_down.weight : tensor<4096x14336xf16> -> !torch.vtensor<[4096,14336],f16>
    %__auto.blk.3.attn_norm.weight = util.global.load @__auto.blk.3.attn_norm.weight : tensor<4096xf32>
    %29 = torch_c.from_builtin_tensor %__auto.blk.3.attn_norm.weight : tensor<4096xf32> -> !torch.vtensor<[4096],f32>
    %__auto.blk.3.attn_q.weight = util.global.load @__auto.blk.3.attn_q.weight : tensor<4096x4096xf16>
    %30 = torch_c.from_builtin_tensor %__auto.blk.3.attn_q.weight : tensor<4096x4096xf16> -> !torch.vtensor<[4096,4096],f16>
    %__auto.blk.3.attn_k.weight = util.global.load @__auto.blk.3.attn_k.weight : tensor<1024x4096xf16>
    %31 = torch_c.from_builtin_tensor %__auto.blk.3.attn_k.weight : tensor<1024x4096xf16> -> !torch.vtensor<[1024,4096],f16>
    %__auto.blk.3.attn_v.weight = util.global.load @__auto.blk.3.attn_v.weight : tensor<1024x4096xf16>
    %32 = torch_c.from_builtin_tensor %__auto.blk.3.attn_v.weight : tensor<1024x4096xf16> -> !torch.vtensor<[1024,4096],f16>
    %__auto.blk.3.attn_output.weight = util.global.load @__auto.blk.3.attn_output.weight : tensor<4096x4096xf16>
    %33 = torch_c.from_builtin_tensor %__auto.blk.3.attn_output.weight : tensor<4096x4096xf16> -> !torch.vtensor<[4096,4096],f16>
    %__auto.blk.3.ffn_norm.weight = util.global.load @__auto.blk.3.ffn_norm.weight : tensor<4096xf32>
    %34 = torch_c.from_builtin_tensor %__auto.blk.3.ffn_norm.weight : tensor<4096xf32> -> !torch.vtensor<[4096],f32>
    %__auto.blk.3.ffn_gate.weight = util.global.load @__auto.blk.3.ffn_gate.weight : tensor<14336x4096xf16>
    %35 = torch_c.from_builtin_tensor %__auto.blk.3.ffn_gate.weight : tensor<14336x4096xf16> -> !torch.vtensor<[14336,4096],f16>
    %__auto.blk.3.ffn_up.weight = util.global.load @__auto.blk.3.ffn_up.weight : tensor<14336x4096xf16>
    %36 = torch_c.from_builtin_tensor %__auto.blk.3.ffn_up.weight : tensor<14336x4096xf16> -> !torch.vtensor<[14336,4096],f16>
    %__auto.blk.3.ffn_down.weight = util.global.load @__auto.blk.3.ffn_down.weight : tensor<4096x14336xf16>
    %37 = torch_c.from_builtin_tensor %__auto.blk.3.ffn_down.weight : tensor<4096x14336xf16> -> !torch.vtensor<[4096,14336],f16>
    %__auto.blk.4.attn_norm.weight = util.global.load @__auto.blk.4.attn_norm.weight : tensor<4096xf32>
    %38 = torch_c.from_builtin_tensor %__auto.blk.4.attn_norm.weight : tensor<4096xf32> -> !torch.vtensor<[4096],f32>
    %__auto.blk.4.attn_q.weight = util.global.load @__auto.blk.4.attn_q.weight : tensor<4096x4096xf16>
    %39 = torch_c.from_builtin_tensor %__auto.blk.4.attn_q.weight : tensor<4096x4096xf16> -> !torch.vtensor<[4096,4096],f16>
    %__auto.blk.4.attn_k.weight = util.global.load @__auto.blk.4.attn_k.weight : tensor<1024x4096xf16>
    %40 = torch_c.from_builtin_tensor %__auto.blk.4.attn_k.weight : tensor<1024x4096xf16> -> !torch.vtensor<[1024,4096],f16>
    %__auto.blk.4.attn_v.weight = util.global.load @__auto.blk.4.attn_v.weight : tensor<1024x4096xf16>
    %41 = torch_c.from_builtin_tensor %__auto.blk.4.attn_v.weight : tensor<1024x4096xf16> -> !torch.vtensor<[1024,4096],f16>
    %__auto.blk.4.attn_output.weight = util.global.load @__auto.blk.4.attn_output.weight : tensor<4096x4096xf16>
    %42 = torch_c.from_builtin_tensor %__auto.blk.4.attn_output.weight : tensor<4096x4096xf16> -> !torch.vtensor<[4096,4096],f16>
    %__auto.blk.4.ffn_norm.weight = util.global.load @__auto.blk.4.ffn_norm.weight : tensor<4096xf32>
    %43 = torch_c.from_builtin_tensor %__auto.blk.4.ffn_norm.weight : tensor<4096xf32> -> !torch.vtensor<[4096],f32>
    %__auto.blk.4.ffn_gate.weight = util.global.load @__auto.blk.4.ffn_gate.weight : tensor<14336x4096xf16>
    %44 = torch_c.from_builtin_tensor %__auto.blk.4.ffn_gate.weight : tensor<14336x4096xf16> -> !torch.vtensor<[14336,4096],f16>
    %__auto.blk.4.ffn_up.weight = util.global.load @__auto.blk.4.ffn_up.weight : tensor<14336x4096xf16>
    %45 = torch_c.from_builtin_tensor %__auto.blk.4.ffn_up.weight : tensor<14336x4096xf16> -> !torch.vtensor<[14336,4096],f16>
    %__auto.blk.4.ffn_down.weight = util.global.load @__auto.blk.4.ffn_down.weight : tensor<4096x14336xf16>
    %46 = torch_c.from_builtin_tensor %__auto.blk.4.ffn_down.weight : tensor<4096x14336xf16> -> !torch.vtensor<[4096,14336],f16>
    %__auto.blk.5.attn_norm.weight = util.global.load @__auto.blk.5.attn_norm.weight : tensor<4096xf32>
    %47 = torch_c.from_builtin_tensor %__auto.blk.5.attn_norm.weight : tensor<4096xf32> -> !torch.vtensor<[4096],f32>
    %__auto.blk.5.attn_q.weight = util.global.load @__auto.blk.5.attn_q.weight : tensor<4096x4096xf16>
    %48 = torch_c.from_builtin_tensor %__auto.blk.5.attn_q.weight : tensor<4096x4096xf16> -> !torch.vtensor<[4096,4096],f16>
    %__auto.blk.5.attn_k.weight = util.global.load @__auto.blk.5.attn_k.weight : tensor<1024x4096xf16>
    %49 = torch_c.from_builtin_tensor %__auto.blk.5.attn_k.weight : tensor<1024x4096xf16> -> !torch.vtensor<[1024,4096],f16>
    %__auto.blk.5.attn_v.weight = util.global.load @__auto.blk.5.attn_v.weight : tensor<1024x4096xf16>
    %50 = torch_c.from_builtin_tensor %__auto.blk.5.attn_v.weight : tensor<1024x4096xf16> -> !torch.vtensor<[1024,4096],f16>
    %__auto.blk.5.attn_output.weight = util.global.load @__auto.blk.5.attn_output.weight : tensor<4096x4096xf16>
    %51 = torch_c.from_builtin_tensor %__auto.blk.5.attn_output.weight : tensor<4096x4096xf16> -> !torch.vtensor<[4096,4096],f16>
    %__auto.blk.5.ffn_norm.weight = util.global.load @__auto.blk.5.ffn_norm.weight : tensor<4096xf32>
    %52 = torch_c.from_builtin_tensor %__auto.blk.5.ffn_norm.weight : tensor<4096xf32> -> !torch.vtensor<[4096],f32>
    %__auto.blk.5.ffn_gate.weight = util.global.load @__auto.blk.5.ffn_gate.weight : tensor<14336x4096xf16>
    %53 = torch_c.from_builtin_tensor %__auto.blk.5.ffn_gate.weight : tensor<14336x4096xf16> -> !torch.vtensor<[14336,4096],f16>
    %__auto.blk.5.ffn_up.weight = util.global.load @__auto.blk.5.ffn_up.weight : tensor<14336x4096xf16>
    %54 = torch_c.from_builtin_tensor %__auto.blk.5.ffn_up.weight : tensor<14336x4096xf16> -> !torch.vtensor<[14336,4096],f16>
    %__auto.blk.5.ffn_down.weight = util.global.load @__auto.blk.5.ffn_down.weight : tensor<4096x14336xf16>
    %55 = torch_c.from_builtin_tensor %__auto.blk.5.ffn_down.weight : tensor<4096x14336xf16> -> !torch.vtensor<[4096,14336],f16>
    %__auto.blk.6.attn_norm.weight = util.global.load @__auto.blk.6.attn_norm.weight : tensor<4096xf32>
    %56 = torch_c.from_builtin_tensor %__auto.blk.6.attn_norm.weight : tensor<4096xf32> -> !torch.vtensor<[4096],f32>
    %__auto.blk.6.attn_q.weight = util.global.load @__auto.blk.6.attn_q.weight : tensor<4096x4096xf16>
    %57 = torch_c.from_builtin_tensor %__auto.blk.6.attn_q.weight : tensor<4096x4096xf16> -> !torch.vtensor<[4096,4096],f16>
    %__auto.blk.6.attn_k.weight = util.global.load @__auto.blk.6.attn_k.weight : tensor<1024x4096xf16>
    %58 = torch_c.from_builtin_tensor %__auto.blk.6.attn_k.weight : tensor<1024x4096xf16> -> !torch.vtensor<[1024,4096],f16>
    %__auto.blk.6.attn_v.weight = util.global.load @__auto.blk.6.attn_v.weight : tensor<1024x4096xf16>
    %59 = torch_c.from_builtin_tensor %__auto.blk.6.attn_v.weight : tensor<1024x4096xf16> -> !torch.vtensor<[1024,4096],f16>
    %__auto.blk.6.attn_output.weight = util.global.load @__auto.blk.6.attn_output.weight : tensor<4096x4096xf16>
    %60 = torch_c.from_builtin_tensor %__auto.blk.6.attn_output.weight : tensor<4096x4096xf16> -> !torch.vtensor<[4096,4096],f16>
    %__auto.blk.6.ffn_norm.weight = util.global.load @__auto.blk.6.ffn_norm.weight : tensor<4096xf32>
    %61 = torch_c.from_builtin_tensor %__auto.blk.6.ffn_norm.weight : tensor<4096xf32> -> !torch.vtensor<[4096],f32>
    %__auto.blk.6.ffn_gate.weight = util.global.load @__auto.blk.6.ffn_gate.weight : tensor<14336x4096xf16>
    %62 = torch_c.from_builtin_tensor %__auto.blk.6.ffn_gate.weight : tensor<14336x4096xf16> -> !torch.vtensor<[14336,4096],f16>
    %__auto.blk.6.ffn_up.weight = util.global.load @__auto.blk.6.ffn_up.weight : tensor<14336x4096xf16>
    %63 = torch_c.from_builtin_tensor %__auto.blk.6.ffn_up.weight : tensor<14336x4096xf16> -> !torch.vtensor<[14336,4096],f16>
    %__auto.blk.6.ffn_down.weight = util.global.load @__auto.blk.6.ffn_down.weight : tensor<4096x14336xf16>
    %64 = torch_c.from_builtin_tensor %__auto.blk.6.ffn_down.weight : tensor<4096x14336xf16> -> !torch.vtensor<[4096,14336],f16>
    %__auto.blk.7.attn_norm.weight = util.global.load @__auto.blk.7.attn_norm.weight : tensor<4096xf32>
    %65 = torch_c.from_builtin_tensor %__auto.blk.7.attn_norm.weight : tensor<4096xf32> -> !torch.vtensor<[4096],f32>
    %__auto.blk.7.attn_q.weight = util.global.load @__auto.blk.7.attn_q.weight : tensor<4096x4096xf16>
    %66 = torch_c.from_builtin_tensor %__auto.blk.7.attn_q.weight : tensor<4096x4096xf16> -> !torch.vtensor<[4096,4096],f16>
    %__auto.blk.7.attn_k.weight = util.global.load @__auto.blk.7.attn_k.weight : tensor<1024x4096xf16>
    %67 = torch_c.from_builtin_tensor %__auto.blk.7.attn_k.weight : tensor<1024x4096xf16> -> !torch.vtensor<[1024,4096],f16>
    %__auto.blk.7.attn_v.weight = util.global.load @__auto.blk.7.attn_v.weight : tensor<1024x4096xf16>
    %68 = torch_c.from_builtin_tensor %__auto.blk.7.attn_v.weight : tensor<1024x4096xf16> -> !torch.vtensor<[1024,4096],f16>
    %__auto.blk.7.attn_output.weight = util.global.load @__auto.blk.7.attn_output.weight : tensor<4096x4096xf16>
    %69 = torch_c.from_builtin_tensor %__auto.blk.7.attn_output.weight : tensor<4096x4096xf16> -> !torch.vtensor<[4096,4096],f16>
    %__auto.blk.7.ffn_norm.weight = util.global.load @__auto.blk.7.ffn_norm.weight : tensor<4096xf32>
    %70 = torch_c.from_builtin_tensor %__auto.blk.7.ffn_norm.weight : tensor<4096xf32> -> !torch.vtensor<[4096],f32>
    %__auto.blk.7.ffn_gate.weight = util.global.load @__auto.blk.7.ffn_gate.weight : tensor<14336x4096xf16>
    %71 = torch_c.from_builtin_tensor %__auto.blk.7.ffn_gate.weight : tensor<14336x4096xf16> -> !torch.vtensor<[14336,4096],f16>
    %__auto.blk.7.ffn_up.weight = util.global.load @__auto.blk.7.ffn_up.weight : tensor<14336x4096xf16>
    %72 = torch_c.from_builtin_tensor %__auto.blk.7.ffn_up.weight : tensor<14336x4096xf16> -> !torch.vtensor<[14336,4096],f16>
    %__auto.blk.7.ffn_down.weight = util.global.load @__auto.blk.7.ffn_down.weight : tensor<4096x14336xf16>
    %73 = torch_c.from_builtin_tensor %__auto.blk.7.ffn_down.weight : tensor<4096x14336xf16> -> !torch.vtensor<[4096,14336],f16>
    %__auto.blk.8.attn_norm.weight = util.global.load @__auto.blk.8.attn_norm.weight : tensor<4096xf32>
    %74 = torch_c.from_builtin_tensor %__auto.blk.8.attn_norm.weight : tensor<4096xf32> -> !torch.vtensor<[4096],f32>
    %__auto.blk.8.attn_q.weight = util.global.load @__auto.blk.8.attn_q.weight : tensor<4096x4096xf16>
    %75 = torch_c.from_builtin_tensor %__auto.blk.8.attn_q.weight : tensor<4096x4096xf16> -> !torch.vtensor<[4096,4096],f16>
    %__auto.blk.8.attn_k.weight = util.global.load @__auto.blk.8.attn_k.weight : tensor<1024x4096xf16>
    %76 = torch_c.from_builtin_tensor %__auto.blk.8.attn_k.weight : tensor<1024x4096xf16> -> !torch.vtensor<[1024,4096],f16>
    %__auto.blk.8.attn_v.weight = util.global.load @__auto.blk.8.attn_v.weight : tensor<1024x4096xf16>
    %77 = torch_c.from_builtin_tensor %__auto.blk.8.attn_v.weight : tensor<1024x4096xf16> -> !torch.vtensor<[1024,4096],f16>
    %__auto.blk.8.attn_output.weight = util.global.load @__auto.blk.8.attn_output.weight : tensor<4096x4096xf16>
    %78 = torch_c.from_builtin_tensor %__auto.blk.8.attn_output.weight : tensor<4096x4096xf16> -> !torch.vtensor<[4096,4096],f16>
    %__auto.blk.8.ffn_norm.weight = util.global.load @__auto.blk.8.ffn_norm.weight : tensor<4096xf32>
    %79 = torch_c.from_builtin_tensor %__auto.blk.8.ffn_norm.weight : tensor<4096xf32> -> !torch.vtensor<[4096],f32>
    %__auto.blk.8.ffn_gate.weight = util.global.load @__auto.blk.8.ffn_gate.weight : tensor<14336x4096xf16>
    %80 = torch_c.from_builtin_tensor %__auto.blk.8.ffn_gate.weight : tensor<14336x4096xf16> -> !torch.vtensor<[14336,4096],f16>
    %__auto.blk.8.ffn_up.weight = util.global.load @__auto.blk.8.ffn_up.weight : tensor<14336x4096xf16>
    %81 = torch_c.from_builtin_tensor %__auto.blk.8.ffn_up.weight : tensor<14336x4096xf16> -> !torch.vtensor<[14336,4096],f16>
    %__auto.blk.8.ffn_down.weight = util.global.load @__auto.blk.8.ffn_down.weight : tensor<4096x14336xf16>
    %82 = torch_c.from_builtin_tensor %__auto.blk.8.ffn_down.weight : tensor<4096x14336xf16> -> !torch.vtensor<[4096,14336],f16>
    %__auto.blk.9.attn_norm.weight = util.global.load @__auto.blk.9.attn_norm.weight : tensor<4096xf32>
    %83 = torch_c.from_builtin_tensor %__auto.blk.9.attn_norm.weight : tensor<4096xf32> -> !torch.vtensor<[4096],f32>
    %__auto.blk.9.attn_q.weight = util.global.load @__auto.blk.9.attn_q.weight : tensor<4096x4096xf16>
    %84 = torch_c.from_builtin_tensor %__auto.blk.9.attn_q.weight : tensor<4096x4096xf16> -> !torch.vtensor<[4096,4096],f16>
    %__auto.blk.9.attn_k.weight = util.global.load @__auto.blk.9.attn_k.weight : tensor<1024x4096xf16>
    %85 = torch_c.from_builtin_tensor %__auto.blk.9.attn_k.weight : tensor<1024x4096xf16> -> !torch.vtensor<[1024,4096],f16>
    %__auto.blk.9.attn_v.weight = util.global.load @__auto.blk.9.attn_v.weight : tensor<1024x4096xf16>
    %86 = torch_c.from_builtin_tensor %__auto.blk.9.attn_v.weight : tensor<1024x4096xf16> -> !torch.vtensor<[1024,4096],f16>
    %__auto.blk.9.attn_output.weight = util.global.load @__auto.blk.9.attn_output.weight : tensor<4096x4096xf16>
    %87 = torch_c.from_builtin_tensor %__auto.blk.9.attn_output.weight : tensor<4096x4096xf16> -> !torch.vtensor<[4096,4096],f16>
    %__auto.blk.9.ffn_norm.weight = util.global.load @__auto.blk.9.ffn_norm.weight : tensor<4096xf32>
    %88 = torch_c.from_builtin_tensor %__auto.blk.9.ffn_norm.weight : tensor<4096xf32> -> !torch.vtensor<[4096],f32>
    %__auto.blk.9.ffn_gate.weight = util.global.load @__auto.blk.9.ffn_gate.weight : tensor<14336x4096xf16>
    %89 = torch_c.from_builtin_tensor %__auto.blk.9.ffn_gate.weight : tensor<14336x4096xf16> -> !torch.vtensor<[14336,4096],f16>
    %__auto.blk.9.ffn_up.weight = util.global.load @__auto.blk.9.ffn_up.weight : tensor<14336x4096xf16>
    %90 = torch_c.from_builtin_tensor %__auto.blk.9.ffn_up.weight : tensor<14336x4096xf16> -> !torch.vtensor<[14336,4096],f16>
    %__auto.blk.9.ffn_down.weight = util.global.load @__auto.blk.9.ffn_down.weight : tensor<4096x14336xf16>
    %91 = torch_c.from_builtin_tensor %__auto.blk.9.ffn_down.weight : tensor<4096x14336xf16> -> !torch.vtensor<[4096,14336],f16>
    %__auto.blk.10.attn_norm.weight = util.global.load @__auto.blk.10.attn_norm.weight : tensor<4096xf32>
    %92 = torch_c.from_builtin_tensor %__auto.blk.10.attn_norm.weight : tensor<4096xf32> -> !torch.vtensor<[4096],f32>
    %__auto.blk.10.attn_q.weight = util.global.load @__auto.blk.10.attn_q.weight : tensor<4096x4096xf16>
    %93 = torch_c.from_builtin_tensor %__auto.blk.10.attn_q.weight : tensor<4096x4096xf16> -> !torch.vtensor<[4096,4096],f16>
    %__auto.blk.10.attn_k.weight = util.global.load @__auto.blk.10.attn_k.weight : tensor<1024x4096xf16>
    %94 = torch_c.from_builtin_tensor %__auto.blk.10.attn_k.weight : tensor<1024x4096xf16> -> !torch.vtensor<[1024,4096],f16>
    %__auto.blk.10.attn_v.weight = util.global.load @__auto.blk.10.attn_v.weight : tensor<1024x4096xf16>
    %95 = torch_c.from_builtin_tensor %__auto.blk.10.attn_v.weight : tensor<1024x4096xf16> -> !torch.vtensor<[1024,4096],f16>
    %__auto.blk.10.attn_output.weight = util.global.load @__auto.blk.10.attn_output.weight : tensor<4096x4096xf16>
    %96 = torch_c.from_builtin_tensor %__auto.blk.10.attn_output.weight : tensor<4096x4096xf16> -> !torch.vtensor<[4096,4096],f16>
    %__auto.blk.10.ffn_norm.weight = util.global.load @__auto.blk.10.ffn_norm.weight : tensor<4096xf32>
    %97 = torch_c.from_builtin_tensor %__auto.blk.10.ffn_norm.weight : tensor<4096xf32> -> !torch.vtensor<[4096],f32>
    %__auto.blk.10.ffn_gate.weight = util.global.load @__auto.blk.10.ffn_gate.weight : tensor<14336x4096xf16>
    %98 = torch_c.from_builtin_tensor %__auto.blk.10.ffn_gate.weight : tensor<14336x4096xf16> -> !torch.vtensor<[14336,4096],f16>
    %__auto.blk.10.ffn_up.weight = util.global.load @__auto.blk.10.ffn_up.weight : tensor<14336x4096xf16>
    %99 = torch_c.from_builtin_tensor %__auto.blk.10.ffn_up.weight : tensor<14336x4096xf16> -> !torch.vtensor<[14336,4096],f16>
    %__auto.blk.10.ffn_down.weight = util.global.load @__auto.blk.10.ffn_down.weight : tensor<4096x14336xf16>
    %100 = torch_c.from_builtin_tensor %__auto.blk.10.ffn_down.weight : tensor<4096x14336xf16> -> !torch.vtensor<[4096,14336],f16>
    %__auto.blk.11.attn_norm.weight = util.global.load @__auto.blk.11.attn_norm.weight : tensor<4096xf32>
    %101 = torch_c.from_builtin_tensor %__auto.blk.11.attn_norm.weight : tensor<4096xf32> -> !torch.vtensor<[4096],f32>
    %__auto.blk.11.attn_q.weight = util.global.load @__auto.blk.11.attn_q.weight : tensor<4096x4096xf16>
    %102 = torch_c.from_builtin_tensor %__auto.blk.11.attn_q.weight : tensor<4096x4096xf16> -> !torch.vtensor<[4096,4096],f16>
    %__auto.blk.11.attn_k.weight = util.global.load @__auto.blk.11.attn_k.weight : tensor<1024x4096xf16>
    %103 = torch_c.from_builtin_tensor %__auto.blk.11.attn_k.weight : tensor<1024x4096xf16> -> !torch.vtensor<[1024,4096],f16>
    %__auto.blk.11.attn_v.weight = util.global.load @__auto.blk.11.attn_v.weight : tensor<1024x4096xf16>
    %104 = torch_c.from_builtin_tensor %__auto.blk.11.attn_v.weight : tensor<1024x4096xf16> -> !torch.vtensor<[1024,4096],f16>
    %__auto.blk.11.attn_output.weight = util.global.load @__auto.blk.11.attn_output.weight : tensor<4096x4096xf16>
    %105 = torch_c.from_builtin_tensor %__auto.blk.11.attn_output.weight : tensor<4096x4096xf16> -> !torch.vtensor<[4096,4096],f16>
    %__auto.blk.11.ffn_norm.weight = util.global.load @__auto.blk.11.ffn_norm.weight : tensor<4096xf32>
    %106 = torch_c.from_builtin_tensor %__auto.blk.11.ffn_norm.weight : tensor<4096xf32> -> !torch.vtensor<[4096],f32>
    %__auto.blk.11.ffn_gate.weight = util.global.load @__auto.blk.11.ffn_gate.weight : tensor<14336x4096xf16>
    %107 = torch_c.from_builtin_tensor %__auto.blk.11.ffn_gate.weight : tensor<14336x4096xf16> -> !torch.vtensor<[14336,4096],f16>
    %__auto.blk.11.ffn_up.weight = util.global.load @__auto.blk.11.ffn_up.weight : tensor<14336x4096xf16>
    %108 = torch_c.from_builtin_tensor %__auto.blk.11.ffn_up.weight : tensor<14336x4096xf16> -> !torch.vtensor<[14336,4096],f16>
    %__auto.blk.11.ffn_down.weight = util.global.load @__auto.blk.11.ffn_down.weight : tensor<4096x14336xf16>
    %109 = torch_c.from_builtin_tensor %__auto.blk.11.ffn_down.weight : tensor<4096x14336xf16> -> !torch.vtensor<[4096,14336],f16>
    %__auto.blk.12.attn_norm.weight = util.global.load @__auto.blk.12.attn_norm.weight : tensor<4096xf32>
    %110 = torch_c.from_builtin_tensor %__auto.blk.12.attn_norm.weight : tensor<4096xf32> -> !torch.vtensor<[4096],f32>
    %__auto.blk.12.attn_q.weight = util.global.load @__auto.blk.12.attn_q.weight : tensor<4096x4096xf16>
    %111 = torch_c.from_builtin_tensor %__auto.blk.12.attn_q.weight : tensor<4096x4096xf16> -> !torch.vtensor<[4096,4096],f16>
    %__auto.blk.12.attn_k.weight = util.global.load @__auto.blk.12.attn_k.weight : tensor<1024x4096xf16>
    %112 = torch_c.from_builtin_tensor %__auto.blk.12.attn_k.weight : tensor<1024x4096xf16> -> !torch.vtensor<[1024,4096],f16>
    %__auto.blk.12.attn_v.weight = util.global.load @__auto.blk.12.attn_v.weight : tensor<1024x4096xf16>
    %113 = torch_c.from_builtin_tensor %__auto.blk.12.attn_v.weight : tensor<1024x4096xf16> -> !torch.vtensor<[1024,4096],f16>
    %__auto.blk.12.attn_output.weight = util.global.load @__auto.blk.12.attn_output.weight : tensor<4096x4096xf16>
    %114 = torch_c.from_builtin_tensor %__auto.blk.12.attn_output.weight : tensor<4096x4096xf16> -> !torch.vtensor<[4096,4096],f16>
    %__auto.blk.12.ffn_norm.weight = util.global.load @__auto.blk.12.ffn_norm.weight : tensor<4096xf32>
    %115 = torch_c.from_builtin_tensor %__auto.blk.12.ffn_norm.weight : tensor<4096xf32> -> !torch.vtensor<[4096],f32>
    %__auto.blk.12.ffn_gate.weight = util.global.load @__auto.blk.12.ffn_gate.weight : tensor<14336x4096xf16>
    %116 = torch_c.from_builtin_tensor %__auto.blk.12.ffn_gate.weight : tensor<14336x4096xf16> -> !torch.vtensor<[14336,4096],f16>
    %__auto.blk.12.ffn_up.weight = util.global.load @__auto.blk.12.ffn_up.weight : tensor<14336x4096xf16>
    %117 = torch_c.from_builtin_tensor %__auto.blk.12.ffn_up.weight : tensor<14336x4096xf16> -> !torch.vtensor<[14336,4096],f16>
    %__auto.blk.12.ffn_down.weight = util.global.load @__auto.blk.12.ffn_down.weight : tensor<4096x14336xf16>
    %118 = torch_c.from_builtin_tensor %__auto.blk.12.ffn_down.weight : tensor<4096x14336xf16> -> !torch.vtensor<[4096,14336],f16>
    %__auto.blk.13.attn_norm.weight = util.global.load @__auto.blk.13.attn_norm.weight : tensor<4096xf32>
    %119 = torch_c.from_builtin_tensor %__auto.blk.13.attn_norm.weight : tensor<4096xf32> -> !torch.vtensor<[4096],f32>
    %__auto.blk.13.attn_q.weight = util.global.load @__auto.blk.13.attn_q.weight : tensor<4096x4096xf16>
    %120 = torch_c.from_builtin_tensor %__auto.blk.13.attn_q.weight : tensor<4096x4096xf16> -> !torch.vtensor<[4096,4096],f16>
    %__auto.blk.13.attn_k.weight = util.global.load @__auto.blk.13.attn_k.weight : tensor<1024x4096xf16>
    %121 = torch_c.from_builtin_tensor %__auto.blk.13.attn_k.weight : tensor<1024x4096xf16> -> !torch.vtensor<[1024,4096],f16>
    %__auto.blk.13.attn_v.weight = util.global.load @__auto.blk.13.attn_v.weight : tensor<1024x4096xf16>
    %122 = torch_c.from_builtin_tensor %__auto.blk.13.attn_v.weight : tensor<1024x4096xf16> -> !torch.vtensor<[1024,4096],f16>
    %__auto.blk.13.attn_output.weight = util.global.load @__auto.blk.13.attn_output.weight : tensor<4096x4096xf16>
    %123 = torch_c.from_builtin_tensor %__auto.blk.13.attn_output.weight : tensor<4096x4096xf16> -> !torch.vtensor<[4096,4096],f16>
    %__auto.blk.13.ffn_norm.weight = util.global.load @__auto.blk.13.ffn_norm.weight : tensor<4096xf32>
    %124 = torch_c.from_builtin_tensor %__auto.blk.13.ffn_norm.weight : tensor<4096xf32> -> !torch.vtensor<[4096],f32>
    %__auto.blk.13.ffn_gate.weight = util.global.load @__auto.blk.13.ffn_gate.weight : tensor<14336x4096xf16>
    %125 = torch_c.from_builtin_tensor %__auto.blk.13.ffn_gate.weight : tensor<14336x4096xf16> -> !torch.vtensor<[14336,4096],f16>
    %__auto.blk.13.ffn_up.weight = util.global.load @__auto.blk.13.ffn_up.weight : tensor<14336x4096xf16>
    %126 = torch_c.from_builtin_tensor %__auto.blk.13.ffn_up.weight : tensor<14336x4096xf16> -> !torch.vtensor<[14336,4096],f16>
    %__auto.blk.13.ffn_down.weight = util.global.load @__auto.blk.13.ffn_down.weight : tensor<4096x14336xf16>
    %127 = torch_c.from_builtin_tensor %__auto.blk.13.ffn_down.weight : tensor<4096x14336xf16> -> !torch.vtensor<[4096,14336],f16>
    %__auto.blk.14.attn_norm.weight = util.global.load @__auto.blk.14.attn_norm.weight : tensor<4096xf32>
    %128 = torch_c.from_builtin_tensor %__auto.blk.14.attn_norm.weight : tensor<4096xf32> -> !torch.vtensor<[4096],f32>
    %__auto.blk.14.attn_q.weight = util.global.load @__auto.blk.14.attn_q.weight : tensor<4096x4096xf16>
    %129 = torch_c.from_builtin_tensor %__auto.blk.14.attn_q.weight : tensor<4096x4096xf16> -> !torch.vtensor<[4096,4096],f16>
    %__auto.blk.14.attn_k.weight = util.global.load @__auto.blk.14.attn_k.weight : tensor<1024x4096xf16>
    %130 = torch_c.from_builtin_tensor %__auto.blk.14.attn_k.weight : tensor<1024x4096xf16> -> !torch.vtensor<[1024,4096],f16>
    %__auto.blk.14.attn_v.weight = util.global.load @__auto.blk.14.attn_v.weight : tensor<1024x4096xf16>
    %131 = torch_c.from_builtin_tensor %__auto.blk.14.attn_v.weight : tensor<1024x4096xf16> -> !torch.vtensor<[1024,4096],f16>
    %__auto.blk.14.attn_output.weight = util.global.load @__auto.blk.14.attn_output.weight : tensor<4096x4096xf16>
    %132 = torch_c.from_builtin_tensor %__auto.blk.14.attn_output.weight : tensor<4096x4096xf16> -> !torch.vtensor<[4096,4096],f16>
    %__auto.blk.14.ffn_norm.weight = util.global.load @__auto.blk.14.ffn_norm.weight : tensor<4096xf32>
    %133 = torch_c.from_builtin_tensor %__auto.blk.14.ffn_norm.weight : tensor<4096xf32> -> !torch.vtensor<[4096],f32>
    %__auto.blk.14.ffn_gate.weight = util.global.load @__auto.blk.14.ffn_gate.weight : tensor<14336x4096xf16>
    %134 = torch_c.from_builtin_tensor %__auto.blk.14.ffn_gate.weight : tensor<14336x4096xf16> -> !torch.vtensor<[14336,4096],f16>
    %__auto.blk.14.ffn_up.weight = util.global.load @__auto.blk.14.ffn_up.weight : tensor<14336x4096xf16>
    %135 = torch_c.from_builtin_tensor %__auto.blk.14.ffn_up.weight : tensor<14336x4096xf16> -> !torch.vtensor<[14336,4096],f16>
    %__auto.blk.14.ffn_down.weight = util.global.load @__auto.blk.14.ffn_down.weight : tensor<4096x14336xf16>
    %136 = torch_c.from_builtin_tensor %__auto.blk.14.ffn_down.weight : tensor<4096x14336xf16> -> !torch.vtensor<[4096,14336],f16>
    %__auto.blk.15.attn_norm.weight = util.global.load @__auto.blk.15.attn_norm.weight : tensor<4096xf32>
    %137 = torch_c.from_builtin_tensor %__auto.blk.15.attn_norm.weight : tensor<4096xf32> -> !torch.vtensor<[4096],f32>
    %__auto.blk.15.attn_q.weight = util.global.load @__auto.blk.15.attn_q.weight : tensor<4096x4096xf16>
    %138 = torch_c.from_builtin_tensor %__auto.blk.15.attn_q.weight : tensor<4096x4096xf16> -> !torch.vtensor<[4096,4096],f16>
    %__auto.blk.15.attn_k.weight = util.global.load @__auto.blk.15.attn_k.weight : tensor<1024x4096xf16>
    %139 = torch_c.from_builtin_tensor %__auto.blk.15.attn_k.weight : tensor<1024x4096xf16> -> !torch.vtensor<[1024,4096],f16>
    %__auto.blk.15.attn_v.weight = util.global.load @__auto.blk.15.attn_v.weight : tensor<1024x4096xf16>
    %140 = torch_c.from_builtin_tensor %__auto.blk.15.attn_v.weight : tensor<1024x4096xf16> -> !torch.vtensor<[1024,4096],f16>
    %__auto.blk.15.attn_output.weight = util.global.load @__auto.blk.15.attn_output.weight : tensor<4096x4096xf16>
    %141 = torch_c.from_builtin_tensor %__auto.blk.15.attn_output.weight : tensor<4096x4096xf16> -> !torch.vtensor<[4096,4096],f16>
    %__auto.blk.15.ffn_norm.weight = util.global.load @__auto.blk.15.ffn_norm.weight : tensor<4096xf32>
    %142 = torch_c.from_builtin_tensor %__auto.blk.15.ffn_norm.weight : tensor<4096xf32> -> !torch.vtensor<[4096],f32>
    %__auto.blk.15.ffn_gate.weight = util.global.load @__auto.blk.15.ffn_gate.weight : tensor<14336x4096xf16>
    %143 = torch_c.from_builtin_tensor %__auto.blk.15.ffn_gate.weight : tensor<14336x4096xf16> -> !torch.vtensor<[14336,4096],f16>
    %__auto.blk.15.ffn_up.weight = util.global.load @__auto.blk.15.ffn_up.weight : tensor<14336x4096xf16>
    %144 = torch_c.from_builtin_tensor %__auto.blk.15.ffn_up.weight : tensor<14336x4096xf16> -> !torch.vtensor<[14336,4096],f16>
    %__auto.blk.15.ffn_down.weight = util.global.load @__auto.blk.15.ffn_down.weight : tensor<4096x14336xf16>
    %145 = torch_c.from_builtin_tensor %__auto.blk.15.ffn_down.weight : tensor<4096x14336xf16> -> !torch.vtensor<[4096,14336],f16>
    %__auto.blk.16.attn_norm.weight = util.global.load @__auto.blk.16.attn_norm.weight : tensor<4096xf32>
    %146 = torch_c.from_builtin_tensor %__auto.blk.16.attn_norm.weight : tensor<4096xf32> -> !torch.vtensor<[4096],f32>
    %__auto.blk.16.attn_q.weight = util.global.load @__auto.blk.16.attn_q.weight : tensor<4096x4096xf16>
    %147 = torch_c.from_builtin_tensor %__auto.blk.16.attn_q.weight : tensor<4096x4096xf16> -> !torch.vtensor<[4096,4096],f16>
    %__auto.blk.16.attn_k.weight = util.global.load @__auto.blk.16.attn_k.weight : tensor<1024x4096xf16>
    %148 = torch_c.from_builtin_tensor %__auto.blk.16.attn_k.weight : tensor<1024x4096xf16> -> !torch.vtensor<[1024,4096],f16>
    %__auto.blk.16.attn_v.weight = util.global.load @__auto.blk.16.attn_v.weight : tensor<1024x4096xf16>
    %149 = torch_c.from_builtin_tensor %__auto.blk.16.attn_v.weight : tensor<1024x4096xf16> -> !torch.vtensor<[1024,4096],f16>
    %__auto.blk.16.attn_output.weight = util.global.load @__auto.blk.16.attn_output.weight : tensor<4096x4096xf16>
    %150 = torch_c.from_builtin_tensor %__auto.blk.16.attn_output.weight : tensor<4096x4096xf16> -> !torch.vtensor<[4096,4096],f16>
    %__auto.blk.16.ffn_norm.weight = util.global.load @__auto.blk.16.ffn_norm.weight : tensor<4096xf32>
    %151 = torch_c.from_builtin_tensor %__auto.blk.16.ffn_norm.weight : tensor<4096xf32> -> !torch.vtensor<[4096],f32>
    %__auto.blk.16.ffn_gate.weight = util.global.load @__auto.blk.16.ffn_gate.weight : tensor<14336x4096xf16>
    %152 = torch_c.from_builtin_tensor %__auto.blk.16.ffn_gate.weight : tensor<14336x4096xf16> -> !torch.vtensor<[14336,4096],f16>
    %__auto.blk.16.ffn_up.weight = util.global.load @__auto.blk.16.ffn_up.weight : tensor<14336x4096xf16>
    %153 = torch_c.from_builtin_tensor %__auto.blk.16.ffn_up.weight : tensor<14336x4096xf16> -> !torch.vtensor<[14336,4096],f16>
    %__auto.blk.16.ffn_down.weight = util.global.load @__auto.blk.16.ffn_down.weight : tensor<4096x14336xf16>
    %154 = torch_c.from_builtin_tensor %__auto.blk.16.ffn_down.weight : tensor<4096x14336xf16> -> !torch.vtensor<[4096,14336],f16>
    %__auto.blk.17.attn_norm.weight = util.global.load @__auto.blk.17.attn_norm.weight : tensor<4096xf32>
    %155 = torch_c.from_builtin_tensor %__auto.blk.17.attn_norm.weight : tensor<4096xf32> -> !torch.vtensor<[4096],f32>
    %__auto.blk.17.attn_q.weight = util.global.load @__auto.blk.17.attn_q.weight : tensor<4096x4096xf16>
    %156 = torch_c.from_builtin_tensor %__auto.blk.17.attn_q.weight : tensor<4096x4096xf16> -> !torch.vtensor<[4096,4096],f16>
    %__auto.blk.17.attn_k.weight = util.global.load @__auto.blk.17.attn_k.weight : tensor<1024x4096xf16>
    %157 = torch_c.from_builtin_tensor %__auto.blk.17.attn_k.weight : tensor<1024x4096xf16> -> !torch.vtensor<[1024,4096],f16>
    %__auto.blk.17.attn_v.weight = util.global.load @__auto.blk.17.attn_v.weight : tensor<1024x4096xf16>
    %158 = torch_c.from_builtin_tensor %__auto.blk.17.attn_v.weight : tensor<1024x4096xf16> -> !torch.vtensor<[1024,4096],f16>
    %__auto.blk.17.attn_output.weight = util.global.load @__auto.blk.17.attn_output.weight : tensor<4096x4096xf16>
    %159 = torch_c.from_builtin_tensor %__auto.blk.17.attn_output.weight : tensor<4096x4096xf16> -> !torch.vtensor<[4096,4096],f16>
    %__auto.blk.17.ffn_norm.weight = util.global.load @__auto.blk.17.ffn_norm.weight : tensor<4096xf32>
    %160 = torch_c.from_builtin_tensor %__auto.blk.17.ffn_norm.weight : tensor<4096xf32> -> !torch.vtensor<[4096],f32>
    %__auto.blk.17.ffn_gate.weight = util.global.load @__auto.blk.17.ffn_gate.weight : tensor<14336x4096xf16>
    %161 = torch_c.from_builtin_tensor %__auto.blk.17.ffn_gate.weight : tensor<14336x4096xf16> -> !torch.vtensor<[14336,4096],f16>
    %__auto.blk.17.ffn_up.weight = util.global.load @__auto.blk.17.ffn_up.weight : tensor<14336x4096xf16>
    %162 = torch_c.from_builtin_tensor %__auto.blk.17.ffn_up.weight : tensor<14336x4096xf16> -> !torch.vtensor<[14336,4096],f16>
    %__auto.blk.17.ffn_down.weight = util.global.load @__auto.blk.17.ffn_down.weight : tensor<4096x14336xf16>
    %163 = torch_c.from_builtin_tensor %__auto.blk.17.ffn_down.weight : tensor<4096x14336xf16> -> !torch.vtensor<[4096,14336],f16>
    %__auto.blk.18.attn_norm.weight = util.global.load @__auto.blk.18.attn_norm.weight : tensor<4096xf32>
    %164 = torch_c.from_builtin_tensor %__auto.blk.18.attn_norm.weight : tensor<4096xf32> -> !torch.vtensor<[4096],f32>
    %__auto.blk.18.attn_q.weight = util.global.load @__auto.blk.18.attn_q.weight : tensor<4096x4096xf16>
    %165 = torch_c.from_builtin_tensor %__auto.blk.18.attn_q.weight : tensor<4096x4096xf16> -> !torch.vtensor<[4096,4096],f16>
    %__auto.blk.18.attn_k.weight = util.global.load @__auto.blk.18.attn_k.weight : tensor<1024x4096xf16>
    %166 = torch_c.from_builtin_tensor %__auto.blk.18.attn_k.weight : tensor<1024x4096xf16> -> !torch.vtensor<[1024,4096],f16>
    %__auto.blk.18.attn_v.weight = util.global.load @__auto.blk.18.attn_v.weight : tensor<1024x4096xf16>
    %167 = torch_c.from_builtin_tensor %__auto.blk.18.attn_v.weight : tensor<1024x4096xf16> -> !torch.vtensor<[1024,4096],f16>
    %__auto.blk.18.attn_output.weight = util.global.load @__auto.blk.18.attn_output.weight : tensor<4096x4096xf16>
    %168 = torch_c.from_builtin_tensor %__auto.blk.18.attn_output.weight : tensor<4096x4096xf16> -> !torch.vtensor<[4096,4096],f16>
    %__auto.blk.18.ffn_norm.weight = util.global.load @__auto.blk.18.ffn_norm.weight : tensor<4096xf32>
    %169 = torch_c.from_builtin_tensor %__auto.blk.18.ffn_norm.weight : tensor<4096xf32> -> !torch.vtensor<[4096],f32>
    %__auto.blk.18.ffn_gate.weight = util.global.load @__auto.blk.18.ffn_gate.weight : tensor<14336x4096xf16>
    %170 = torch_c.from_builtin_tensor %__auto.blk.18.ffn_gate.weight : tensor<14336x4096xf16> -> !torch.vtensor<[14336,4096],f16>
    %__auto.blk.18.ffn_up.weight = util.global.load @__auto.blk.18.ffn_up.weight : tensor<14336x4096xf16>
    %171 = torch_c.from_builtin_tensor %__auto.blk.18.ffn_up.weight : tensor<14336x4096xf16> -> !torch.vtensor<[14336,4096],f16>
    %__auto.blk.18.ffn_down.weight = util.global.load @__auto.blk.18.ffn_down.weight : tensor<4096x14336xf16>
    %172 = torch_c.from_builtin_tensor %__auto.blk.18.ffn_down.weight : tensor<4096x14336xf16> -> !torch.vtensor<[4096,14336],f16>
    %__auto.blk.19.attn_norm.weight = util.global.load @__auto.blk.19.attn_norm.weight : tensor<4096xf32>
    %173 = torch_c.from_builtin_tensor %__auto.blk.19.attn_norm.weight : tensor<4096xf32> -> !torch.vtensor<[4096],f32>
    %__auto.blk.19.attn_q.weight = util.global.load @__auto.blk.19.attn_q.weight : tensor<4096x4096xf16>
    %174 = torch_c.from_builtin_tensor %__auto.blk.19.attn_q.weight : tensor<4096x4096xf16> -> !torch.vtensor<[4096,4096],f16>
    %__auto.blk.19.attn_k.weight = util.global.load @__auto.blk.19.attn_k.weight : tensor<1024x4096xf16>
    %175 = torch_c.from_builtin_tensor %__auto.blk.19.attn_k.weight : tensor<1024x4096xf16> -> !torch.vtensor<[1024,4096],f16>
    %__auto.blk.19.attn_v.weight = util.global.load @__auto.blk.19.attn_v.weight : tensor<1024x4096xf16>
    %176 = torch_c.from_builtin_tensor %__auto.blk.19.attn_v.weight : tensor<1024x4096xf16> -> !torch.vtensor<[1024,4096],f16>
    %__auto.blk.19.attn_output.weight = util.global.load @__auto.blk.19.attn_output.weight : tensor<4096x4096xf16>
    %177 = torch_c.from_builtin_tensor %__auto.blk.19.attn_output.weight : tensor<4096x4096xf16> -> !torch.vtensor<[4096,4096],f16>
    %__auto.blk.19.ffn_norm.weight = util.global.load @__auto.blk.19.ffn_norm.weight : tensor<4096xf32>
    %178 = torch_c.from_builtin_tensor %__auto.blk.19.ffn_norm.weight : tensor<4096xf32> -> !torch.vtensor<[4096],f32>
    %__auto.blk.19.ffn_gate.weight = util.global.load @__auto.blk.19.ffn_gate.weight : tensor<14336x4096xf16>
    %179 = torch_c.from_builtin_tensor %__auto.blk.19.ffn_gate.weight : tensor<14336x4096xf16> -> !torch.vtensor<[14336,4096],f16>
    %__auto.blk.19.ffn_up.weight = util.global.load @__auto.blk.19.ffn_up.weight : tensor<14336x4096xf16>
    %180 = torch_c.from_builtin_tensor %__auto.blk.19.ffn_up.weight : tensor<14336x4096xf16> -> !torch.vtensor<[14336,4096],f16>
    %__auto.blk.19.ffn_down.weight = util.global.load @__auto.blk.19.ffn_down.weight : tensor<4096x14336xf16>
    %181 = torch_c.from_builtin_tensor %__auto.blk.19.ffn_down.weight : tensor<4096x14336xf16> -> !torch.vtensor<[4096,14336],f16>
    %__auto.blk.20.attn_norm.weight = util.global.load @__auto.blk.20.attn_norm.weight : tensor<4096xf32>
    %182 = torch_c.from_builtin_tensor %__auto.blk.20.attn_norm.weight : tensor<4096xf32> -> !torch.vtensor<[4096],f32>
    %__auto.blk.20.attn_q.weight = util.global.load @__auto.blk.20.attn_q.weight : tensor<4096x4096xf16>
    %183 = torch_c.from_builtin_tensor %__auto.blk.20.attn_q.weight : tensor<4096x4096xf16> -> !torch.vtensor<[4096,4096],f16>
    %__auto.blk.20.attn_k.weight = util.global.load @__auto.blk.20.attn_k.weight : tensor<1024x4096xf16>
    %184 = torch_c.from_builtin_tensor %__auto.blk.20.attn_k.weight : tensor<1024x4096xf16> -> !torch.vtensor<[1024,4096],f16>
    %__auto.blk.20.attn_v.weight = util.global.load @__auto.blk.20.attn_v.weight : tensor<1024x4096xf16>
    %185 = torch_c.from_builtin_tensor %__auto.blk.20.attn_v.weight : tensor<1024x4096xf16> -> !torch.vtensor<[1024,4096],f16>
    %__auto.blk.20.attn_output.weight = util.global.load @__auto.blk.20.attn_output.weight : tensor<4096x4096xf16>
    %186 = torch_c.from_builtin_tensor %__auto.blk.20.attn_output.weight : tensor<4096x4096xf16> -> !torch.vtensor<[4096,4096],f16>
    %__auto.blk.20.ffn_norm.weight = util.global.load @__auto.blk.20.ffn_norm.weight : tensor<4096xf32>
    %187 = torch_c.from_builtin_tensor %__auto.blk.20.ffn_norm.weight : tensor<4096xf32> -> !torch.vtensor<[4096],f32>
    %__auto.blk.20.ffn_gate.weight = util.global.load @__auto.blk.20.ffn_gate.weight : tensor<14336x4096xf16>
    %188 = torch_c.from_builtin_tensor %__auto.blk.20.ffn_gate.weight : tensor<14336x4096xf16> -> !torch.vtensor<[14336,4096],f16>
    %__auto.blk.20.ffn_up.weight = util.global.load @__auto.blk.20.ffn_up.weight : tensor<14336x4096xf16>
    %189 = torch_c.from_builtin_tensor %__auto.blk.20.ffn_up.weight : tensor<14336x4096xf16> -> !torch.vtensor<[14336,4096],f16>
    %__auto.blk.20.ffn_down.weight = util.global.load @__auto.blk.20.ffn_down.weight : tensor<4096x14336xf16>
    %190 = torch_c.from_builtin_tensor %__auto.blk.20.ffn_down.weight : tensor<4096x14336xf16> -> !torch.vtensor<[4096,14336],f16>
    %__auto.blk.21.attn_norm.weight = util.global.load @__auto.blk.21.attn_norm.weight : tensor<4096xf32>
    %191 = torch_c.from_builtin_tensor %__auto.blk.21.attn_norm.weight : tensor<4096xf32> -> !torch.vtensor<[4096],f32>
    %__auto.blk.21.attn_q.weight = util.global.load @__auto.blk.21.attn_q.weight : tensor<4096x4096xf16>
    %192 = torch_c.from_builtin_tensor %__auto.blk.21.attn_q.weight : tensor<4096x4096xf16> -> !torch.vtensor<[4096,4096],f16>
    %__auto.blk.21.attn_k.weight = util.global.load @__auto.blk.21.attn_k.weight : tensor<1024x4096xf16>
    %193 = torch_c.from_builtin_tensor %__auto.blk.21.attn_k.weight : tensor<1024x4096xf16> -> !torch.vtensor<[1024,4096],f16>
    %__auto.blk.21.attn_v.weight = util.global.load @__auto.blk.21.attn_v.weight : tensor<1024x4096xf16>
    %194 = torch_c.from_builtin_tensor %__auto.blk.21.attn_v.weight : tensor<1024x4096xf16> -> !torch.vtensor<[1024,4096],f16>
    %__auto.blk.21.attn_output.weight = util.global.load @__auto.blk.21.attn_output.weight : tensor<4096x4096xf16>
    %195 = torch_c.from_builtin_tensor %__auto.blk.21.attn_output.weight : tensor<4096x4096xf16> -> !torch.vtensor<[4096,4096],f16>
    %__auto.blk.21.ffn_norm.weight = util.global.load @__auto.blk.21.ffn_norm.weight : tensor<4096xf32>
    %196 = torch_c.from_builtin_tensor %__auto.blk.21.ffn_norm.weight : tensor<4096xf32> -> !torch.vtensor<[4096],f32>
    %__auto.blk.21.ffn_gate.weight = util.global.load @__auto.blk.21.ffn_gate.weight : tensor<14336x4096xf16>
    %197 = torch_c.from_builtin_tensor %__auto.blk.21.ffn_gate.weight : tensor<14336x4096xf16> -> !torch.vtensor<[14336,4096],f16>
    %__auto.blk.21.ffn_up.weight = util.global.load @__auto.blk.21.ffn_up.weight : tensor<14336x4096xf16>
    %198 = torch_c.from_builtin_tensor %__auto.blk.21.ffn_up.weight : tensor<14336x4096xf16> -> !torch.vtensor<[14336,4096],f16>
    %__auto.blk.21.ffn_down.weight = util.global.load @__auto.blk.21.ffn_down.weight : tensor<4096x14336xf16>
    %199 = torch_c.from_builtin_tensor %__auto.blk.21.ffn_down.weight : tensor<4096x14336xf16> -> !torch.vtensor<[4096,14336],f16>
    %__auto.blk.22.attn_norm.weight = util.global.load @__auto.blk.22.attn_norm.weight : tensor<4096xf32>
    %200 = torch_c.from_builtin_tensor %__auto.blk.22.attn_norm.weight : tensor<4096xf32> -> !torch.vtensor<[4096],f32>
    %__auto.blk.22.attn_q.weight = util.global.load @__auto.blk.22.attn_q.weight : tensor<4096x4096xf16>
    %201 = torch_c.from_builtin_tensor %__auto.blk.22.attn_q.weight : tensor<4096x4096xf16> -> !torch.vtensor<[4096,4096],f16>
    %__auto.blk.22.attn_k.weight = util.global.load @__auto.blk.22.attn_k.weight : tensor<1024x4096xf16>
    %202 = torch_c.from_builtin_tensor %__auto.blk.22.attn_k.weight : tensor<1024x4096xf16> -> !torch.vtensor<[1024,4096],f16>
    %__auto.blk.22.attn_v.weight = util.global.load @__auto.blk.22.attn_v.weight : tensor<1024x4096xf16>
    %203 = torch_c.from_builtin_tensor %__auto.blk.22.attn_v.weight : tensor<1024x4096xf16> -> !torch.vtensor<[1024,4096],f16>
    %__auto.blk.22.attn_output.weight = util.global.load @__auto.blk.22.attn_output.weight : tensor<4096x4096xf16>
    %204 = torch_c.from_builtin_tensor %__auto.blk.22.attn_output.weight : tensor<4096x4096xf16> -> !torch.vtensor<[4096,4096],f16>
    %__auto.blk.22.ffn_norm.weight = util.global.load @__auto.blk.22.ffn_norm.weight : tensor<4096xf32>
    %205 = torch_c.from_builtin_tensor %__auto.blk.22.ffn_norm.weight : tensor<4096xf32> -> !torch.vtensor<[4096],f32>
    %__auto.blk.22.ffn_gate.weight = util.global.load @__auto.blk.22.ffn_gate.weight : tensor<14336x4096xf16>
    %206 = torch_c.from_builtin_tensor %__auto.blk.22.ffn_gate.weight : tensor<14336x4096xf16> -> !torch.vtensor<[14336,4096],f16>
    %__auto.blk.22.ffn_up.weight = util.global.load @__auto.blk.22.ffn_up.weight : tensor<14336x4096xf16>
    %207 = torch_c.from_builtin_tensor %__auto.blk.22.ffn_up.weight : tensor<14336x4096xf16> -> !torch.vtensor<[14336,4096],f16>
    %__auto.blk.22.ffn_down.weight = util.global.load @__auto.blk.22.ffn_down.weight : tensor<4096x14336xf16>
    %208 = torch_c.from_builtin_tensor %__auto.blk.22.ffn_down.weight : tensor<4096x14336xf16> -> !torch.vtensor<[4096,14336],f16>
    %__auto.blk.23.attn_norm.weight = util.global.load @__auto.blk.23.attn_norm.weight : tensor<4096xf32>
    %209 = torch_c.from_builtin_tensor %__auto.blk.23.attn_norm.weight : tensor<4096xf32> -> !torch.vtensor<[4096],f32>
    %__auto.blk.23.attn_q.weight = util.global.load @__auto.blk.23.attn_q.weight : tensor<4096x4096xf16>
    %210 = torch_c.from_builtin_tensor %__auto.blk.23.attn_q.weight : tensor<4096x4096xf16> -> !torch.vtensor<[4096,4096],f16>
    %__auto.blk.23.attn_k.weight = util.global.load @__auto.blk.23.attn_k.weight : tensor<1024x4096xf16>
    %211 = torch_c.from_builtin_tensor %__auto.blk.23.attn_k.weight : tensor<1024x4096xf16> -> !torch.vtensor<[1024,4096],f16>
    %__auto.blk.23.attn_v.weight = util.global.load @__auto.blk.23.attn_v.weight : tensor<1024x4096xf16>
    %212 = torch_c.from_builtin_tensor %__auto.blk.23.attn_v.weight : tensor<1024x4096xf16> -> !torch.vtensor<[1024,4096],f16>
    %__auto.blk.23.attn_output.weight = util.global.load @__auto.blk.23.attn_output.weight : tensor<4096x4096xf16>
    %213 = torch_c.from_builtin_tensor %__auto.blk.23.attn_output.weight : tensor<4096x4096xf16> -> !torch.vtensor<[4096,4096],f16>
    %__auto.blk.23.ffn_norm.weight = util.global.load @__auto.blk.23.ffn_norm.weight : tensor<4096xf32>
    %214 = torch_c.from_builtin_tensor %__auto.blk.23.ffn_norm.weight : tensor<4096xf32> -> !torch.vtensor<[4096],f32>
    %__auto.blk.23.ffn_gate.weight = util.global.load @__auto.blk.23.ffn_gate.weight : tensor<14336x4096xf16>
    %215 = torch_c.from_builtin_tensor %__auto.blk.23.ffn_gate.weight : tensor<14336x4096xf16> -> !torch.vtensor<[14336,4096],f16>
    %__auto.blk.23.ffn_up.weight = util.global.load @__auto.blk.23.ffn_up.weight : tensor<14336x4096xf16>
    %216 = torch_c.from_builtin_tensor %__auto.blk.23.ffn_up.weight : tensor<14336x4096xf16> -> !torch.vtensor<[14336,4096],f16>
    %__auto.blk.23.ffn_down.weight = util.global.load @__auto.blk.23.ffn_down.weight : tensor<4096x14336xf16>
    %217 = torch_c.from_builtin_tensor %__auto.blk.23.ffn_down.weight : tensor<4096x14336xf16> -> !torch.vtensor<[4096,14336],f16>
    %__auto.blk.24.attn_norm.weight = util.global.load @__auto.blk.24.attn_norm.weight : tensor<4096xf32>
    %218 = torch_c.from_builtin_tensor %__auto.blk.24.attn_norm.weight : tensor<4096xf32> -> !torch.vtensor<[4096],f32>
    %__auto.blk.24.attn_q.weight = util.global.load @__auto.blk.24.attn_q.weight : tensor<4096x4096xf16>
    %219 = torch_c.from_builtin_tensor %__auto.blk.24.attn_q.weight : tensor<4096x4096xf16> -> !torch.vtensor<[4096,4096],f16>
    %__auto.blk.24.attn_k.weight = util.global.load @__auto.blk.24.attn_k.weight : tensor<1024x4096xf16>
    %220 = torch_c.from_builtin_tensor %__auto.blk.24.attn_k.weight : tensor<1024x4096xf16> -> !torch.vtensor<[1024,4096],f16>
    %__auto.blk.24.attn_v.weight = util.global.load @__auto.blk.24.attn_v.weight : tensor<1024x4096xf16>
    %221 = torch_c.from_builtin_tensor %__auto.blk.24.attn_v.weight : tensor<1024x4096xf16> -> !torch.vtensor<[1024,4096],f16>
    %__auto.blk.24.attn_output.weight = util.global.load @__auto.blk.24.attn_output.weight : tensor<4096x4096xf16>
    %222 = torch_c.from_builtin_tensor %__auto.blk.24.attn_output.weight : tensor<4096x4096xf16> -> !torch.vtensor<[4096,4096],f16>
    %__auto.blk.24.ffn_norm.weight = util.global.load @__auto.blk.24.ffn_norm.weight : tensor<4096xf32>
    %223 = torch_c.from_builtin_tensor %__auto.blk.24.ffn_norm.weight : tensor<4096xf32> -> !torch.vtensor<[4096],f32>
    %__auto.blk.24.ffn_gate.weight = util.global.load @__auto.blk.24.ffn_gate.weight : tensor<14336x4096xf16>
    %224 = torch_c.from_builtin_tensor %__auto.blk.24.ffn_gate.weight : tensor<14336x4096xf16> -> !torch.vtensor<[14336,4096],f16>
    %__auto.blk.24.ffn_up.weight = util.global.load @__auto.blk.24.ffn_up.weight : tensor<14336x4096xf16>
    %225 = torch_c.from_builtin_tensor %__auto.blk.24.ffn_up.weight : tensor<14336x4096xf16> -> !torch.vtensor<[14336,4096],f16>
    %__auto.blk.24.ffn_down.weight = util.global.load @__auto.blk.24.ffn_down.weight : tensor<4096x14336xf16>
    %226 = torch_c.from_builtin_tensor %__auto.blk.24.ffn_down.weight : tensor<4096x14336xf16> -> !torch.vtensor<[4096,14336],f16>
    %__auto.blk.25.attn_norm.weight = util.global.load @__auto.blk.25.attn_norm.weight : tensor<4096xf32>
    %227 = torch_c.from_builtin_tensor %__auto.blk.25.attn_norm.weight : tensor<4096xf32> -> !torch.vtensor<[4096],f32>
    %__auto.blk.25.attn_q.weight = util.global.load @__auto.blk.25.attn_q.weight : tensor<4096x4096xf16>
    %228 = torch_c.from_builtin_tensor %__auto.blk.25.attn_q.weight : tensor<4096x4096xf16> -> !torch.vtensor<[4096,4096],f16>
    %__auto.blk.25.attn_k.weight = util.global.load @__auto.blk.25.attn_k.weight : tensor<1024x4096xf16>
    %229 = torch_c.from_builtin_tensor %__auto.blk.25.attn_k.weight : tensor<1024x4096xf16> -> !torch.vtensor<[1024,4096],f16>
    %__auto.blk.25.attn_v.weight = util.global.load @__auto.blk.25.attn_v.weight : tensor<1024x4096xf16>
    %230 = torch_c.from_builtin_tensor %__auto.blk.25.attn_v.weight : tensor<1024x4096xf16> -> !torch.vtensor<[1024,4096],f16>
    %__auto.blk.25.attn_output.weight = util.global.load @__auto.blk.25.attn_output.weight : tensor<4096x4096xf16>
    %231 = torch_c.from_builtin_tensor %__auto.blk.25.attn_output.weight : tensor<4096x4096xf16> -> !torch.vtensor<[4096,4096],f16>
    %__auto.blk.25.ffn_norm.weight = util.global.load @__auto.blk.25.ffn_norm.weight : tensor<4096xf32>
    %232 = torch_c.from_builtin_tensor %__auto.blk.25.ffn_norm.weight : tensor<4096xf32> -> !torch.vtensor<[4096],f32>
    %__auto.blk.25.ffn_gate.weight = util.global.load @__auto.blk.25.ffn_gate.weight : tensor<14336x4096xf16>
    %233 = torch_c.from_builtin_tensor %__auto.blk.25.ffn_gate.weight : tensor<14336x4096xf16> -> !torch.vtensor<[14336,4096],f16>
    %__auto.blk.25.ffn_up.weight = util.global.load @__auto.blk.25.ffn_up.weight : tensor<14336x4096xf16>
    %234 = torch_c.from_builtin_tensor %__auto.blk.25.ffn_up.weight : tensor<14336x4096xf16> -> !torch.vtensor<[14336,4096],f16>
    %__auto.blk.25.ffn_down.weight = util.global.load @__auto.blk.25.ffn_down.weight : tensor<4096x14336xf16>
    %235 = torch_c.from_builtin_tensor %__auto.blk.25.ffn_down.weight : tensor<4096x14336xf16> -> !torch.vtensor<[4096,14336],f16>
    %__auto.blk.26.attn_norm.weight = util.global.load @__auto.blk.26.attn_norm.weight : tensor<4096xf32>
    %236 = torch_c.from_builtin_tensor %__auto.blk.26.attn_norm.weight : tensor<4096xf32> -> !torch.vtensor<[4096],f32>
    %__auto.blk.26.attn_q.weight = util.global.load @__auto.blk.26.attn_q.weight : tensor<4096x4096xf16>
    %237 = torch_c.from_builtin_tensor %__auto.blk.26.attn_q.weight : tensor<4096x4096xf16> -> !torch.vtensor<[4096,4096],f16>
    %__auto.blk.26.attn_k.weight = util.global.load @__auto.blk.26.attn_k.weight : tensor<1024x4096xf16>
    %238 = torch_c.from_builtin_tensor %__auto.blk.26.attn_k.weight : tensor<1024x4096xf16> -> !torch.vtensor<[1024,4096],f16>
    %__auto.blk.26.attn_v.weight = util.global.load @__auto.blk.26.attn_v.weight : tensor<1024x4096xf16>
    %239 = torch_c.from_builtin_tensor %__auto.blk.26.attn_v.weight : tensor<1024x4096xf16> -> !torch.vtensor<[1024,4096],f16>
    %__auto.blk.26.attn_output.weight = util.global.load @__auto.blk.26.attn_output.weight : tensor<4096x4096xf16>
    %240 = torch_c.from_builtin_tensor %__auto.blk.26.attn_output.weight : tensor<4096x4096xf16> -> !torch.vtensor<[4096,4096],f16>
    %__auto.blk.26.ffn_norm.weight = util.global.load @__auto.blk.26.ffn_norm.weight : tensor<4096xf32>
    %241 = torch_c.from_builtin_tensor %__auto.blk.26.ffn_norm.weight : tensor<4096xf32> -> !torch.vtensor<[4096],f32>
    %__auto.blk.26.ffn_gate.weight = util.global.load @__auto.blk.26.ffn_gate.weight : tensor<14336x4096xf16>
    %242 = torch_c.from_builtin_tensor %__auto.blk.26.ffn_gate.weight : tensor<14336x4096xf16> -> !torch.vtensor<[14336,4096],f16>
    %__auto.blk.26.ffn_up.weight = util.global.load @__auto.blk.26.ffn_up.weight : tensor<14336x4096xf16>
    %243 = torch_c.from_builtin_tensor %__auto.blk.26.ffn_up.weight : tensor<14336x4096xf16> -> !torch.vtensor<[14336,4096],f16>
    %__auto.blk.26.ffn_down.weight = util.global.load @__auto.blk.26.ffn_down.weight : tensor<4096x14336xf16>
    %244 = torch_c.from_builtin_tensor %__auto.blk.26.ffn_down.weight : tensor<4096x14336xf16> -> !torch.vtensor<[4096,14336],f16>
    %__auto.blk.27.attn_norm.weight = util.global.load @__auto.blk.27.attn_norm.weight : tensor<4096xf32>
    %245 = torch_c.from_builtin_tensor %__auto.blk.27.attn_norm.weight : tensor<4096xf32> -> !torch.vtensor<[4096],f32>
    %__auto.blk.27.attn_q.weight = util.global.load @__auto.blk.27.attn_q.weight : tensor<4096x4096xf16>
    %246 = torch_c.from_builtin_tensor %__auto.blk.27.attn_q.weight : tensor<4096x4096xf16> -> !torch.vtensor<[4096,4096],f16>
    %__auto.blk.27.attn_k.weight = util.global.load @__auto.blk.27.attn_k.weight : tensor<1024x4096xf16>
    %247 = torch_c.from_builtin_tensor %__auto.blk.27.attn_k.weight : tensor<1024x4096xf16> -> !torch.vtensor<[1024,4096],f16>
    %__auto.blk.27.attn_v.weight = util.global.load @__auto.blk.27.attn_v.weight : tensor<1024x4096xf16>
    %248 = torch_c.from_builtin_tensor %__auto.blk.27.attn_v.weight : tensor<1024x4096xf16> -> !torch.vtensor<[1024,4096],f16>
    %__auto.blk.27.attn_output.weight = util.global.load @__auto.blk.27.attn_output.weight : tensor<4096x4096xf16>
    %249 = torch_c.from_builtin_tensor %__auto.blk.27.attn_output.weight : tensor<4096x4096xf16> -> !torch.vtensor<[4096,4096],f16>
    %__auto.blk.27.ffn_norm.weight = util.global.load @__auto.blk.27.ffn_norm.weight : tensor<4096xf32>
    %250 = torch_c.from_builtin_tensor %__auto.blk.27.ffn_norm.weight : tensor<4096xf32> -> !torch.vtensor<[4096],f32>
    %__auto.blk.27.ffn_gate.weight = util.global.load @__auto.blk.27.ffn_gate.weight : tensor<14336x4096xf16>
    %251 = torch_c.from_builtin_tensor %__auto.blk.27.ffn_gate.weight : tensor<14336x4096xf16> -> !torch.vtensor<[14336,4096],f16>
    %__auto.blk.27.ffn_up.weight = util.global.load @__auto.blk.27.ffn_up.weight : tensor<14336x4096xf16>
    %252 = torch_c.from_builtin_tensor %__auto.blk.27.ffn_up.weight : tensor<14336x4096xf16> -> !torch.vtensor<[14336,4096],f16>
    %__auto.blk.27.ffn_down.weight = util.global.load @__auto.blk.27.ffn_down.weight : tensor<4096x14336xf16>
    %253 = torch_c.from_builtin_tensor %__auto.blk.27.ffn_down.weight : tensor<4096x14336xf16> -> !torch.vtensor<[4096,14336],f16>
    %__auto.blk.28.attn_norm.weight = util.global.load @__auto.blk.28.attn_norm.weight : tensor<4096xf32>
    %254 = torch_c.from_builtin_tensor %__auto.blk.28.attn_norm.weight : tensor<4096xf32> -> !torch.vtensor<[4096],f32>
    %__auto.blk.28.attn_q.weight = util.global.load @__auto.blk.28.attn_q.weight : tensor<4096x4096xf16>
    %255 = torch_c.from_builtin_tensor %__auto.blk.28.attn_q.weight : tensor<4096x4096xf16> -> !torch.vtensor<[4096,4096],f16>
    %__auto.blk.28.attn_k.weight = util.global.load @__auto.blk.28.attn_k.weight : tensor<1024x4096xf16>
    %256 = torch_c.from_builtin_tensor %__auto.blk.28.attn_k.weight : tensor<1024x4096xf16> -> !torch.vtensor<[1024,4096],f16>
    %__auto.blk.28.attn_v.weight = util.global.load @__auto.blk.28.attn_v.weight : tensor<1024x4096xf16>
    %257 = torch_c.from_builtin_tensor %__auto.blk.28.attn_v.weight : tensor<1024x4096xf16> -> !torch.vtensor<[1024,4096],f16>
    %__auto.blk.28.attn_output.weight = util.global.load @__auto.blk.28.attn_output.weight : tensor<4096x4096xf16>
    %258 = torch_c.from_builtin_tensor %__auto.blk.28.attn_output.weight : tensor<4096x4096xf16> -> !torch.vtensor<[4096,4096],f16>
    %__auto.blk.28.ffn_norm.weight = util.global.load @__auto.blk.28.ffn_norm.weight : tensor<4096xf32>
    %259 = torch_c.from_builtin_tensor %__auto.blk.28.ffn_norm.weight : tensor<4096xf32> -> !torch.vtensor<[4096],f32>
    %__auto.blk.28.ffn_gate.weight = util.global.load @__auto.blk.28.ffn_gate.weight : tensor<14336x4096xf16>
    %260 = torch_c.from_builtin_tensor %__auto.blk.28.ffn_gate.weight : tensor<14336x4096xf16> -> !torch.vtensor<[14336,4096],f16>
    %__auto.blk.28.ffn_up.weight = util.global.load @__auto.blk.28.ffn_up.weight : tensor<14336x4096xf16>
    %261 = torch_c.from_builtin_tensor %__auto.blk.28.ffn_up.weight : tensor<14336x4096xf16> -> !torch.vtensor<[14336,4096],f16>
    %__auto.blk.28.ffn_down.weight = util.global.load @__auto.blk.28.ffn_down.weight : tensor<4096x14336xf16>
    %262 = torch_c.from_builtin_tensor %__auto.blk.28.ffn_down.weight : tensor<4096x14336xf16> -> !torch.vtensor<[4096,14336],f16>
    %__auto.blk.29.attn_norm.weight = util.global.load @__auto.blk.29.attn_norm.weight : tensor<4096xf32>
    %263 = torch_c.from_builtin_tensor %__auto.blk.29.attn_norm.weight : tensor<4096xf32> -> !torch.vtensor<[4096],f32>
    %__auto.blk.29.attn_q.weight = util.global.load @__auto.blk.29.attn_q.weight : tensor<4096x4096xf16>
    %264 = torch_c.from_builtin_tensor %__auto.blk.29.attn_q.weight : tensor<4096x4096xf16> -> !torch.vtensor<[4096,4096],f16>
    %__auto.blk.29.attn_k.weight = util.global.load @__auto.blk.29.attn_k.weight : tensor<1024x4096xf16>
    %265 = torch_c.from_builtin_tensor %__auto.blk.29.attn_k.weight : tensor<1024x4096xf16> -> !torch.vtensor<[1024,4096],f16>
    %__auto.blk.29.attn_v.weight = util.global.load @__auto.blk.29.attn_v.weight : tensor<1024x4096xf16>
    %266 = torch_c.from_builtin_tensor %__auto.blk.29.attn_v.weight : tensor<1024x4096xf16> -> !torch.vtensor<[1024,4096],f16>
    %__auto.blk.29.attn_output.weight = util.global.load @__auto.blk.29.attn_output.weight : tensor<4096x4096xf16>
    %267 = torch_c.from_builtin_tensor %__auto.blk.29.attn_output.weight : tensor<4096x4096xf16> -> !torch.vtensor<[4096,4096],f16>
    %__auto.blk.29.ffn_norm.weight = util.global.load @__auto.blk.29.ffn_norm.weight : tensor<4096xf32>
    %268 = torch_c.from_builtin_tensor %__auto.blk.29.ffn_norm.weight : tensor<4096xf32> -> !torch.vtensor<[4096],f32>
    %__auto.blk.29.ffn_gate.weight = util.global.load @__auto.blk.29.ffn_gate.weight : tensor<14336x4096xf16>
    %269 = torch_c.from_builtin_tensor %__auto.blk.29.ffn_gate.weight : tensor<14336x4096xf16> -> !torch.vtensor<[14336,4096],f16>
    %__auto.blk.29.ffn_up.weight = util.global.load @__auto.blk.29.ffn_up.weight : tensor<14336x4096xf16>
    %270 = torch_c.from_builtin_tensor %__auto.blk.29.ffn_up.weight : tensor<14336x4096xf16> -> !torch.vtensor<[14336,4096],f16>
    %__auto.blk.29.ffn_down.weight = util.global.load @__auto.blk.29.ffn_down.weight : tensor<4096x14336xf16>
    %271 = torch_c.from_builtin_tensor %__auto.blk.29.ffn_down.weight : tensor<4096x14336xf16> -> !torch.vtensor<[4096,14336],f16>
    %__auto.blk.30.attn_norm.weight = util.global.load @__auto.blk.30.attn_norm.weight : tensor<4096xf32>
    %272 = torch_c.from_builtin_tensor %__auto.blk.30.attn_norm.weight : tensor<4096xf32> -> !torch.vtensor<[4096],f32>
    %__auto.blk.30.attn_q.weight = util.global.load @__auto.blk.30.attn_q.weight : tensor<4096x4096xf16>
    %273 = torch_c.from_builtin_tensor %__auto.blk.30.attn_q.weight : tensor<4096x4096xf16> -> !torch.vtensor<[4096,4096],f16>
    %__auto.blk.30.attn_k.weight = util.global.load @__auto.blk.30.attn_k.weight : tensor<1024x4096xf16>
    %274 = torch_c.from_builtin_tensor %__auto.blk.30.attn_k.weight : tensor<1024x4096xf16> -> !torch.vtensor<[1024,4096],f16>
    %__auto.blk.30.attn_v.weight = util.global.load @__auto.blk.30.attn_v.weight : tensor<1024x4096xf16>
    %275 = torch_c.from_builtin_tensor %__auto.blk.30.attn_v.weight : tensor<1024x4096xf16> -> !torch.vtensor<[1024,4096],f16>
    %__auto.blk.30.attn_output.weight = util.global.load @__auto.blk.30.attn_output.weight : tensor<4096x4096xf16>
    %276 = torch_c.from_builtin_tensor %__auto.blk.30.attn_output.weight : tensor<4096x4096xf16> -> !torch.vtensor<[4096,4096],f16>
    %__auto.blk.30.ffn_norm.weight = util.global.load @__auto.blk.30.ffn_norm.weight : tensor<4096xf32>
    %277 = torch_c.from_builtin_tensor %__auto.blk.30.ffn_norm.weight : tensor<4096xf32> -> !torch.vtensor<[4096],f32>
    %__auto.blk.30.ffn_gate.weight = util.global.load @__auto.blk.30.ffn_gate.weight : tensor<14336x4096xf16>
    %278 = torch_c.from_builtin_tensor %__auto.blk.30.ffn_gate.weight : tensor<14336x4096xf16> -> !torch.vtensor<[14336,4096],f16>
    %__auto.blk.30.ffn_up.weight = util.global.load @__auto.blk.30.ffn_up.weight : tensor<14336x4096xf16>
    %279 = torch_c.from_builtin_tensor %__auto.blk.30.ffn_up.weight : tensor<14336x4096xf16> -> !torch.vtensor<[14336,4096],f16>
    %__auto.blk.30.ffn_down.weight = util.global.load @__auto.blk.30.ffn_down.weight : tensor<4096x14336xf16>
    %280 = torch_c.from_builtin_tensor %__auto.blk.30.ffn_down.weight : tensor<4096x14336xf16> -> !torch.vtensor<[4096,14336],f16>
    %__auto.blk.31.attn_norm.weight = util.global.load @__auto.blk.31.attn_norm.weight : tensor<4096xf32>
    %281 = torch_c.from_builtin_tensor %__auto.blk.31.attn_norm.weight : tensor<4096xf32> -> !torch.vtensor<[4096],f32>
    %__auto.blk.31.attn_q.weight = util.global.load @__auto.blk.31.attn_q.weight : tensor<4096x4096xf16>
    %282 = torch_c.from_builtin_tensor %__auto.blk.31.attn_q.weight : tensor<4096x4096xf16> -> !torch.vtensor<[4096,4096],f16>
    %__auto.blk.31.attn_k.weight = util.global.load @__auto.blk.31.attn_k.weight : tensor<1024x4096xf16>
    %283 = torch_c.from_builtin_tensor %__auto.blk.31.attn_k.weight : tensor<1024x4096xf16> -> !torch.vtensor<[1024,4096],f16>
    %__auto.blk.31.attn_v.weight = util.global.load @__auto.blk.31.attn_v.weight : tensor<1024x4096xf16>
    %284 = torch_c.from_builtin_tensor %__auto.blk.31.attn_v.weight : tensor<1024x4096xf16> -> !torch.vtensor<[1024,4096],f16>
    %__auto.blk.31.attn_output.weight = util.global.load @__auto.blk.31.attn_output.weight : tensor<4096x4096xf16>
    %285 = torch_c.from_builtin_tensor %__auto.blk.31.attn_output.weight : tensor<4096x4096xf16> -> !torch.vtensor<[4096,4096],f16>
    %__auto.blk.31.ffn_norm.weight = util.global.load @__auto.blk.31.ffn_norm.weight : tensor<4096xf32>
    %286 = torch_c.from_builtin_tensor %__auto.blk.31.ffn_norm.weight : tensor<4096xf32> -> !torch.vtensor<[4096],f32>
    %__auto.blk.31.ffn_gate.weight = util.global.load @__auto.blk.31.ffn_gate.weight : tensor<14336x4096xf16>
    %287 = torch_c.from_builtin_tensor %__auto.blk.31.ffn_gate.weight : tensor<14336x4096xf16> -> !torch.vtensor<[14336,4096],f16>
    %__auto.blk.31.ffn_up.weight = util.global.load @__auto.blk.31.ffn_up.weight : tensor<14336x4096xf16>
    %288 = torch_c.from_builtin_tensor %__auto.blk.31.ffn_up.weight : tensor<14336x4096xf16> -> !torch.vtensor<[14336,4096],f16>
    %__auto.blk.31.ffn_down.weight = util.global.load @__auto.blk.31.ffn_down.weight : tensor<4096x14336xf16>
    %289 = torch_c.from_builtin_tensor %__auto.blk.31.ffn_down.weight : tensor<4096x14336xf16> -> !torch.vtensor<[4096,14336],f16>
    %__auto.output_norm.weight = util.global.load @__auto.output_norm.weight : tensor<4096xf32>
    %290 = torch_c.from_builtin_tensor %__auto.output_norm.weight : tensor<4096xf32> -> !torch.vtensor<[4096],f32>
    %__auto.output.weight = util.global.load @__auto.output.weight : tensor<128256x4096xf16>
    %291 = torch_c.from_builtin_tensor %__auto.output.weight : tensor<128256x4096xf16> -> !torch.vtensor<[128256,4096],f16>
    %292 = torch.copy.to_vtensor %arg3 : !torch.vtensor<[?,2097152],f16>
    %293 = torch.symbolic_int "32*s1" {min_val = 64, max_val = 131040} : !torch.int
    %294 = torch.symbolic_int "s1" {min_val = 2, max_val = 4095} : !torch.int
    %295 = torch.symbolic_int "s2" {min_val = 0, max_val = 9223372036854775807} : !torch.int
    torch.bind_symbolic_shape %arg0, [%294], affine_map<()[s0] -> (4, s0 * 32)> : !torch.vtensor<[4,?],si64>
    torch.bind_symbolic_shape %arg2, [%294], affine_map<()[s0] -> (4, s0)> : !torch.vtensor<[4,?],si64>
    torch.bind_symbolic_shape %292, [%295], affine_map<()[s0] -> (s0, 2097152)> : !torch.vtensor<[?,2097152],f16>
    %int1 = torch.constant.int 1
    %296 = torch.aten.size.int %arg2, %int1 : !torch.vtensor<[4,?],si64>, !torch.int -> !torch.int
    %int0 = torch.constant.int 0
    %297 = torch.aten.size.int %292, %int0 : !torch.vtensor<[?,2097152],f16>, !torch.int -> !torch.int
    %int1_0 = torch.constant.int 1
    %298 = torch.aten.size.int %arg0, %int1_0 : !torch.vtensor<[4,?],si64>, !torch.int -> !torch.int
    %int0_1 = torch.constant.int 0
    %int1_2 = torch.constant.int 1
    %none = torch.constant.none
    %none_3 = torch.constant.none
    %cpu = torch.constant.device "cpu"
    %false = torch.constant.bool false
    %299 = torch.aten.arange.start_step %int0_1, %298, %int1_2, %none, %none_3, %cpu, %false : !torch.int, !torch.int, !torch.int, !torch.none, !torch.none, !torch.Device, !torch.bool -> !torch.vtensor<[?],si64>
    torch.bind_symbolic_shape %299, [%294], affine_map<()[s0] -> (s0 * 32)> : !torch.vtensor<[?],si64>
    %int-1 = torch.constant.int -1
    %300 = torch.aten.unsqueeze %arg1, %int-1 : !torch.vtensor<[4],si64>, !torch.int -> !torch.vtensor<[4,1],si64>
    %301 = torch.aten.ge.Tensor %299, %300 : !torch.vtensor<[?],si64>, !torch.vtensor<[4,1],si64> -> !torch.vtensor<[4,?],i1>
    torch.bind_symbolic_shape %301, [%294], affine_map<()[s0] -> (4, s0 * 32)> : !torch.vtensor<[4,?],i1>
    %int1_4 = torch.constant.int 1
    %int1_5 = torch.constant.int 1
    %302 = torch.prim.ListConstruct %int1_4, %int1_5 : (!torch.int, !torch.int) -> !torch.list<int>
    %int11 = torch.constant.int 11
    %none_6 = torch.constant.none
    %cpu_7 = torch.constant.device "cpu"
    %false_8 = torch.constant.bool false
    %303 = torch.aten.ones %302, %int11, %none_6, %cpu_7, %false_8 : !torch.list<int>, !torch.int, !torch.none, !torch.Device, !torch.bool -> !torch.vtensor<[1,1],i1>
    %int131072 = torch.constant.int 131072
    %int131072_9 = torch.constant.int 131072
    %304 = torch.prim.ListConstruct %int131072, %int131072_9 : (!torch.int, !torch.int) -> !torch.list<int>
    %false_10 = torch.constant.bool false
    %305 = torch.aten.expand %303, %304, %false_10 : !torch.vtensor<[1,1],i1>, !torch.list<int>, !torch.bool -> !torch.vtensor<[131072,131072],i1>
    %int1_11 = torch.constant.int 1
    %306 = torch.aten.triu %305, %int1_11 : !torch.vtensor<[131072,131072],i1>, !torch.int -> !torch.vtensor<[131072,131072],i1>
    %int0_12 = torch.constant.int 0
    %307 = torch.aten.unsqueeze %306, %int0_12 : !torch.vtensor<[131072,131072],i1>, !torch.int -> !torch.vtensor<[1,131072,131072],i1>
    %int1_13 = torch.constant.int 1
    %308 = torch.aten.unsqueeze %307, %int1_13 : !torch.vtensor<[1,131072,131072],i1>, !torch.int -> !torch.vtensor<[1,1,131072,131072],i1>
    %int2 = torch.constant.int 2
    %int0_14 = torch.constant.int 0
    %int9223372036854775807 = torch.constant.int 9223372036854775807
    %int1_15 = torch.constant.int 1
    %309 = torch.aten.slice.Tensor %308, %int2, %int0_14, %int9223372036854775807, %int1_15 : !torch.vtensor<[1,1,131072,131072],i1>, !torch.int, !torch.int, !torch.int, !torch.int -> !torch.vtensor<[1,1,131072,131072],i1>
    %int3 = torch.constant.int 3
    %int0_16 = torch.constant.int 0
    %int9223372036854775807_17 = torch.constant.int 9223372036854775807
    %int1_18 = torch.constant.int 1
    %310 = torch.aten.slice.Tensor %309, %int3, %int0_16, %int9223372036854775807_17, %int1_18 : !torch.vtensor<[1,1,131072,131072],i1>, !torch.int, !torch.int, !torch.int, !torch.int -> !torch.vtensor<[1,1,131072,131072],i1>
    %int0_19 = torch.constant.int 0
    %int0_20 = torch.constant.int 0
    %int9223372036854775807_21 = torch.constant.int 9223372036854775807
    %int1_22 = torch.constant.int 1
    %311 = torch.aten.slice.Tensor %310, %int0_19, %int0_20, %int9223372036854775807_21, %int1_22 : !torch.vtensor<[1,1,131072,131072],i1>, !torch.int, !torch.int, !torch.int, !torch.int -> !torch.vtensor<[1,1,131072,131072],i1>
    %int1_23 = torch.constant.int 1
    %int0_24 = torch.constant.int 0
    %int9223372036854775807_25 = torch.constant.int 9223372036854775807
    %int1_26 = torch.constant.int 1
    %312 = torch.aten.slice.Tensor %311, %int1_23, %int0_24, %int9223372036854775807_25, %int1_26 : !torch.vtensor<[1,1,131072,131072],i1>, !torch.int, !torch.int, !torch.int, !torch.int -> !torch.vtensor<[1,1,131072,131072],i1>
    %int2_27 = torch.constant.int 2
    %int0_28 = torch.constant.int 0
    %int1_29 = torch.constant.int 1
    %313 = torch.aten.slice.Tensor %312, %int2_27, %int0_28, %298, %int1_29 : !torch.vtensor<[1,1,131072,131072],i1>, !torch.int, !torch.int, !torch.int, !torch.int -> !torch.vtensor<[1,1,?,131072],i1>
    torch.bind_symbolic_shape %313, [%294], affine_map<()[s0] -> (1, 1, s0 * 32, 131072)> : !torch.vtensor<[1,1,?,131072],i1>
    %int3_30 = torch.constant.int 3
    %int0_31 = torch.constant.int 0
    %int1_32 = torch.constant.int 1
    %314 = torch.aten.slice.Tensor %313, %int3_30, %int0_31, %298, %int1_32 : !torch.vtensor<[1,1,?,131072],i1>, !torch.int, !torch.int, !torch.int, !torch.int -> !torch.vtensor<[1,1,?,?],i1>
    torch.bind_symbolic_shape %314, [%294], affine_map<()[s0] -> (1, 1, s0 * 32, s0 * 32)> : !torch.vtensor<[1,1,?,?],i1>
    %int0_33 = torch.constant.int 0
    %int0_34 = torch.constant.int 0
    %int9223372036854775807_35 = torch.constant.int 9223372036854775807
    %int1_36 = torch.constant.int 1
    %315 = torch.aten.slice.Tensor %301, %int0_33, %int0_34, %int9223372036854775807_35, %int1_36 : !torch.vtensor<[4,?],i1>, !torch.int, !torch.int, !torch.int, !torch.int -> !torch.vtensor<[4,?],i1>
    torch.bind_symbolic_shape %315, [%294], affine_map<()[s0] -> (4, s0 * 32)> : !torch.vtensor<[4,?],i1>
    %int1_37 = torch.constant.int 1
    %316 = torch.aten.unsqueeze %315, %int1_37 : !torch.vtensor<[4,?],i1>, !torch.int -> !torch.vtensor<[4,1,?],i1>
    torch.bind_symbolic_shape %316, [%294], affine_map<()[s0] -> (4, 1, s0 * 32)> : !torch.vtensor<[4,1,?],i1>
    %int2_38 = torch.constant.int 2
    %317 = torch.aten.unsqueeze %316, %int2_38 : !torch.vtensor<[4,1,?],i1>, !torch.int -> !torch.vtensor<[4,1,1,?],i1>
    torch.bind_symbolic_shape %317, [%294], affine_map<()[s0] -> (4, 1, 1, s0 * 32)> : !torch.vtensor<[4,1,1,?],i1>
    %int3_39 = torch.constant.int 3
    %int0_40 = torch.constant.int 0
    %int9223372036854775807_41 = torch.constant.int 9223372036854775807
    %int1_42 = torch.constant.int 1
    %318 = torch.aten.slice.Tensor %317, %int3_39, %int0_40, %int9223372036854775807_41, %int1_42 : !torch.vtensor<[4,1,1,?],i1>, !torch.int, !torch.int, !torch.int, !torch.int -> !torch.vtensor<[4,1,1,?],i1>
    torch.bind_symbolic_shape %318, [%294], affine_map<()[s0] -> (4, 1, 1, s0 * 32)> : !torch.vtensor<[4,1,1,?],i1>
    %319 = torch.aten.logical_or %314, %318 : !torch.vtensor<[1,1,?,?],i1>, !torch.vtensor<[4,1,1,?],i1> -> !torch.vtensor<[4,1,?,?],i1>
    torch.bind_symbolic_shape %319, [%294], affine_map<()[s0] -> (4, 1, s0 * 32, s0 * 32)> : !torch.vtensor<[4,1,?,?],i1>
    %none_43 = torch.constant.none
    %320 = torch.aten.clone %0, %none_43 : !torch.vtensor<[],f16>, !torch.none -> !torch.vtensor<[],f16>
    %321 = torch.aten.detach %320 : !torch.vtensor<[],f16> -> !torch.vtensor<[],f16>
    %322 = torch.aten.detach %321 : !torch.vtensor<[],f16> -> !torch.vtensor<[],f16>
    %323 = torch.aten.detach %322 : !torch.vtensor<[],f16> -> !torch.vtensor<[],f16>
    %int0_44 = torch.constant.int 0
    %int5 = torch.constant.int 5
    %int0_45 = torch.constant.int 0
    %cpu_46 = torch.constant.device "cpu"
    %none_47 = torch.constant.none
    %324 = torch.aten.scalar_tensor %int0_44, %int5, %int0_45, %cpu_46, %none_47 : !torch.int, !torch.int, !torch.int, !torch.Device, !torch.none -> !torch.vtensor<[],f16>
    %325 = torch.aten.where.self %319, %323, %324 : !torch.vtensor<[4,1,?,?],i1>, !torch.vtensor<[],f16>, !torch.vtensor<[],f16> -> !torch.vtensor<[4,1,?,?],f16>
    torch.bind_symbolic_shape %325, [%294], affine_map<()[s0] -> (4, 1, s0 * 32, s0 * 32)> : !torch.vtensor<[4,1,?,?],f16>
    %int5_48 = torch.constant.int 5
    %326 = torch.prims.convert_element_type %325, %int5_48 : !torch.vtensor<[4,1,?,?],f16>, !torch.int -> !torch.vtensor<[4,1,?,?],f16>
    torch.bind_symbolic_shape %326, [%294], affine_map<()[s0] -> (4, 1, s0 * 32, s0 * 32)> : !torch.vtensor<[4,1,?,?],f16>
    %int5_49 = torch.constant.int 5
    %327 = torch.prims.convert_element_type %326, %int5_49 : !torch.vtensor<[4,1,?,?],f16>, !torch.int -> !torch.vtensor<[4,1,?,?],f16>
    torch.bind_symbolic_shape %327, [%294], affine_map<()[s0] -> (4, 1, s0 * 32, s0 * 32)> : !torch.vtensor<[4,1,?,?],f16>
    %int5_50 = torch.constant.int 5
    %328 = torch.prims.convert_element_type %1, %int5_50 : !torch.vtensor<[128256,4096],f16>, !torch.int -> !torch.vtensor<[128256,4096],f16>
    %int-1_51 = torch.constant.int -1
    %false_52 = torch.constant.bool false
    %false_53 = torch.constant.bool false
    %329 = torch.aten.embedding %328, %arg0, %int-1_51, %false_52, %false_53 : !torch.vtensor<[128256,4096],f16>, !torch.vtensor<[4,?],si64>, !torch.int, !torch.bool, !torch.bool -> !torch.vtensor<[4,?,4096],f16>
    torch.bind_symbolic_shape %329, [%294], affine_map<()[s0] -> (4, s0 * 32, 4096)> : !torch.vtensor<[4,?,4096],f16>
    %int6 = torch.constant.int 6
    %330 = torch.prims.convert_element_type %329, %int6 : !torch.vtensor<[4,?,4096],f16>, !torch.int -> !torch.vtensor<[4,?,4096],f32>
    torch.bind_symbolic_shape %330, [%294], affine_map<()[s0] -> (4, s0 * 32, 4096)> : !torch.vtensor<[4,?,4096],f32>
    %int2_54 = torch.constant.int 2
    %331 = torch.aten.pow.Tensor_Scalar %330, %int2_54 : !torch.vtensor<[4,?,4096],f32>, !torch.int -> !torch.vtensor<[4,?,4096],f32>
    torch.bind_symbolic_shape %331, [%294], affine_map<()[s0] -> (4, s0 * 32, 4096)> : !torch.vtensor<[4,?,4096],f32>
    %int-1_55 = torch.constant.int -1
    %332 = torch.prim.ListConstruct %int-1_55 : (!torch.int) -> !torch.list<int>
    %true = torch.constant.bool true
    %none_56 = torch.constant.none
    %333 = torch.aten.mean.dim %331, %332, %true, %none_56 : !torch.vtensor<[4,?,4096],f32>, !torch.list<int>, !torch.bool, !torch.none -> !torch.vtensor<[4,?,1],f32>
    torch.bind_symbolic_shape %333, [%294], affine_map<()[s0] -> (4, s0 * 32, 1)> : !torch.vtensor<[4,?,1],f32>
    %float9.999990e-06 = torch.constant.float 9.9999997473787516E-6
    %int1_57 = torch.constant.int 1
    %334 = torch.aten.add.Scalar %333, %float9.999990e-06, %int1_57 : !torch.vtensor<[4,?,1],f32>, !torch.float, !torch.int -> !torch.vtensor<[4,?,1],f32>
    torch.bind_symbolic_shape %334, [%294], affine_map<()[s0] -> (4, s0 * 32, 1)> : !torch.vtensor<[4,?,1],f32>
    %335 = torch.aten.rsqrt %334 : !torch.vtensor<[4,?,1],f32> -> !torch.vtensor<[4,?,1],f32>
    torch.bind_symbolic_shape %335, [%294], affine_map<()[s0] -> (4, s0 * 32, 1)> : !torch.vtensor<[4,?,1],f32>
    %336 = torch.aten.mul.Tensor %330, %335 : !torch.vtensor<[4,?,4096],f32>, !torch.vtensor<[4,?,1],f32> -> !torch.vtensor<[4,?,4096],f32>
    torch.bind_symbolic_shape %336, [%294], affine_map<()[s0] -> (4, s0 * 32, 4096)> : !torch.vtensor<[4,?,4096],f32>
    %int5_58 = torch.constant.int 5
    %337 = torch.prims.convert_element_type %336, %int5_58 : !torch.vtensor<[4,?,4096],f32>, !torch.int -> !torch.vtensor<[4,?,4096],f16>
    torch.bind_symbolic_shape %337, [%294], affine_map<()[s0] -> (4, s0 * 32, 4096)> : !torch.vtensor<[4,?,4096],f16>
    %338 = torch.aten.mul.Tensor %2, %337 : !torch.vtensor<[4096],f32>, !torch.vtensor<[4,?,4096],f16> -> !torch.vtensor<[4,?,4096],f32>
    torch.bind_symbolic_shape %338, [%294], affine_map<()[s0] -> (4, s0 * 32, 4096)> : !torch.vtensor<[4,?,4096],f32>
    %int5_59 = torch.constant.int 5
    %339 = torch.prims.convert_element_type %338, %int5_59 : !torch.vtensor<[4,?,4096],f32>, !torch.int -> !torch.vtensor<[4,?,4096],f16>
    torch.bind_symbolic_shape %339, [%294], affine_map<()[s0] -> (4, s0 * 32, 4096)> : !torch.vtensor<[4,?,4096],f16>
    %int-2 = torch.constant.int -2
    %int-1_60 = torch.constant.int -1
    %340 = torch.aten.transpose.int %3, %int-2, %int-1_60 : !torch.vtensor<[4096,4096],f16>, !torch.int, !torch.int -> !torch.vtensor<[4096,4096],f16>
    %int5_61 = torch.constant.int 5
    %341 = torch.prims.convert_element_type %340, %int5_61 : !torch.vtensor<[4096,4096],f16>, !torch.int -> !torch.vtensor<[4096,4096],f16>
    %int4 = torch.constant.int 4
    %342 = torch.aten.mul.int %int4, %298 : !torch.int, !torch.int -> !torch.int
    %int4096 = torch.constant.int 4096
    %343 = torch.prim.ListConstruct %342, %int4096 : (!torch.int, !torch.int) -> !torch.list<int>
    %344 = torch.aten.view %339, %343 : !torch.vtensor<[4,?,4096],f16>, !torch.list<int> -> !torch.vtensor<[?,4096],f16>
    torch.bind_symbolic_shape %344, [%294], affine_map<()[s0] -> (s0 * 128, 4096)> : !torch.vtensor<[?,4096],f16>
    %345 = torch.aten.mm %344, %341 : !torch.vtensor<[?,4096],f16>, !torch.vtensor<[4096,4096],f16> -> !torch.vtensor<[?,4096],f16>
    torch.bind_symbolic_shape %345, [%294], affine_map<()[s0] -> (s0 * 128, 4096)> : !torch.vtensor<[?,4096],f16>
    %int4_62 = torch.constant.int 4
    %int4096_63 = torch.constant.int 4096
    %346 = torch.prim.ListConstruct %int4_62, %298, %int4096_63 : (!torch.int, !torch.int, !torch.int) -> !torch.list<int>
    %347 = torch.aten.view %345, %346 : !torch.vtensor<[?,4096],f16>, !torch.list<int> -> !torch.vtensor<[4,?,4096],f16>
    torch.bind_symbolic_shape %347, [%294], affine_map<()[s0] -> (4, s0 * 32, 4096)> : !torch.vtensor<[4,?,4096],f16>
    %int-2_64 = torch.constant.int -2
    %int-1_65 = torch.constant.int -1
    %348 = torch.aten.transpose.int %4, %int-2_64, %int-1_65 : !torch.vtensor<[1024,4096],f16>, !torch.int, !torch.int -> !torch.vtensor<[4096,1024],f16>
    %int5_66 = torch.constant.int 5
    %349 = torch.prims.convert_element_type %348, %int5_66 : !torch.vtensor<[4096,1024],f16>, !torch.int -> !torch.vtensor<[4096,1024],f16>
    %int4096_67 = torch.constant.int 4096
    %350 = torch.prim.ListConstruct %342, %int4096_67 : (!torch.int, !torch.int) -> !torch.list<int>
    %351 = torch.aten.view %339, %350 : !torch.vtensor<[4,?,4096],f16>, !torch.list<int> -> !torch.vtensor<[?,4096],f16>
    torch.bind_symbolic_shape %351, [%294], affine_map<()[s0] -> (s0 * 128, 4096)> : !torch.vtensor<[?,4096],f16>
    %352 = torch.aten.mm %351, %349 : !torch.vtensor<[?,4096],f16>, !torch.vtensor<[4096,1024],f16> -> !torch.vtensor<[?,1024],f16>
    torch.bind_symbolic_shape %352, [%294], affine_map<()[s0] -> (s0 * 128, 1024)> : !torch.vtensor<[?,1024],f16>
    %int4_68 = torch.constant.int 4
    %int1024 = torch.constant.int 1024
    %353 = torch.prim.ListConstruct %int4_68, %298, %int1024 : (!torch.int, !torch.int, !torch.int) -> !torch.list<int>
    %354 = torch.aten.view %352, %353 : !torch.vtensor<[?,1024],f16>, !torch.list<int> -> !torch.vtensor<[4,?,1024],f16>
    torch.bind_symbolic_shape %354, [%294], affine_map<()[s0] -> (4, s0 * 32, 1024)> : !torch.vtensor<[4,?,1024],f16>
    %int-2_69 = torch.constant.int -2
    %int-1_70 = torch.constant.int -1
    %355 = torch.aten.transpose.int %5, %int-2_69, %int-1_70 : !torch.vtensor<[1024,4096],f16>, !torch.int, !torch.int -> !torch.vtensor<[4096,1024],f16>
    %int5_71 = torch.constant.int 5
    %356 = torch.prims.convert_element_type %355, %int5_71 : !torch.vtensor<[4096,1024],f16>, !torch.int -> !torch.vtensor<[4096,1024],f16>
    %int4096_72 = torch.constant.int 4096
    %357 = torch.prim.ListConstruct %342, %int4096_72 : (!torch.int, !torch.int) -> !torch.list<int>
    %358 = torch.aten.view %339, %357 : !torch.vtensor<[4,?,4096],f16>, !torch.list<int> -> !torch.vtensor<[?,4096],f16>
    torch.bind_symbolic_shape %358, [%294], affine_map<()[s0] -> (s0 * 128, 4096)> : !torch.vtensor<[?,4096],f16>
    %359 = torch.aten.mm %358, %356 : !torch.vtensor<[?,4096],f16>, !torch.vtensor<[4096,1024],f16> -> !torch.vtensor<[?,1024],f16>
    torch.bind_symbolic_shape %359, [%294], affine_map<()[s0] -> (s0 * 128, 1024)> : !torch.vtensor<[?,1024],f16>
    %int4_73 = torch.constant.int 4
    %int1024_74 = torch.constant.int 1024
    %360 = torch.prim.ListConstruct %int4_73, %298, %int1024_74 : (!torch.int, !torch.int, !torch.int) -> !torch.list<int>
    %361 = torch.aten.view %359, %360 : !torch.vtensor<[?,1024],f16>, !torch.list<int> -> !torch.vtensor<[4,?,1024],f16>
    torch.bind_symbolic_shape %361, [%294], affine_map<()[s0] -> (4, s0 * 32, 1024)> : !torch.vtensor<[4,?,1024],f16>
    %int4_75 = torch.constant.int 4
    %int32 = torch.constant.int 32
    %int128 = torch.constant.int 128
    %362 = torch.prim.ListConstruct %int4_75, %298, %int32, %int128 : (!torch.int, !torch.int, !torch.int, !torch.int) -> !torch.list<int>
    %363 = torch.aten.view %347, %362 : !torch.vtensor<[4,?,4096],f16>, !torch.list<int> -> !torch.vtensor<[4,?,32,128],f16>
    torch.bind_symbolic_shape %363, [%294], affine_map<()[s0] -> (4, s0 * 32, 32, 128)> : !torch.vtensor<[4,?,32,128],f16>
    %int4_76 = torch.constant.int 4
    %int8 = torch.constant.int 8
    %int128_77 = torch.constant.int 128
    %364 = torch.prim.ListConstruct %int4_76, %298, %int8, %int128_77 : (!torch.int, !torch.int, !torch.int, !torch.int) -> !torch.list<int>
    %365 = torch.aten.view %354, %364 : !torch.vtensor<[4,?,1024],f16>, !torch.list<int> -> !torch.vtensor<[4,?,8,128],f16>
    torch.bind_symbolic_shape %365, [%294], affine_map<()[s0] -> (4, s0 * 32, 8, 128)> : !torch.vtensor<[4,?,8,128],f16>
    %int4_78 = torch.constant.int 4
    %int8_79 = torch.constant.int 8
    %int128_80 = torch.constant.int 128
    %366 = torch.prim.ListConstruct %int4_78, %298, %int8_79, %int128_80 : (!torch.int, !torch.int, !torch.int, !torch.int) -> !torch.list<int>
    %367 = torch.aten.view %361, %366 : !torch.vtensor<[4,?,1024],f16>, !torch.list<int> -> !torch.vtensor<[4,?,8,128],f16>
    torch.bind_symbolic_shape %367, [%294], affine_map<()[s0] -> (4, s0 * 32, 8, 128)> : !torch.vtensor<[4,?,8,128],f16>
    %int131072_81 = torch.constant.int 131072
    %none_82 = torch.constant.none
    %none_83 = torch.constant.none
    %cpu_84 = torch.constant.device "cpu"
    %false_85 = torch.constant.bool false
    %368 = torch.aten.arange %int131072_81, %none_82, %none_83, %cpu_84, %false_85 : !torch.int, !torch.none, !torch.none, !torch.Device, !torch.bool -> !torch.vtensor<[131072],si64>
    %int0_86 = torch.constant.int 0
    %int128_87 = torch.constant.int 128
    %int2_88 = torch.constant.int 2
    %int4_89 = torch.constant.int 4
    %none_90 = torch.constant.none
    %cpu_91 = torch.constant.device "cpu"
    %false_92 = torch.constant.bool false
    %369 = torch.aten.arange.start_step %int0_86, %int128_87, %int2_88, %int4_89, %none_90, %cpu_91, %false_92 : !torch.int, !torch.int, !torch.int, !torch.int, !torch.none, !torch.Device, !torch.bool -> !torch.vtensor<[64],si64>
    %int6_93 = torch.constant.int 6
    %370 = torch.prims.convert_element_type %369, %int6_93 : !torch.vtensor<[64],si64>, !torch.int -> !torch.vtensor<[64],f32>
    %int128_94 = torch.constant.int 128
    %371 = torch.aten.div.Scalar %370, %int128_94 : !torch.vtensor<[64],f32>, !torch.int -> !torch.vtensor<[64],f32>
    %float5.000000e05 = torch.constant.float 5.000000e+05
    %372 = torch.aten.pow.Scalar %float5.000000e05, %371 : !torch.float, !torch.vtensor<[64],f32> -> !torch.vtensor<[64],f32>
    %373 = torch.aten.reciprocal %372 : !torch.vtensor<[64],f32> -> !torch.vtensor<[64],f32>
    %float1.000000e00 = torch.constant.float 1.000000e+00
    %374 = torch.aten.mul.Scalar %373, %float1.000000e00 : !torch.vtensor<[64],f32>, !torch.float -> !torch.vtensor<[64],f32>
    %375 = torch.aten.reciprocal %374 : !torch.vtensor<[64],f32> -> !torch.vtensor<[64],f32>
    %float6.283190e00 = torch.constant.float 6.2831853071795862
    %376 = torch.aten.mul.Scalar %375, %float6.283190e00 : !torch.vtensor<[64],f32>, !torch.float -> !torch.vtensor<[64],f32>
    %float8.192000e03 = torch.constant.float 8.192000e+03
    %377 = torch.aten.gt.Scalar %376, %float8.192000e03 : !torch.vtensor<[64],f32>, !torch.float -> !torch.vtensor<[64],i1>
    %int8_95 = torch.constant.int 8
    %378 = torch.aten.div.Scalar %374, %int8_95 : !torch.vtensor<[64],f32>, !torch.int -> !torch.vtensor<[64],f32>
    %379 = torch.aten.where.self %377, %378, %374 : !torch.vtensor<[64],i1>, !torch.vtensor<[64],f32>, !torch.vtensor<[64],f32> -> !torch.vtensor<[64],f32>
    %380 = torch.aten.reciprocal %376 : !torch.vtensor<[64],f32> -> !torch.vtensor<[64],f32>
    %int8192 = torch.constant.int 8192
    %381 = torch.aten.mul.Scalar %380, %int8192 : !torch.vtensor<[64],f32>, !torch.int -> !torch.vtensor<[64],f32>
    %int1_96 = torch.constant.int 1
    %int1_97 = torch.constant.int 1
    %382 = torch.aten.sub.Scalar %381, %int1_96, %int1_97 : !torch.vtensor<[64],f32>, !torch.int, !torch.int -> !torch.vtensor<[64],f32>
    %int3_98 = torch.constant.int 3
    %383 = torch.aten.div.Scalar %382, %int3_98 : !torch.vtensor<[64],f32>, !torch.int -> !torch.vtensor<[64],f32>
    %int1_99 = torch.constant.int 1
    %int1_100 = torch.constant.int 1
    %384 = torch.aten.rsub.Scalar %383, %int1_99, %int1_100 : !torch.vtensor<[64],f32>, !torch.int, !torch.int -> !torch.vtensor<[64],f32>
    %385 = torch.aten.mul.Tensor %384, %379 : !torch.vtensor<[64],f32>, !torch.vtensor<[64],f32> -> !torch.vtensor<[64],f32>
    %int8_101 = torch.constant.int 8
    %386 = torch.aten.div.Scalar %385, %int8_101 : !torch.vtensor<[64],f32>, !torch.int -> !torch.vtensor<[64],f32>
    %387 = torch.aten.mul.Tensor %383, %379 : !torch.vtensor<[64],f32>, !torch.vtensor<[64],f32> -> !torch.vtensor<[64],f32>
    %int1_102 = torch.constant.int 1
    %388 = torch.aten.add.Tensor %386, %387, %int1_102 : !torch.vtensor<[64],f32>, !torch.vtensor<[64],f32>, !torch.int -> !torch.vtensor<[64],f32>
    %float2.048000e03 = torch.constant.float 2.048000e+03
    %389 = torch.aten.lt.Scalar %376, %float2.048000e03 : !torch.vtensor<[64],f32>, !torch.float -> !torch.vtensor<[64],i1>
    %390 = torch.aten.bitwise_not %389 : !torch.vtensor<[64],i1> -> !torch.vtensor<[64],i1>
    %float8.192000e03_103 = torch.constant.float 8.192000e+03
    %391 = torch.aten.gt.Scalar %376, %float8.192000e03_103 : !torch.vtensor<[64],f32>, !torch.float -> !torch.vtensor<[64],i1>
    %392 = torch.aten.bitwise_not %391 : !torch.vtensor<[64],i1> -> !torch.vtensor<[64],i1>
    %393 = torch.aten.mul.Tensor %390, %392 : !torch.vtensor<[64],i1>, !torch.vtensor<[64],i1> -> !torch.vtensor<[64],i1>
    %394 = torch.aten.where.self %393, %388, %379 : !torch.vtensor<[64],i1>, !torch.vtensor<[64],f32>, !torch.vtensor<[64],f32> -> !torch.vtensor<[64],f32>
    %395 = torch.prim.ListConstruct %394, %394 : (!torch.vtensor<[64],f32>, !torch.vtensor<[64],f32>) -> !torch.list<vtensor>
    %int-1_104 = torch.constant.int -1
    %396 = torch.aten.cat %395, %int-1_104 : !torch.list<vtensor>, !torch.int -> !torch.vtensor<[128],f32>
    %int6_105 = torch.constant.int 6
    %397 = torch.prims.convert_element_type %396, %int6_105 : !torch.vtensor<[128],f32>, !torch.int -> !torch.vtensor<[128],f32>
    %int1_106 = torch.constant.int 1
    %398 = torch.aten.unsqueeze %368, %int1_106 : !torch.vtensor<[131072],si64>, !torch.int -> !torch.vtensor<[131072,1],si64>
    %int6_107 = torch.constant.int 6
    %399 = torch.prims.convert_element_type %398, %int6_107 : !torch.vtensor<[131072,1],si64>, !torch.int -> !torch.vtensor<[131072,1],f32>
    %int0_108 = torch.constant.int 0
    %400 = torch.aten.unsqueeze %397, %int0_108 : !torch.vtensor<[128],f32>, !torch.int -> !torch.vtensor<[1,128],f32>
    %int6_109 = torch.constant.int 6
    %401 = torch.prims.convert_element_type %400, %int6_109 : !torch.vtensor<[1,128],f32>, !torch.int -> !torch.vtensor<[1,128],f32>
    %402 = torch.aten.mul.Tensor %399, %401 : !torch.vtensor<[131072,1],f32>, !torch.vtensor<[1,128],f32> -> !torch.vtensor<[131072,128],f32>
    %403 = torch.aten.cos %402 : !torch.vtensor<[131072,128],f32> -> !torch.vtensor<[131072,128],f32>
    %int5_110 = torch.constant.int 5
    %404 = torch.prims.convert_element_type %403, %int5_110 : !torch.vtensor<[131072,128],f32>, !torch.int -> !torch.vtensor<[131072,128],f16>
    %405 = torch.aten.sin %402 : !torch.vtensor<[131072,128],f32> -> !torch.vtensor<[131072,128],f32>
    %int5_111 = torch.constant.int 5
    %406 = torch.prims.convert_element_type %405, %int5_111 : !torch.vtensor<[131072,128],f32>, !torch.int -> !torch.vtensor<[131072,128],f16>
    %int0_112 = torch.constant.int 0
    %int0_113 = torch.constant.int 0
    %int1_114 = torch.constant.int 1
    %407 = torch.aten.slice.Tensor %404, %int0_112, %int0_113, %298, %int1_114 : !torch.vtensor<[131072,128],f16>, !torch.int, !torch.int, !torch.int, !torch.int -> !torch.vtensor<[?,128],f16>
    torch.bind_symbolic_shape %407, [%294], affine_map<()[s0] -> (s0 * 32, 128)> : !torch.vtensor<[?,128],f16>
    %int1_115 = torch.constant.int 1
    %int0_116 = torch.constant.int 0
    %int9223372036854775807_117 = torch.constant.int 9223372036854775807
    %int1_118 = torch.constant.int 1
    %408 = torch.aten.slice.Tensor %407, %int1_115, %int0_116, %int9223372036854775807_117, %int1_118 : !torch.vtensor<[?,128],f16>, !torch.int, !torch.int, !torch.int, !torch.int -> !torch.vtensor<[?,128],f16>
    torch.bind_symbolic_shape %408, [%294], affine_map<()[s0] -> (s0 * 32, 128)> : !torch.vtensor<[?,128],f16>
    %int0_119 = torch.constant.int 0
    %int0_120 = torch.constant.int 0
    %int1_121 = torch.constant.int 1
    %409 = torch.aten.slice.Tensor %406, %int0_119, %int0_120, %298, %int1_121 : !torch.vtensor<[131072,128],f16>, !torch.int, !torch.int, !torch.int, !torch.int -> !torch.vtensor<[?,128],f16>
    torch.bind_symbolic_shape %409, [%294], affine_map<()[s0] -> (s0 * 32, 128)> : !torch.vtensor<[?,128],f16>
    %int1_122 = torch.constant.int 1
    %int0_123 = torch.constant.int 0
    %int9223372036854775807_124 = torch.constant.int 9223372036854775807
    %int1_125 = torch.constant.int 1
    %410 = torch.aten.slice.Tensor %409, %int1_122, %int0_123, %int9223372036854775807_124, %int1_125 : !torch.vtensor<[?,128],f16>, !torch.int, !torch.int, !torch.int, !torch.int -> !torch.vtensor<[?,128],f16>
    torch.bind_symbolic_shape %410, [%294], affine_map<()[s0] -> (s0 * 32, 128)> : !torch.vtensor<[?,128],f16>
    %int0_126 = torch.constant.int 0
    %411 = torch.aten.unsqueeze %408, %int0_126 : !torch.vtensor<[?,128],f16>, !torch.int -> !torch.vtensor<[1,?,128],f16>
    torch.bind_symbolic_shape %411, [%294], affine_map<()[s0] -> (1, s0 * 32, 128)> : !torch.vtensor<[1,?,128],f16>
    %int1_127 = torch.constant.int 1
    %int0_128 = torch.constant.int 0
    %int9223372036854775807_129 = torch.constant.int 9223372036854775807
    %int1_130 = torch.constant.int 1
    %412 = torch.aten.slice.Tensor %411, %int1_127, %int0_128, %int9223372036854775807_129, %int1_130 : !torch.vtensor<[1,?,128],f16>, !torch.int, !torch.int, !torch.int, !torch.int -> !torch.vtensor<[1,?,128],f16>
    torch.bind_symbolic_shape %412, [%294], affine_map<()[s0] -> (1, s0 * 32, 128)> : !torch.vtensor<[1,?,128],f16>
    %int2_131 = torch.constant.int 2
    %413 = torch.aten.unsqueeze %412, %int2_131 : !torch.vtensor<[1,?,128],f16>, !torch.int -> !torch.vtensor<[1,?,1,128],f16>
    torch.bind_symbolic_shape %413, [%294], affine_map<()[s0] -> (1, s0 * 32, 1, 128)> : !torch.vtensor<[1,?,1,128],f16>
    %int3_132 = torch.constant.int 3
    %int0_133 = torch.constant.int 0
    %int9223372036854775807_134 = torch.constant.int 9223372036854775807
    %int1_135 = torch.constant.int 1
    %414 = torch.aten.slice.Tensor %413, %int3_132, %int0_133, %int9223372036854775807_134, %int1_135 : !torch.vtensor<[1,?,1,128],f16>, !torch.int, !torch.int, !torch.int, !torch.int -> !torch.vtensor<[1,?,1,128],f16>
    torch.bind_symbolic_shape %414, [%294], affine_map<()[s0] -> (1, s0 * 32, 1, 128)> : !torch.vtensor<[1,?,1,128],f16>
    %int4_136 = torch.constant.int 4
    %int1_137 = torch.constant.int 1
    %int1_138 = torch.constant.int 1
    %int1_139 = torch.constant.int 1
    %415 = torch.prim.ListConstruct %int4_136, %int1_137, %int1_138, %int1_139 : (!torch.int, !torch.int, !torch.int, !torch.int) -> !torch.list<int>
    %416 = torch.aten.repeat %414, %415 : !torch.vtensor<[1,?,1,128],f16>, !torch.list<int> -> !torch.vtensor<[4,?,1,128],f16>
    torch.bind_symbolic_shape %416, [%294], affine_map<()[s0] -> (4, s0 * 32, 1, 128)> : !torch.vtensor<[4,?,1,128],f16>
    %int0_140 = torch.constant.int 0
    %417 = torch.aten.unsqueeze %410, %int0_140 : !torch.vtensor<[?,128],f16>, !torch.int -> !torch.vtensor<[1,?,128],f16>
    torch.bind_symbolic_shape %417, [%294], affine_map<()[s0] -> (1, s0 * 32, 128)> : !torch.vtensor<[1,?,128],f16>
    %int1_141 = torch.constant.int 1
    %int0_142 = torch.constant.int 0
    %int9223372036854775807_143 = torch.constant.int 9223372036854775807
    %int1_144 = torch.constant.int 1
    %418 = torch.aten.slice.Tensor %417, %int1_141, %int0_142, %int9223372036854775807_143, %int1_144 : !torch.vtensor<[1,?,128],f16>, !torch.int, !torch.int, !torch.int, !torch.int -> !torch.vtensor<[1,?,128],f16>
    torch.bind_symbolic_shape %418, [%294], affine_map<()[s0] -> (1, s0 * 32, 128)> : !torch.vtensor<[1,?,128],f16>
    %int2_145 = torch.constant.int 2
    %419 = torch.aten.unsqueeze %418, %int2_145 : !torch.vtensor<[1,?,128],f16>, !torch.int -> !torch.vtensor<[1,?,1,128],f16>
    torch.bind_symbolic_shape %419, [%294], affine_map<()[s0] -> (1, s0 * 32, 1, 128)> : !torch.vtensor<[1,?,1,128],f16>
    %int3_146 = torch.constant.int 3
    %int0_147 = torch.constant.int 0
    %int9223372036854775807_148 = torch.constant.int 9223372036854775807
    %int1_149 = torch.constant.int 1
    %420 = torch.aten.slice.Tensor %419, %int3_146, %int0_147, %int9223372036854775807_148, %int1_149 : !torch.vtensor<[1,?,1,128],f16>, !torch.int, !torch.int, !torch.int, !torch.int -> !torch.vtensor<[1,?,1,128],f16>
    torch.bind_symbolic_shape %420, [%294], affine_map<()[s0] -> (1, s0 * 32, 1, 128)> : !torch.vtensor<[1,?,1,128],f16>
    %int4_150 = torch.constant.int 4
    %int1_151 = torch.constant.int 1
    %int1_152 = torch.constant.int 1
    %int1_153 = torch.constant.int 1
    %421 = torch.prim.ListConstruct %int4_150, %int1_151, %int1_152, %int1_153 : (!torch.int, !torch.int, !torch.int, !torch.int) -> !torch.list<int>
    %422 = torch.aten.repeat %420, %421 : !torch.vtensor<[1,?,1,128],f16>, !torch.list<int> -> !torch.vtensor<[4,?,1,128],f16>
    torch.bind_symbolic_shape %422, [%294], affine_map<()[s0] -> (4, s0 * 32, 1, 128)> : !torch.vtensor<[4,?,1,128],f16>
    %423 = torch.aten.mul.Tensor %363, %416 : !torch.vtensor<[4,?,32,128],f16>, !torch.vtensor<[4,?,1,128],f16> -> !torch.vtensor<[4,?,32,128],f16>
    torch.bind_symbolic_shape %423, [%294], affine_map<()[s0] -> (4, s0 * 32, 32, 128)> : !torch.vtensor<[4,?,32,128],f16>
    %int3_154 = torch.constant.int 3
    %int0_155 = torch.constant.int 0
    %int64 = torch.constant.int 64
    %int1_156 = torch.constant.int 1
    %424 = torch.aten.slice.Tensor %363, %int3_154, %int0_155, %int64, %int1_156 : !torch.vtensor<[4,?,32,128],f16>, !torch.int, !torch.int, !torch.int, !torch.int -> !torch.vtensor<[4,?,32,64],f16>
    torch.bind_symbolic_shape %424, [%294], affine_map<()[s0] -> (4, s0 * 32, 32, 64)> : !torch.vtensor<[4,?,32,64],f16>
    %int3_157 = torch.constant.int 3
    %int64_158 = torch.constant.int 64
    %int9223372036854775807_159 = torch.constant.int 9223372036854775807
    %int1_160 = torch.constant.int 1
    %425 = torch.aten.slice.Tensor %363, %int3_157, %int64_158, %int9223372036854775807_159, %int1_160 : !torch.vtensor<[4,?,32,128],f16>, !torch.int, !torch.int, !torch.int, !torch.int -> !torch.vtensor<[4,?,32,64],f16>
    torch.bind_symbolic_shape %425, [%294], affine_map<()[s0] -> (4, s0 * 32, 32, 64)> : !torch.vtensor<[4,?,32,64],f16>
    %426 = torch.aten.neg %425 : !torch.vtensor<[4,?,32,64],f16> -> !torch.vtensor<[4,?,32,64],f16>
    torch.bind_symbolic_shape %426, [%294], affine_map<()[s0] -> (4, s0 * 32, 32, 64)> : !torch.vtensor<[4,?,32,64],f16>
    %427 = torch.prim.ListConstruct %426, %424 : (!torch.vtensor<[4,?,32,64],f16>, !torch.vtensor<[4,?,32,64],f16>) -> !torch.list<vtensor>
    %int-1_161 = torch.constant.int -1
    %428 = torch.aten.cat %427, %int-1_161 : !torch.list<vtensor>, !torch.int -> !torch.vtensor<[4,?,32,128],f16>
    torch.bind_symbolic_shape %428, [%294], affine_map<()[s0] -> (4, s0 * 32, 32, 128)> : !torch.vtensor<[4,?,32,128],f16>
    %429 = torch.aten.mul.Tensor %428, %422 : !torch.vtensor<[4,?,32,128],f16>, !torch.vtensor<[4,?,1,128],f16> -> !torch.vtensor<[4,?,32,128],f16>
    torch.bind_symbolic_shape %429, [%294], affine_map<()[s0] -> (4, s0 * 32, 32, 128)> : !torch.vtensor<[4,?,32,128],f16>
    %int1_162 = torch.constant.int 1
    %430 = torch.aten.add.Tensor %423, %429, %int1_162 : !torch.vtensor<[4,?,32,128],f16>, !torch.vtensor<[4,?,32,128],f16>, !torch.int -> !torch.vtensor<[4,?,32,128],f16>
    torch.bind_symbolic_shape %430, [%294], affine_map<()[s0] -> (4, s0 * 32, 32, 128)> : !torch.vtensor<[4,?,32,128],f16>
    %int131072_163 = torch.constant.int 131072
    %none_164 = torch.constant.none
    %none_165 = torch.constant.none
    %cpu_166 = torch.constant.device "cpu"
    %false_167 = torch.constant.bool false
    %431 = torch.aten.arange %int131072_163, %none_164, %none_165, %cpu_166, %false_167 : !torch.int, !torch.none, !torch.none, !torch.Device, !torch.bool -> !torch.vtensor<[131072],si64>
    %int0_168 = torch.constant.int 0
    %int128_169 = torch.constant.int 128
    %int2_170 = torch.constant.int 2
    %int4_171 = torch.constant.int 4
    %none_172 = torch.constant.none
    %cpu_173 = torch.constant.device "cpu"
    %false_174 = torch.constant.bool false
    %432 = torch.aten.arange.start_step %int0_168, %int128_169, %int2_170, %int4_171, %none_172, %cpu_173, %false_174 : !torch.int, !torch.int, !torch.int, !torch.int, !torch.none, !torch.Device, !torch.bool -> !torch.vtensor<[64],si64>
    %int6_175 = torch.constant.int 6
    %433 = torch.prims.convert_element_type %432, %int6_175 : !torch.vtensor<[64],si64>, !torch.int -> !torch.vtensor<[64],f32>
    %int128_176 = torch.constant.int 128
    %434 = torch.aten.div.Scalar %433, %int128_176 : !torch.vtensor<[64],f32>, !torch.int -> !torch.vtensor<[64],f32>
    %float5.000000e05_177 = torch.constant.float 5.000000e+05
    %435 = torch.aten.pow.Scalar %float5.000000e05_177, %434 : !torch.float, !torch.vtensor<[64],f32> -> !torch.vtensor<[64],f32>
    %436 = torch.aten.reciprocal %435 : !torch.vtensor<[64],f32> -> !torch.vtensor<[64],f32>
    %float1.000000e00_178 = torch.constant.float 1.000000e+00
    %437 = torch.aten.mul.Scalar %436, %float1.000000e00_178 : !torch.vtensor<[64],f32>, !torch.float -> !torch.vtensor<[64],f32>
    %438 = torch.aten.reciprocal %437 : !torch.vtensor<[64],f32> -> !torch.vtensor<[64],f32>
    %float6.283190e00_179 = torch.constant.float 6.2831853071795862
    %439 = torch.aten.mul.Scalar %438, %float6.283190e00_179 : !torch.vtensor<[64],f32>, !torch.float -> !torch.vtensor<[64],f32>
    %float8.192000e03_180 = torch.constant.float 8.192000e+03
    %440 = torch.aten.gt.Scalar %439, %float8.192000e03_180 : !torch.vtensor<[64],f32>, !torch.float -> !torch.vtensor<[64],i1>
    %int8_181 = torch.constant.int 8
    %441 = torch.aten.div.Scalar %437, %int8_181 : !torch.vtensor<[64],f32>, !torch.int -> !torch.vtensor<[64],f32>
    %442 = torch.aten.where.self %440, %441, %437 : !torch.vtensor<[64],i1>, !torch.vtensor<[64],f32>, !torch.vtensor<[64],f32> -> !torch.vtensor<[64],f32>
    %443 = torch.aten.reciprocal %439 : !torch.vtensor<[64],f32> -> !torch.vtensor<[64],f32>
    %int8192_182 = torch.constant.int 8192
    %444 = torch.aten.mul.Scalar %443, %int8192_182 : !torch.vtensor<[64],f32>, !torch.int -> !torch.vtensor<[64],f32>
    %int1_183 = torch.constant.int 1
    %int1_184 = torch.constant.int 1
    %445 = torch.aten.sub.Scalar %444, %int1_183, %int1_184 : !torch.vtensor<[64],f32>, !torch.int, !torch.int -> !torch.vtensor<[64],f32>
    %int3_185 = torch.constant.int 3
    %446 = torch.aten.div.Scalar %445, %int3_185 : !torch.vtensor<[64],f32>, !torch.int -> !torch.vtensor<[64],f32>
    %int1_186 = torch.constant.int 1
    %int1_187 = torch.constant.int 1
    %447 = torch.aten.rsub.Scalar %446, %int1_186, %int1_187 : !torch.vtensor<[64],f32>, !torch.int, !torch.int -> !torch.vtensor<[64],f32>
    %448 = torch.aten.mul.Tensor %447, %442 : !torch.vtensor<[64],f32>, !torch.vtensor<[64],f32> -> !torch.vtensor<[64],f32>
    %int8_188 = torch.constant.int 8
    %449 = torch.aten.div.Scalar %448, %int8_188 : !torch.vtensor<[64],f32>, !torch.int -> !torch.vtensor<[64],f32>
    %450 = torch.aten.mul.Tensor %446, %442 : !torch.vtensor<[64],f32>, !torch.vtensor<[64],f32> -> !torch.vtensor<[64],f32>
    %int1_189 = torch.constant.int 1
    %451 = torch.aten.add.Tensor %449, %450, %int1_189 : !torch.vtensor<[64],f32>, !torch.vtensor<[64],f32>, !torch.int -> !torch.vtensor<[64],f32>
    %float2.048000e03_190 = torch.constant.float 2.048000e+03
    %452 = torch.aten.lt.Scalar %439, %float2.048000e03_190 : !torch.vtensor<[64],f32>, !torch.float -> !torch.vtensor<[64],i1>
    %453 = torch.aten.bitwise_not %452 : !torch.vtensor<[64],i1> -> !torch.vtensor<[64],i1>
    %float8.192000e03_191 = torch.constant.float 8.192000e+03
    %454 = torch.aten.gt.Scalar %439, %float8.192000e03_191 : !torch.vtensor<[64],f32>, !torch.float -> !torch.vtensor<[64],i1>
    %455 = torch.aten.bitwise_not %454 : !torch.vtensor<[64],i1> -> !torch.vtensor<[64],i1>
    %456 = torch.aten.mul.Tensor %453, %455 : !torch.vtensor<[64],i1>, !torch.vtensor<[64],i1> -> !torch.vtensor<[64],i1>
    %457 = torch.aten.where.self %456, %451, %442 : !torch.vtensor<[64],i1>, !torch.vtensor<[64],f32>, !torch.vtensor<[64],f32> -> !torch.vtensor<[64],f32>
    %458 = torch.prim.ListConstruct %457, %457 : (!torch.vtensor<[64],f32>, !torch.vtensor<[64],f32>) -> !torch.list<vtensor>
    %int-1_192 = torch.constant.int -1
    %459 = torch.aten.cat %458, %int-1_192 : !torch.list<vtensor>, !torch.int -> !torch.vtensor<[128],f32>
    %int6_193 = torch.constant.int 6
    %460 = torch.prims.convert_element_type %459, %int6_193 : !torch.vtensor<[128],f32>, !torch.int -> !torch.vtensor<[128],f32>
    %int1_194 = torch.constant.int 1
    %461 = torch.aten.unsqueeze %431, %int1_194 : !torch.vtensor<[131072],si64>, !torch.int -> !torch.vtensor<[131072,1],si64>
    %int6_195 = torch.constant.int 6
    %462 = torch.prims.convert_element_type %461, %int6_195 : !torch.vtensor<[131072,1],si64>, !torch.int -> !torch.vtensor<[131072,1],f32>
    %int0_196 = torch.constant.int 0
    %463 = torch.aten.unsqueeze %460, %int0_196 : !torch.vtensor<[128],f32>, !torch.int -> !torch.vtensor<[1,128],f32>
    %int6_197 = torch.constant.int 6
    %464 = torch.prims.convert_element_type %463, %int6_197 : !torch.vtensor<[1,128],f32>, !torch.int -> !torch.vtensor<[1,128],f32>
    %465 = torch.aten.mul.Tensor %462, %464 : !torch.vtensor<[131072,1],f32>, !torch.vtensor<[1,128],f32> -> !torch.vtensor<[131072,128],f32>
    %466 = torch.aten.cos %465 : !torch.vtensor<[131072,128],f32> -> !torch.vtensor<[131072,128],f32>
    %int5_198 = torch.constant.int 5
    %467 = torch.prims.convert_element_type %466, %int5_198 : !torch.vtensor<[131072,128],f32>, !torch.int -> !torch.vtensor<[131072,128],f16>
    %468 = torch.aten.sin %465 : !torch.vtensor<[131072,128],f32> -> !torch.vtensor<[131072,128],f32>
    %int5_199 = torch.constant.int 5
    %469 = torch.prims.convert_element_type %468, %int5_199 : !torch.vtensor<[131072,128],f32>, !torch.int -> !torch.vtensor<[131072,128],f16>
    %int0_200 = torch.constant.int 0
    %int0_201 = torch.constant.int 0
    %int1_202 = torch.constant.int 1
    %470 = torch.aten.slice.Tensor %467, %int0_200, %int0_201, %298, %int1_202 : !torch.vtensor<[131072,128],f16>, !torch.int, !torch.int, !torch.int, !torch.int -> !torch.vtensor<[?,128],f16>
    torch.bind_symbolic_shape %470, [%294], affine_map<()[s0] -> (s0 * 32, 128)> : !torch.vtensor<[?,128],f16>
    %int1_203 = torch.constant.int 1
    %int0_204 = torch.constant.int 0
    %int9223372036854775807_205 = torch.constant.int 9223372036854775807
    %int1_206 = torch.constant.int 1
    %471 = torch.aten.slice.Tensor %470, %int1_203, %int0_204, %int9223372036854775807_205, %int1_206 : !torch.vtensor<[?,128],f16>, !torch.int, !torch.int, !torch.int, !torch.int -> !torch.vtensor<[?,128],f16>
    torch.bind_symbolic_shape %471, [%294], affine_map<()[s0] -> (s0 * 32, 128)> : !torch.vtensor<[?,128],f16>
    %int0_207 = torch.constant.int 0
    %int0_208 = torch.constant.int 0
    %int1_209 = torch.constant.int 1
    %472 = torch.aten.slice.Tensor %469, %int0_207, %int0_208, %298, %int1_209 : !torch.vtensor<[131072,128],f16>, !torch.int, !torch.int, !torch.int, !torch.int -> !torch.vtensor<[?,128],f16>
    torch.bind_symbolic_shape %472, [%294], affine_map<()[s0] -> (s0 * 32, 128)> : !torch.vtensor<[?,128],f16>
    %int1_210 = torch.constant.int 1
    %int0_211 = torch.constant.int 0
    %int9223372036854775807_212 = torch.constant.int 9223372036854775807
    %int1_213 = torch.constant.int 1
    %473 = torch.aten.slice.Tensor %472, %int1_210, %int0_211, %int9223372036854775807_212, %int1_213 : !torch.vtensor<[?,128],f16>, !torch.int, !torch.int, !torch.int, !torch.int -> !torch.vtensor<[?,128],f16>
    torch.bind_symbolic_shape %473, [%294], affine_map<()[s0] -> (s0 * 32, 128)> : !torch.vtensor<[?,128],f16>
    %int0_214 = torch.constant.int 0
    %474 = torch.aten.unsqueeze %471, %int0_214 : !torch.vtensor<[?,128],f16>, !torch.int -> !torch.vtensor<[1,?,128],f16>
    torch.bind_symbolic_shape %474, [%294], affine_map<()[s0] -> (1, s0 * 32, 128)> : !torch.vtensor<[1,?,128],f16>
…
    %7129 = torch.aten.mm %7128, %7126 : !torch.vtensor<[4,4096],f16>, !torch.vtensor<[4096,14336],f16> -> !torch.vtensor<[4,14336],f16>
    %int4_7694 = torch.constant.int 4
    %int1_7695 = torch.constant.int 1
    %int14336_7696 = torch.constant.int 14336
    %7130 = torch.prim.ListConstruct %int4_7694, %int1_7695, %int14336_7696 : (!torch.int, !torch.int, !torch.int) -> !torch.list<int>
    %7131 = torch.aten.view %7129, %7130 : !torch.vtensor<[4,14336],f16>, !torch.list<int> -> !torch.vtensor<[4,1,14336],f16>
    %7132 = torch.aten.mul.Tensor %7124, %7131 : !torch.vtensor<[4,1,14336],f16>, !torch.vtensor<[4,1,14336],f16> -> !torch.vtensor<[4,1,14336],f16>
    %int-2_7697 = torch.constant.int -2
    %int-1_7698 = torch.constant.int -1
    %7133 = torch.aten.transpose.int %435, %int-2_7697, %int-1_7698 : !torch.vtensor<[4096,14336],f16>, !torch.int, !torch.int -> !torch.vtensor<[14336,4096],f16>
    %int5_7699 = torch.constant.int 5
    %7134 = torch.prims.convert_element_type %7133, %int5_7699 : !torch.vtensor<[14336,4096],f16>, !torch.int -> !torch.vtensor<[14336,4096],f16>
    %int4_7700 = torch.constant.int 4
    %int14336_7701 = torch.constant.int 14336
    %7135 = torch.prim.ListConstruct %int4_7700, %int14336_7701 : (!torch.int, !torch.int) -> !torch.list<int>
    %7136 = torch.aten.view %7132, %7135 : !torch.vtensor<[4,1,14336],f16>, !torch.list<int> -> !torch.vtensor<[4,14336],f16>
    %7137 = torch.aten.mm %7136, %7134 : !torch.vtensor<[4,14336],f16>, !torch.vtensor<[14336,4096],f16> -> !torch.vtensor<[4,4096],f16>
    %int4_7702 = torch.constant.int 4
    %int1_7703 = torch.constant.int 1
    %int4096_7704 = torch.constant.int 4096
    %7138 = torch.prim.ListConstruct %int4_7702, %int1_7703, %int4096_7704 : (!torch.int, !torch.int, !torch.int) -> !torch.list<int>
    %7139 = torch.aten.view %7137, %7138 : !torch.vtensor<[4,4096],f16>, !torch.list<int> -> !torch.vtensor<[4,1,4096],f16>
    %int1_7705 = torch.constant.int 1
    %7140 = torch.aten.add.Tensor %7106, %7139, %int1_7705 : !torch.vtensor<[4,1,4096],f16>, !torch.vtensor<[4,1,4096],f16>, !torch.int -> !torch.vtensor<[4,1,4096],f16>
    %int6_7706 = torch.constant.int 6
    %7141 = torch.prims.convert_element_type %7140, %int6_7706 : !torch.vtensor<[4,1,4096],f16>, !torch.int -> !torch.vtensor<[4,1,4096],f32>
    %int2_7707 = torch.constant.int 2
    %7142 = torch.aten.pow.Tensor_Scalar %7141, %int2_7707 : !torch.vtensor<[4,1,4096],f32>, !torch.int -> !torch.vtensor<[4,1,4096],f32>
    %int-1_7708 = torch.constant.int -1
    %7143 = torch.prim.ListConstruct %int-1_7708 : (!torch.int) -> !torch.list<int>
    %true_7709 = torch.constant.bool true
    %none_7710 = torch.constant.none
    %7144 = torch.aten.mean.dim %7142, %7143, %true_7709, %none_7710 : !torch.vtensor<[4,1,4096],f32>, !torch.list<int>, !torch.bool, !torch.none -> !torch.vtensor<[4,1,1],f32>
    %float9.999990e-06_7711 = torch.constant.float 9.9999997473787516E-6
    %int1_7712 = torch.constant.int 1
    %7145 = torch.aten.add.Scalar %7144, %float9.999990e-06_7711, %int1_7712 : !torch.vtensor<[4,1,1],f32>, !torch.float, !torch.int -> !torch.vtensor<[4,1,1],f32>
    %7146 = torch.aten.rsqrt %7145 : !torch.vtensor<[4,1,1],f32> -> !torch.vtensor<[4,1,1],f32>
    %7147 = torch.aten.mul.Tensor %7141, %7146 : !torch.vtensor<[4,1,4096],f32>, !torch.vtensor<[4,1,1],f32> -> !torch.vtensor<[4,1,4096],f32>
    %int5_7713 = torch.constant.int 5
    %7148 = torch.prims.convert_element_type %7147, %int5_7713 : !torch.vtensor<[4,1,4096],f32>, !torch.int -> !torch.vtensor<[4,1,4096],f16>
    %7149 = torch.aten.mul.Tensor %436, %7148 : !torch.vtensor<[4096],f32>, !torch.vtensor<[4,1,4096],f16> -> !torch.vtensor<[4,1,4096],f32>
    %int5_7714 = torch.constant.int 5
    %7150 = torch.prims.convert_element_type %7149, %int5_7714 : !torch.vtensor<[4,1,4096],f32>, !torch.int -> !torch.vtensor<[4,1,4096],f16>
    %int-2_7715 = torch.constant.int -2
    %int-1_7716 = torch.constant.int -1
    %7151 = torch.aten.transpose.int %437, %int-2_7715, %int-1_7716 : !torch.vtensor<[4096,4096],f16>, !torch.int, !torch.int -> !torch.vtensor<[4096,4096],f16>
    %int5_7717 = torch.constant.int 5
    %7152 = torch.prims.convert_element_type %7151, %int5_7717 : !torch.vtensor<[4096,4096],f16>, !torch.int -> !torch.vtensor<[4096,4096],f16>
    %int4_7718 = torch.constant.int 4
    %int4096_7719 = torch.constant.int 4096
    %7153 = torch.prim.ListConstruct %int4_7718, %int4096_7719 : (!torch.int, !torch.int) -> !torch.list<int>
    %7154 = torch.aten.view %7150, %7153 : !torch.vtensor<[4,1,4096],f16>, !torch.list<int> -> !torch.vtensor<[4,4096],f16>
    %7155 = torch.aten.mm %7154, %7152 : !torch.vtensor<[4,4096],f16>, !torch.vtensor<[4096,4096],f16> -> !torch.vtensor<[4,4096],f16>
    %int4_7720 = torch.constant.int 4
    %int1_7721 = torch.constant.int 1
    %int4096_7722 = torch.constant.int 4096
    %7156 = torch.prim.ListConstruct %int4_7720, %int1_7721, %int4096_7722 : (!torch.int, !torch.int, !torch.int) -> !torch.list<int>
    %7157 = torch.aten.view %7155, %7156 : !torch.vtensor<[4,4096],f16>, !torch.list<int> -> !torch.vtensor<[4,1,4096],f16>
    %int-2_7723 = torch.constant.int -2
    %int-1_7724 = torch.constant.int -1
    %7158 = torch.aten.transpose.int %438, %int-2_7723, %int-1_7724 : !torch.vtensor<[1024,4096],f16>, !torch.int, !torch.int -> !torch.vtensor<[4096,1024],f16>
    %int5_7725 = torch.constant.int 5
    %7159 = torch.prims.convert_element_type %7158, %int5_7725 : !torch.vtensor<[4096,1024],f16>, !torch.int -> !torch.vtensor<[4096,1024],f16>
    %int4_7726 = torch.constant.int 4
    %int4096_7727 = torch.constant.int 4096
    %7160 = torch.prim.ListConstruct %int4_7726, %int4096_7727 : (!torch.int, !torch.int) -> !torch.list<int>
    %7161 = torch.aten.view %7150, %7160 : !torch.vtensor<[4,1,4096],f16>, !torch.list<int> -> !torch.vtensor<[4,4096],f16>
    %7162 = torch.aten.mm %7161, %7159 : !torch.vtensor<[4,4096],f16>, !torch.vtensor<[4096,1024],f16> -> !torch.vtensor<[4,1024],f16>
    %int4_7728 = torch.constant.int 4
    %int1_7729 = torch.constant.int 1
    %int1024_7730 = torch.constant.int 1024
    %7163 = torch.prim.ListConstruct %int4_7728, %int1_7729, %int1024_7730 : (!torch.int, !torch.int, !torch.int) -> !torch.list<int>
    %7164 = torch.aten.view %7162, %7163 : !torch.vtensor<[4,1024],f16>, !torch.list<int> -> !torch.vtensor<[4,1,1024],f16>
    %int-2_7731 = torch.constant.int -2
    %int-1_7732 = torch.constant.int -1
    %7165 = torch.aten.transpose.int %439, %int-2_7731, %int-1_7732 : !torch.vtensor<[1024,4096],f16>, !torch.int, !torch.int -> !torch.vtensor<[4096,1024],f16>
    %int5_7733 = torch.constant.int 5
    %7166 = torch.prims.convert_element_type %7165, %int5_7733 : !torch.vtensor<[4096,1024],f16>, !torch.int -> !torch.vtensor<[4096,1024],f16>
    %int4_7734 = torch.constant.int 4
    %int4096_7735 = torch.constant.int 4096
    %7167 = torch.prim.ListConstruct %int4_7734, %int4096_7735 : (!torch.int, !torch.int) -> !torch.list<int>
    %7168 = torch.aten.view %7150, %7167 : !torch.vtensor<[4,1,4096],f16>, !torch.list<int> -> !torch.vtensor<[4,4096],f16>
    %7169 = torch.aten.mm %7168, %7166 : !torch.vtensor<[4,4096],f16>, !torch.vtensor<[4096,1024],f16> -> !torch.vtensor<[4,1024],f16>
    %int4_7736 = torch.constant.int 4
    %int1_7737 = torch.constant.int 1
    %int1024_7738 = torch.constant.int 1024
    %7170 = torch.prim.ListConstruct %int4_7736, %int1_7737, %int1024_7738 : (!torch.int, !torch.int, !torch.int) -> !torch.list<int>
    %7171 = torch.aten.view %7169, %7170 : !torch.vtensor<[4,1024],f16>, !torch.list<int> -> !torch.vtensor<[4,1,1024],f16>
    %int4_7739 = torch.constant.int 4
    %int1_7740 = torch.constant.int 1
    %int32_7741 = torch.constant.int 32
    %int128_7742 = torch.constant.int 128
    %7172 = torch.prim.ListConstruct %int4_7739, %int1_7740, %int32_7741, %int128_7742 : (!torch.int, !torch.int, !torch.int, !torch.int) -> !torch.list<int>
    %7173 = torch.aten.view %7157, %7172 : !torch.vtensor<[4,1,4096],f16>, !torch.list<int> -> !torch.vtensor<[4,1,32,128],f16>
    %int4_7743 = torch.constant.int 4
    %int1_7744 = torch.constant.int 1
    %int8_7745 = torch.constant.int 8
    %int128_7746 = torch.constant.int 128
    %7174 = torch.prim.ListConstruct %int4_7743, %int1_7744, %int8_7745, %int128_7746 : (!torch.int, !torch.int, !torch.int, !torch.int) -> !torch.list<int>
    %7175 = torch.aten.view %7164, %7174 : !torch.vtensor<[4,1,1024],f16>, !torch.list<int> -> !torch.vtensor<[4,1,8,128],f16>
    %int4_7747 = torch.constant.int 4
    %int1_7748 = torch.constant.int 1
    %int8_7749 = torch.constant.int 8
    %int128_7750 = torch.constant.int 128
    %7176 = torch.prim.ListConstruct %int4_7747, %int1_7748, %int8_7749, %int128_7750 : (!torch.int, !torch.int, !torch.int, !torch.int) -> !torch.list<int>
    %7177 = torch.aten.view %7171, %7176 : !torch.vtensor<[4,1,1024],f16>, !torch.list<int> -> !torch.vtensor<[4,1,8,128],f16>
    %int1_7751 = torch.constant.int 1
    %int2_7752 = torch.constant.int 2
    %7178 = torch.aten.transpose.int %7173, %int1_7751, %int2_7752 : !torch.vtensor<[4,1,32,128],f16>, !torch.int, !torch.int -> !torch.vtensor<[4,32,1,128],f16>
    %7179 = torch.aten.mul.Tensor %7178, %527 : !torch.vtensor<[4,32,1,128],f16>, !torch.vtensor<[4,1,1,128],f16> -> !torch.vtensor<[4,32,1,128],f16>
    %int3_7753 = torch.constant.int 3
    %int0_7754 = torch.constant.int 0
    %int64_7755 = torch.constant.int 64
    %int1_7756 = torch.constant.int 1
    %7180 = torch.aten.slice.Tensor %7178, %int3_7753, %int0_7754, %int64_7755, %int1_7756 : !torch.vtensor<[4,32,1,128],f16>, !torch.int, !torch.int, !torch.int, !torch.int -> !torch.vtensor<[4,32,1,64],f16>
    %int3_7757 = torch.constant.int 3
    %int64_7758 = torch.constant.int 64
    %int9223372036854775807_7759 = torch.constant.int 9223372036854775807
    %int1_7760 = torch.constant.int 1
    %7181 = torch.aten.slice.Tensor %7178, %int3_7757, %int64_7758, %int9223372036854775807_7759, %int1_7760 : !torch.vtensor<[4,32,1,128],f16>, !torch.int, !torch.int, !torch.int, !torch.int -> !torch.vtensor<[4,32,1,64],f16>
    %7182 = torch.aten.neg %7181 : !torch.vtensor<[4,32,1,64],f16> -> !torch.vtensor<[4,32,1,64],f16>
    %7183 = torch.prim.ListConstruct %7182, %7180 : (!torch.vtensor<[4,32,1,64],f16>, !torch.vtensor<[4,32,1,64],f16>) -> !torch.list<vtensor>
    %int-1_7761 = torch.constant.int -1
    %7184 = torch.aten.cat %7183, %int-1_7761 : !torch.list<vtensor>, !torch.int -> !torch.vtensor<[4,32,1,128],f16>
    %7185 = torch.aten.mul.Tensor %7184, %531 : !torch.vtensor<[4,32,1,128],f16>, !torch.vtensor<[4,1,1,128],f16> -> !torch.vtensor<[4,32,1,128],f16>
    %int1_7762 = torch.constant.int 1
    %7186 = torch.aten.add.Tensor %7179, %7185, %int1_7762 : !torch.vtensor<[4,32,1,128],f16>, !torch.vtensor<[4,32,1,128],f16>, !torch.int -> !torch.vtensor<[4,32,1,128],f16>
    %int1_7763 = torch.constant.int 1
    %int2_7764 = torch.constant.int 2
    %7187 = torch.aten.transpose.int %7186, %int1_7763, %int2_7764 : !torch.vtensor<[4,32,1,128],f16>, !torch.int, !torch.int -> !torch.vtensor<[4,1,32,128],f16>
    %int1_7765 = torch.constant.int 1
    %int2_7766 = torch.constant.int 2
    %7188 = torch.aten.transpose.int %7175, %int1_7765, %int2_7766 : !torch.vtensor<[4,1,8,128],f16>, !torch.int, !torch.int -> !torch.vtensor<[4,8,1,128],f16>
    %7189 = torch.aten.mul.Tensor %7188, %527 : !torch.vtensor<[4,8,1,128],f16>, !torch.vtensor<[4,1,1,128],f16> -> !torch.vtensor<[4,8,1,128],f16>
    %int3_7767 = torch.constant.int 3
    %int0_7768 = torch.constant.int 0
    %int64_7769 = torch.constant.int 64
    %int1_7770 = torch.constant.int 1
    %7190 = torch.aten.slice.Tensor %7188, %int3_7767, %int0_7768, %int64_7769, %int1_7770 : !torch.vtensor<[4,8,1,128],f16>, !torch.int, !torch.int, !torch.int, !torch.int -> !torch.vtensor<[4,8,1,64],f16>
    %int3_7771 = torch.constant.int 3
    %int64_7772 = torch.constant.int 64
    %int9223372036854775807_7773 = torch.constant.int 9223372036854775807
    %int1_7774 = torch.constant.int 1
    %7191 = torch.aten.slice.Tensor %7188, %int3_7771, %int64_7772, %int9223372036854775807_7773, %int1_7774 : !torch.vtensor<[4,8,1,128],f16>, !torch.int, !torch.int, !torch.int, !torch.int -> !torch.vtensor<[4,8,1,64],f16>
    %7192 = torch.aten.neg %7191 : !torch.vtensor<[4,8,1,64],f16> -> !torch.vtensor<[4,8,1,64],f16>
    %7193 = torch.prim.ListConstruct %7192, %7190 : (!torch.vtensor<[4,8,1,64],f16>, !torch.vtensor<[4,8,1,64],f16>) -> !torch.list<vtensor>
    %int-1_7775 = torch.constant.int -1
    %7194 = torch.aten.cat %7193, %int-1_7775 : !torch.list<vtensor>, !torch.int -> !torch.vtensor<[4,8,1,128],f16>
    %7195 = torch.aten.mul.Tensor %7194, %531 : !torch.vtensor<[4,8,1,128],f16>, !torch.vtensor<[4,1,1,128],f16> -> !torch.vtensor<[4,8,1,128],f16>
    %int1_7776 = torch.constant.int 1
    %7196 = torch.aten.add.Tensor %7189, %7195, %int1_7776 : !torch.vtensor<[4,8,1,128],f16>, !torch.vtensor<[4,8,1,128],f16>, !torch.int -> !torch.vtensor<[4,8,1,128],f16>
    %int1_7777 = torch.constant.int 1
    %int2_7778 = torch.constant.int 2
    %7197 = torch.aten.transpose.int %7196, %int1_7777, %int2_7778 : !torch.vtensor<[4,8,1,128],f16>, !torch.int, !torch.int -> !torch.vtensor<[4,1,8,128],f16>
    %int32_7779 = torch.constant.int 32
    %7198 = torch.aten.floor_divide.Scalar %arg2, %int32_7779 : !torch.vtensor<[4],si64>, !torch.int -> !torch.vtensor<[4],si64>
    %int1_7780 = torch.constant.int 1
    %7199 = torch.aten.unsqueeze %7198, %int1_7780 : !torch.vtensor<[4],si64>, !torch.int -> !torch.vtensor<[4,1],si64>
    %int1_7781 = torch.constant.int 1
    %false_7782 = torch.constant.bool false
    %7200 = torch.aten.gather %arg3, %int1_7781, %7199, %false_7782 : !torch.vtensor<[4,?],si64>, !torch.int, !torch.vtensor<[4,1],si64>, !torch.bool -> !torch.vtensor<[4,1],si64>
    %int4_7783 = torch.constant.int 4
    %int1_7784 = torch.constant.int 1
    %int1_7785 = torch.constant.int 1
    %7201 = torch.prim.ListConstruct %int4_7783, %int1_7784, %int1_7785 : (!torch.int, !torch.int, !torch.int) -> !torch.list<int>
    %7202 = torch.aten.view %7200, %7201 : !torch.vtensor<[4,1],si64>, !torch.list<int> -> !torch.vtensor<[4,1,1],si64>
    %int32_7786 = torch.constant.int 32
    %7203 = torch.aten.remainder.Scalar %arg2, %int32_7786 : !torch.vtensor<[4],si64>, !torch.int -> !torch.vtensor<[4],si64>
    %int4_7787 = torch.constant.int 4
    %int1_7788 = torch.constant.int 1
    %int1_7789 = torch.constant.int 1
    %7204 = torch.prim.ListConstruct %int4_7787, %int1_7788, %int1_7789 : (!torch.int, !torch.int, !torch.int) -> !torch.list<int>
    %7205 = torch.aten.view %7203, %7204 : !torch.vtensor<[4],si64>, !torch.list<int> -> !torch.vtensor<[4,1,1],si64>
    %int8_7790 = torch.constant.int 8
    %none_7791 = torch.constant.none
    %none_7792 = torch.constant.none
    %cpu_7793 = torch.constant.device "cpu"
    %false_7794 = torch.constant.bool false
    %7206 = torch.aten.arange %int8_7790, %none_7791, %none_7792, %cpu_7793, %false_7794 : !torch.int, !torch.none, !torch.none, !torch.Device, !torch.bool -> !torch.vtensor<[8],si64>
    %int1_7795 = torch.constant.int 1
    %int1_7796 = torch.constant.int 1
    %int8_7797 = torch.constant.int 8
    %7207 = torch.prim.ListConstruct %int1_7795, %int1_7796, %int8_7797 : (!torch.int, !torch.int, !torch.int) -> !torch.list<int>
    %7208 = torch.aten.view %7206, %7207 : !torch.vtensor<[8],si64>, !torch.list<int> -> !torch.vtensor<[1,1,8],si64>
    %none_7798 = torch.constant.none
    %7209 = torch.aten.clone %440, %none_7798 : !torch.vtensor<[],si64>, !torch.none -> !torch.vtensor<[],si64>
    %7210 = torch.aten.detach %7209 : !torch.vtensor<[],si64> -> !torch.vtensor<[],si64>
    %7211 = torch.aten.detach %7210 : !torch.vtensor<[],si64> -> !torch.vtensor<[],si64>
    %7212 = torch.aten.detach %7211 : !torch.vtensor<[],si64> -> !torch.vtensor<[],si64>
    %int1_7799 = torch.constant.int 1
    %int1_7800 = torch.constant.int 1
    %int1_7801 = torch.constant.int 1
    %7213 = torch.prim.ListConstruct %int1_7799, %int1_7800, %int1_7801 : (!torch.int, !torch.int, !torch.int) -> !torch.list<int>
    %7214 = torch.aten.view %7212, %7213 : !torch.vtensor<[],si64>, !torch.list<int> -> !torch.vtensor<[1,1,1],si64>
    %int32_7802 = torch.constant.int 32
    %7215 = torch.aten.mul.Scalar %7202, %int32_7802 : !torch.vtensor<[4,1,1],si64>, !torch.int -> !torch.vtensor<[4,1,1],si64>
    %int31 = torch.constant.int 31
    %int1_7803 = torch.constant.int 1
    %7216 = torch.aten.add.Scalar %7215, %int31, %int1_7803 : !torch.vtensor<[4,1,1],si64>, !torch.int, !torch.int -> !torch.vtensor<[4,1,1],si64>
    %int2_7804 = torch.constant.int 2
    %7217 = torch.aten.mul.Scalar %7216, %int2_7804 : !torch.vtensor<[4,1,1],si64>, !torch.int -> !torch.vtensor<[4,1,1],si64>
    %int1_7805 = torch.constant.int 1
    %7218 = torch.aten.add.Tensor %7217, %7214, %int1_7805 : !torch.vtensor<[4,1,1],si64>, !torch.vtensor<[1,1,1],si64>, !torch.int -> !torch.vtensor<[4,1,1],si64>
    %int8_7806 = torch.constant.int 8
    %7219 = torch.aten.mul.Scalar %7218, %int8_7806 : !torch.vtensor<[4,1,1],si64>, !torch.int -> !torch.vtensor<[4,1,1],si64>
    %int1_7807 = torch.constant.int 1
    %7220 = torch.aten.add.Tensor %7219, %7208, %int1_7807 : !torch.vtensor<[4,1,1],si64>, !torch.vtensor<[1,1,8],si64>, !torch.int -> !torch.vtensor<[4,1,8],si64>
    %int32_7808 = torch.constant.int 32
    %7221 = torch.aten.mul.Scalar %7220, %int32_7808 : !torch.vtensor<[4,1,8],si64>, !torch.int -> !torch.vtensor<[4,1,8],si64>
    %int1_7809 = torch.constant.int 1
    %7222 = torch.aten.add.Tensor %7221, %7205, %int1_7809 : !torch.vtensor<[4,1,8],si64>, !torch.vtensor<[4,1,1],si64>, !torch.int -> !torch.vtensor<[4,1,8],si64>
    %int5_7810 = torch.constant.int 5
    %7223 = torch.prims.convert_element_type %7197, %int5_7810 : !torch.vtensor<[4,1,8,128],f16>, !torch.int -> !torch.vtensor<[4,1,8,128],f16>
    %int32_7811 = torch.constant.int 32
    %int2_7812 = torch.constant.int 2
    %int8_7813 = torch.constant.int 8
    %int32_7814 = torch.constant.int 32
    %int128_7815 = torch.constant.int 128
    %7224 = torch.prim.ListConstruct %456, %int32_7811, %int2_7812, %int8_7813, %int32_7814, %int128_7815 : (!torch.int, !torch.int, !torch.int, !torch.int, !torch.int, !torch.int) -> !torch.list<int>
    %7225 = torch.aten.view %7045, %7224 : !torch.vtensor<[?,2097152],f16>, !torch.list<int> -> !torch.vtensor<[?,32,2,8,32,128],f16>
    torch.bind_symbolic_shape %7225, [%454], affine_map<()[s0] -> (s0, 32, 2, 8, 32, 128)> : !torch.vtensor<[?,32,2,8,32,128],f16>
    %int128_7816 = torch.constant.int 128
    %7226 = torch.prim.ListConstruct %596, %int128_7816 : (!torch.int, !torch.int) -> !torch.list<int>
    %7227 = torch.aten.view %7225, %7226 : !torch.vtensor<[?,32,2,8,32,128],f16>, !torch.list<int> -> !torch.vtensor<[?,128],f16>
    torch.bind_symbolic_shape %7227, [%454], affine_map<()[s0] -> (s0 * 16384, 128)> : !torch.vtensor<[?,128],f16>
    %7228 = torch.prim.ListConstruct %7222 : (!torch.vtensor<[4,1,8],si64>) -> !torch.list<optional<vtensor>>
    %false_7817 = torch.constant.bool false
    %7229 = torch.aten.index_put %7227, %7228, %7223, %false_7817 : !torch.vtensor<[?,128],f16>, !torch.list<optional<vtensor>>, !torch.vtensor<[4,1,8,128],f16>, !torch.bool -> !torch.vtensor<[?,128],f16>
    torch.bind_symbolic_shape %7229, [%454], affine_map<()[s0] -> (s0 * 16384, 128)> : !torch.vtensor<[?,128],f16>
    %int32_7818 = torch.constant.int 32
    %int2_7819 = torch.constant.int 2
    %int8_7820 = torch.constant.int 8
    %int32_7821 = torch.constant.int 32
    %int128_7822 = torch.constant.int 128
    %7230 = torch.prim.ListConstruct %456, %int32_7818, %int2_7819, %int8_7820, %int32_7821, %int128_7822 : (!torch.int, !torch.int, !torch.int, !torch.int, !torch.int, !torch.int) -> !torch.list<int>
    %7231 = torch.aten.view %7229, %7230 : !torch.vtensor<[?,128],f16>, !torch.list<int> -> !torch.vtensor<[?,32,2,8,32,128],f16>
    torch.bind_symbolic_shape %7231, [%454], affine_map<()[s0] -> (s0, 32, 2, 8, 32, 128)> : !torch.vtensor<[?,32,2,8,32,128],f16>
    %int2097152_7823 = torch.constant.int 2097152
    %7232 = torch.prim.ListConstruct %456, %int2097152_7823 : (!torch.int, !torch.int) -> !torch.list<int>
    %7233 = torch.aten.view %7231, %7232 : !torch.vtensor<[?,32,2,8,32,128],f16>, !torch.list<int> -> !torch.vtensor<[?,2097152],f16>
    torch.bind_symbolic_shape %7233, [%454], affine_map<()[s0] -> (s0, 2097152)> : !torch.vtensor<[?,2097152],f16>
    %int32_7824 = torch.constant.int 32
    %int2_7825 = torch.constant.int 2
    %int8_7826 = torch.constant.int 8
    %int32_7827 = torch.constant.int 32
    %int128_7828 = torch.constant.int 128
    %7234 = torch.prim.ListConstruct %456, %int32_7824, %int2_7825, %int8_7826, %int32_7827, %int128_7828 : (!torch.int, !torch.int, !torch.int, !torch.int, !torch.int, !torch.int) -> !torch.list<int>
    %7235 = torch.aten.view %7233, %7234 : !torch.vtensor<[?,2097152],f16>, !torch.list<int> -> !torch.vtensor<[?,32,2,8,32,128],f16>
    torch.bind_symbolic_shape %7235, [%454], affine_map<()[s0] -> (s0, 32, 2, 8, 32, 128)> : !torch.vtensor<[?,32,2,8,32,128],f16>
    %int128_7829 = torch.constant.int 128
    %7236 = torch.prim.ListConstruct %596, %int128_7829 : (!torch.int, !torch.int) -> !torch.list<int>
    %7237 = torch.aten.view %7235, %7236 : !torch.vtensor<[?,32,2,8,32,128],f16>, !torch.list<int> -> !torch.vtensor<[?,128],f16>
    torch.bind_symbolic_shape %7237, [%454], affine_map<()[s0] -> (s0 * 16384, 128)> : !torch.vtensor<[?,128],f16>
    %none_7830 = torch.constant.none
    %7238 = torch.aten.clone %441, %none_7830 : !torch.vtensor<[],si64>, !torch.none -> !torch.vtensor<[],si64>
    %7239 = torch.aten.detach %7238 : !torch.vtensor<[],si64> -> !torch.vtensor<[],si64>
    %7240 = torch.aten.detach %7239 : !torch.vtensor<[],si64> -> !torch.vtensor<[],si64>
    %7241 = torch.aten.detach %7240 : !torch.vtensor<[],si64> -> !torch.vtensor<[],si64>
    %int1_7831 = torch.constant.int 1
    %int1_7832 = torch.constant.int 1
    %int1_7833 = torch.constant.int 1
    %7242 = torch.prim.ListConstruct %int1_7831, %int1_7832, %int1_7833 : (!torch.int, !torch.int, !torch.int) -> !torch.list<int>
    %7243 = torch.aten.view %7241, %7242 : !torch.vtensor<[],si64>, !torch.list<int> -> !torch.vtensor<[1,1,1],si64>
    %int32_7834 = torch.constant.int 32
    %7244 = torch.aten.mul.Scalar %7202, %int32_7834 : !torch.vtensor<[4,1,1],si64>, !torch.int -> !torch.vtensor<[4,1,1],si64>
    %int31_7835 = torch.constant.int 31
    %int1_7836 = torch.constant.int 1
    %7245 = torch.aten.add.Scalar %7244, %int31_7835, %int1_7836 : !torch.vtensor<[4,1,1],si64>, !torch.int, !torch.int -> !torch.vtensor<[4,1,1],si64>
    %int2_7837 = torch.constant.int 2
    %7246 = torch.aten.mul.Scalar %7245, %int2_7837 : !torch.vtensor<[4,1,1],si64>, !torch.int -> !torch.vtensor<[4,1,1],si64>
    %int1_7838 = torch.constant.int 1
    %7247 = torch.aten.add.Tensor %7246, %7243, %int1_7838 : !torch.vtensor<[4,1,1],si64>, !torch.vtensor<[1,1,1],si64>, !torch.int -> !torch.vtensor<[4,1,1],si64>
    %int8_7839 = torch.constant.int 8
    %7248 = torch.aten.mul.Scalar %7247, %int8_7839 : !torch.vtensor<[4,1,1],si64>, !torch.int -> !torch.vtensor<[4,1,1],si64>
    %int1_7840 = torch.constant.int 1
    %7249 = torch.aten.add.Tensor %7248, %7208, %int1_7840 : !torch.vtensor<[4,1,1],si64>, !torch.vtensor<[1,1,8],si64>, !torch.int -> !torch.vtensor<[4,1,8],si64>
    %int32_7841 = torch.constant.int 32
    %7250 = torch.aten.mul.Scalar %7249, %int32_7841 : !torch.vtensor<[4,1,8],si64>, !torch.int -> !torch.vtensor<[4,1,8],si64>
    %int1_7842 = torch.constant.int 1
    %7251 = torch.aten.add.Tensor %7250, %7205, %int1_7842 : !torch.vtensor<[4,1,8],si64>, !torch.vtensor<[4,1,1],si64>, !torch.int -> !torch.vtensor<[4,1,8],si64>
    %int5_7843 = torch.constant.int 5
    %7252 = torch.prims.convert_element_type %7177, %int5_7843 : !torch.vtensor<[4,1,8,128],f16>, !torch.int -> !torch.vtensor<[4,1,8,128],f16>
    %7253 = torch.prim.ListConstruct %7251 : (!torch.vtensor<[4,1,8],si64>) -> !torch.list<optional<vtensor>>
    %false_7844 = torch.constant.bool false
    %7254 = torch.aten.index_put %7237, %7253, %7252, %false_7844 : !torch.vtensor<[?,128],f16>, !torch.list<optional<vtensor>>, !torch.vtensor<[4,1,8,128],f16>, !torch.bool -> !torch.vtensor<[?,128],f16>
    torch.bind_symbolic_shape %7254, [%454], affine_map<()[s0] -> (s0 * 16384, 128)> : !torch.vtensor<[?,128],f16>
    %int32_7845 = torch.constant.int 32
    %int2_7846 = torch.constant.int 2
    %int8_7847 = torch.constant.int 8
    %int32_7848 = torch.constant.int 32
    %int128_7849 = torch.constant.int 128
    %7255 = torch.prim.ListConstruct %456, %int32_7845, %int2_7846, %int8_7847, %int32_7848, %int128_7849 : (!torch.int, !torch.int, !torch.int, !torch.int, !torch.int, !torch.int) -> !torch.list<int>
    %7256 = torch.aten.view %7254, %7255 : !torch.vtensor<[?,128],f16>, !torch.list<int> -> !torch.vtensor<[?,32,2,8,32,128],f16>
    torch.bind_symbolic_shape %7256, [%454], affine_map<()[s0] -> (s0, 32, 2, 8, 32, 128)> : !torch.vtensor<[?,32,2,8,32,128],f16>
    %int2097152_7850 = torch.constant.int 2097152
    %7257 = torch.prim.ListConstruct %456, %int2097152_7850 : (!torch.int, !torch.int) -> !torch.list<int>
    %7258 = torch.aten.view %7256, %7257 : !torch.vtensor<[?,32,2,8,32,128],f16>, !torch.list<int> -> !torch.vtensor<[?,2097152],f16>
    torch.overwrite.tensor.contents %7258 overwrites %arg4 : !torch.vtensor<[?,2097152],f16>, !torch.tensor<[?,2097152],f16>
    torch.bind_symbolic_shape %7258, [%454], affine_map<()[s0] -> (s0, 2097152)> : !torch.vtensor<[?,2097152],f16>
    %none_7851 = torch.constant.none
    %7259 = torch.aten.clone %442, %none_7851 : !torch.vtensor<[],si64>, !torch.none -> !torch.vtensor<[],si64>
    %7260 = torch.aten.detach %7259 : !torch.vtensor<[],si64> -> !torch.vtensor<[],si64>
    %7261 = torch.aten.detach %7260 : !torch.vtensor<[],si64> -> !torch.vtensor<[],si64>
    %7262 = torch.aten.detach %7261 : !torch.vtensor<[],si64> -> !torch.vtensor<[],si64>
    %none_7852 = torch.constant.none
    %7263 = torch.aten.clone %443, %none_7852 : !torch.vtensor<[],si64>, !torch.none -> !torch.vtensor<[],si64>
    %7264 = torch.aten.detach %7263 : !torch.vtensor<[],si64> -> !torch.vtensor<[],si64>
    %7265 = torch.aten.detach %7264 : !torch.vtensor<[],si64> -> !torch.vtensor<[],si64>
    %7266 = torch.aten.detach %7265 : !torch.vtensor<[],si64> -> !torch.vtensor<[],si64>
    %none_7853 = torch.constant.none
    %7267 = torch.aten.clone %444, %none_7853 : !torch.vtensor<[],si64>, !torch.none -> !torch.vtensor<[],si64>
    %7268 = torch.aten.detach %7267 : !torch.vtensor<[],si64> -> !torch.vtensor<[],si64>
    %7269 = torch.aten.detach %7268 : !torch.vtensor<[],si64> -> !torch.vtensor<[],si64>
    %7270 = torch.aten.detach %7269 : !torch.vtensor<[],si64> -> !torch.vtensor<[],si64>
    %int32_7854 = torch.constant.int 32
    %int2_7855 = torch.constant.int 2
    %int8_7856 = torch.constant.int 8
    %int32_7857 = torch.constant.int 32
    %int128_7858 = torch.constant.int 128
    %7271 = torch.prim.ListConstruct %456, %int32_7854, %int2_7855, %int8_7856, %int32_7857, %int128_7858 : (!torch.int, !torch.int, !torch.int, !torch.int, !torch.int, !torch.int) -> !torch.list<int>
    %7272 = torch.aten.view %7258, %7271 : !torch.vtensor<[?,2097152],f16>, !torch.list<int> -> !torch.vtensor<[?,32,2,8,32,128],f16>
    torch.bind_symbolic_shape %7272, [%454], affine_map<()[s0] -> (s0, 32, 2, 8, 32, 128)> : !torch.vtensor<[?,32,2,8,32,128],f16>
    %7273 = torch_c.to_builtin_tensor %7272 : !torch.vtensor<[?,32,2,8,32,128],f16> -> tensor<?x32x2x8x32x128xf16>
    %7274 = torch_c.to_builtin_tensor %arg3 : !torch.vtensor<[4,?],si64> -> tensor<4x?xi64>
    %cast_7859 = tensor.cast %7274 : tensor<4x?xi64> to tensor<?x?xi64>
    %7275 = torch_c.to_builtin_tensor %7262 : !torch.vtensor<[],si64> -> tensor<i64>
    %7276 = torch_c.to_builtin_tensor %7266 : !torch.vtensor<[],si64> -> tensor<i64>
    %7277 = util.call @paged_attention_kv_cache_gather_CACHE_SIZE_T_BLOCK_32_PART_2_HEAD_COUNT_KV_8_BLOCK_SEQ_STRIDE_32_ATTN_HEAD_DIM_128_f16_BATCH_PAGES_i64__i64__i64_BATCH_PAGES_HEAD_COUNT_KV_8_BLOCK_SEQ_STRIDE_32_ATTN_HEAD_DIM_128_f16(%7273, %cast_7859, %7275, %7276) : (tensor<?x32x2x8x32x128xf16>, tensor<?x?xi64>, tensor<i64>, tensor<i64>) -> tensor<?x?x8x32x128xf16>
    %cast_7860 = tensor.cast %7277 : tensor<?x?x8x32x128xf16> to tensor<4x?x8x32x128xf16>
    %7278 = torch_c.from_builtin_tensor %cast_7860 : tensor<4x?x8x32x128xf16> -> !torch.vtensor<[4,?,8,32,128],f16>
    torch.bind_symbolic_shape %7278, [%453], affine_map<()[s0] -> (4, s0, 8, 32, 128)> : !torch.vtensor<[4,?,8,32,128],f16>
    %7279 = torch_c.to_builtin_tensor %7272 : !torch.vtensor<[?,32,2,8,32,128],f16> -> tensor<?x32x2x8x32x128xf16>
    %7280 = torch_c.to_builtin_tensor %arg3 : !torch.vtensor<[4,?],si64> -> tensor<4x?xi64>
    %cast_7861 = tensor.cast %7280 : tensor<4x?xi64> to tensor<?x?xi64>
    %7281 = torch_c.to_builtin_tensor %7262 : !torch.vtensor<[],si64> -> tensor<i64>
    %7282 = torch_c.to_builtin_tensor %7270 : !torch.vtensor<[],si64> -> tensor<i64>
    %7283 = util.call @paged_attention_kv_cache_gather_CACHE_SIZE_T_BLOCK_32_PART_2_HEAD_COUNT_KV_8_BLOCK_SEQ_STRIDE_32_ATTN_HEAD_DIM_128_f16_BATCH_PAGES_i64__i64__i64_BATCH_PAGES_HEAD_COUNT_KV_8_BLOCK_SEQ_STRIDE_32_ATTN_HEAD_DIM_128_f16(%7279, %cast_7861, %7281, %7282) : (tensor<?x32x2x8x32x128xf16>, tensor<?x?xi64>, tensor<i64>, tensor<i64>) -> tensor<?x?x8x32x128xf16>
    %cast_7862 = tensor.cast %7283 : tensor<?x?x8x32x128xf16> to tensor<4x?x8x32x128xf16>
    %7284 = torch_c.from_builtin_tensor %cast_7862 : tensor<4x?x8x32x128xf16> -> !torch.vtensor<[4,?,8,32,128],f16>
    torch.bind_symbolic_shape %7284, [%453], affine_map<()[s0] -> (4, s0, 8, 32, 128)> : !torch.vtensor<[4,?,8,32,128],f16>
    %int2_7863 = torch.constant.int 2
    %int3_7864 = torch.constant.int 3
    %7285 = torch.aten.transpose.int %7278, %int2_7863, %int3_7864 : !torch.vtensor<[4,?,8,32,128],f16>, !torch.int, !torch.int -> !torch.vtensor<[4,?,32,8,128],f16>
    torch.bind_symbolic_shape %7285, [%453], affine_map<()[s0] -> (4, s0, 32, 8, 128)> : !torch.vtensor<[4,?,32,8,128],f16>
    %int0_7865 = torch.constant.int 0
    %7286 = torch.aten.clone %7285, %int0_7865 : !torch.vtensor<[4,?,32,8,128],f16>, !torch.int -> !torch.vtensor<[4,?,32,8,128],f16>
    torch.bind_symbolic_shape %7286, [%453], affine_map<()[s0] -> (4, s0, 32, 8, 128)> : !torch.vtensor<[4,?,32,8,128],f16>
    %int4_7866 = torch.constant.int 4
    %int8_7867 = torch.constant.int 8
    %int128_7868 = torch.constant.int 128
    %7287 = torch.prim.ListConstruct %int4_7866, %457, %int8_7867, %int128_7868 : (!torch.int, !torch.int, !torch.int, !torch.int) -> !torch.list<int>
    %7288 = torch.aten._unsafe_view %7286, %7287 : !torch.vtensor<[4,?,32,8,128],f16>, !torch.list<int> -> !torch.vtensor<[4,?,8,128],f16>
    torch.bind_symbolic_shape %7288, [%453], affine_map<()[s0] -> (4, s0 * 32, 8, 128)> : !torch.vtensor<[4,?,8,128],f16>
    %int2_7869 = torch.constant.int 2
    %int3_7870 = torch.constant.int 3
    %7289 = torch.aten.transpose.int %7284, %int2_7869, %int3_7870 : !torch.vtensor<[4,?,8,32,128],f16>, !torch.int, !torch.int -> !torch.vtensor<[4,?,32,8,128],f16>
    torch.bind_symbolic_shape %7289, [%453], affine_map<()[s0] -> (4, s0, 32, 8, 128)> : !torch.vtensor<[4,?,32,8,128],f16>
    %int0_7871 = torch.constant.int 0
    %7290 = torch.aten.clone %7289, %int0_7871 : !torch.vtensor<[4,?,32,8,128],f16>, !torch.int -> !torch.vtensor<[4,?,32,8,128],f16>
    torch.bind_symbolic_shape %7290, [%453], affine_map<()[s0] -> (4, s0, 32, 8, 128)> : !torch.vtensor<[4,?,32,8,128],f16>
    %int4_7872 = torch.constant.int 4
    %int8_7873 = torch.constant.int 8
    %int128_7874 = torch.constant.int 128
    %7291 = torch.prim.ListConstruct %int4_7872, %457, %int8_7873, %int128_7874 : (!torch.int, !torch.int, !torch.int, !torch.int) -> !torch.list<int>
    %7292 = torch.aten._unsafe_view %7290, %7291 : !torch.vtensor<[4,?,32,8,128],f16>, !torch.list<int> -> !torch.vtensor<[4,?,8,128],f16>
    torch.bind_symbolic_shape %7292, [%453], affine_map<()[s0] -> (4, s0 * 32, 8, 128)> : !torch.vtensor<[4,?,8,128],f16>
    %int-2_7875 = torch.constant.int -2
    %7293 = torch.aten.unsqueeze %7288, %int-2_7875 : !torch.vtensor<[4,?,8,128],f16>, !torch.int -> !torch.vtensor<[4,?,8,1,128],f16>
    torch.bind_symbolic_shape %7293, [%453], affine_map<()[s0] -> (4, s0 * 32, 8, 1, 128)> : !torch.vtensor<[4,?,8,1,128],f16>
    %int4_7876 = torch.constant.int 4
    %int8_7877 = torch.constant.int 8
    %int4_7878 = torch.constant.int 4
    %int128_7879 = torch.constant.int 128
    %7294 = torch.prim.ListConstruct %int4_7876, %457, %int8_7877, %int4_7878, %int128_7879 : (!torch.int, !torch.int, !torch.int, !torch.int, !torch.int) -> !torch.list<int>
    %false_7880 = torch.constant.bool false
    %7295 = torch.aten.expand %7293, %7294, %false_7880 : !torch.vtensor<[4,?,8,1,128],f16>, !torch.list<int>, !torch.bool -> !torch.vtensor<[4,?,8,4,128],f16>
    torch.bind_symbolic_shape %7295, [%453], affine_map<()[s0] -> (4, s0 * 32, 8, 4, 128)> : !torch.vtensor<[4,?,8,4,128],f16>
    %int0_7881 = torch.constant.int 0
    %7296 = torch.aten.clone %7295, %int0_7881 : !torch.vtensor<[4,?,8,4,128],f16>, !torch.int -> !torch.vtensor<[4,?,8,4,128],f16>
    torch.bind_symbolic_shape %7296, [%453], affine_map<()[s0] -> (4, s0 * 32, 8, 4, 128)> : !torch.vtensor<[4,?,8,4,128],f16>
    %int4_7882 = torch.constant.int 4
    %int32_7883 = torch.constant.int 32
    %int128_7884 = torch.constant.int 128
    %7297 = torch.prim.ListConstruct %int4_7882, %457, %int32_7883, %int128_7884 : (!torch.int, !torch.int, !torch.int, !torch.int) -> !torch.list<int>
    %7298 = torch.aten._unsafe_view %7296, %7297 : !torch.vtensor<[4,?,8,4,128],f16>, !torch.list<int> -> !torch.vtensor<[4,?,32,128],f16>
    torch.bind_symbolic_shape %7298, [%453], affine_map<()[s0] -> (4, s0 * 32, 32, 128)> : !torch.vtensor<[4,?,32,128],f16>
    %int-2_7885 = torch.constant.int -2
    %7299 = torch.aten.unsqueeze %7292, %int-2_7885 : !torch.vtensor<[4,?,8,128],f16>, !torch.int -> !torch.vtensor<[4,?,8,1,128],f16>
    torch.bind_symbolic_shape %7299, [%453], affine_map<()[s0] -> (4, s0 * 32, 8, 1, 128)> : !torch.vtensor<[4,?,8,1,128],f16>
    %int4_7886 = torch.constant.int 4
    %int8_7887 = torch.constant.int 8
    %int4_7888 = torch.constant.int 4
    %int128_7889 = torch.constant.int 128
    %7300 = torch.prim.ListConstruct %int4_7886, %457, %int8_7887, %int4_7888, %int128_7889 : (!torch.int, !torch.int, !torch.int, !torch.int, !torch.int) -> !torch.list<int>
    %false_7890 = torch.constant.bool false
    %7301 = torch.aten.expand %7299, %7300, %false_7890 : !torch.vtensor<[4,?,8,1,128],f16>, !torch.list<int>, !torch.bool -> !torch.vtensor<[4,?,8,4,128],f16>
    torch.bind_symbolic_shape %7301, [%453], affine_map<()[s0] -> (4, s0 * 32, 8, 4, 128)> : !torch.vtensor<[4,?,8,4,128],f16>
    %int0_7891 = torch.constant.int 0
    %7302 = torch.aten.clone %7301, %int0_7891 : !torch.vtensor<[4,?,8,4,128],f16>, !torch.int -> !torch.vtensor<[4,?,8,4,128],f16>
    torch.bind_symbolic_shape %7302, [%453], affine_map<()[s0] -> (4, s0 * 32, 8, 4, 128)> : !torch.vtensor<[4,?,8,4,128],f16>
    %int4_7892 = torch.constant.int 4
    %int32_7893 = torch.constant.int 32
    %int128_7894 = torch.constant.int 128
    %7303 = torch.prim.ListConstruct %int4_7892, %457, %int32_7893, %int128_7894 : (!torch.int, !torch.int, !torch.int, !torch.int) -> !torch.list<int>
    %7304 = torch.aten._unsafe_view %7302, %7303 : !torch.vtensor<[4,?,8,4,128],f16>, !torch.list<int> -> !torch.vtensor<[4,?,32,128],f16>
    torch.bind_symbolic_shape %7304, [%453], affine_map<()[s0] -> (4, s0 * 32, 32, 128)> : !torch.vtensor<[4,?,32,128],f16>
    %int1_7895 = torch.constant.int 1
    %int2_7896 = torch.constant.int 2
    %7305 = torch.aten.transpose.int %7187, %int1_7895, %int2_7896 : !torch.vtensor<[4,1,32,128],f16>, !torch.int, !torch.int -> !torch.vtensor<[4,32,1,128],f16>
    %int1_7897 = torch.constant.int 1
    %int2_7898 = torch.constant.int 2
    %7306 = torch.aten.transpose.int %7298, %int1_7897, %int2_7898 : !torch.vtensor<[4,?,32,128],f16>, !torch.int, !torch.int -> !torch.vtensor<[4,32,?,128],f16>
    torch.bind_symbolic_shape %7306, [%453], affine_map<()[s0] -> (4, 32, s0 * 32, 128)> : !torch.vtensor<[4,32,?,128],f16>
    %int1_7899 = torch.constant.int 1
    %int2_7900 = torch.constant.int 2
    %7307 = torch.aten.transpose.int %7304, %int1_7899, %int2_7900 : !torch.vtensor<[4,?,32,128],f16>, !torch.int, !torch.int -> !torch.vtensor<[4,32,?,128],f16>
    torch.bind_symbolic_shape %7307, [%453], affine_map<()[s0] -> (4, 32, s0 * 32, 128)> : !torch.vtensor<[4,32,?,128],f16>
    %float0.000000e00_7901 = torch.constant.float 0.000000e+00
    %false_7902 = torch.constant.bool false
    %none_7903 = torch.constant.none
    %7308:2 = torch.operator "torch.aten._scaled_dot_product_flash_attention_for_cpu"(%7305, %7306, %7307, %float0.000000e00_7901, %false_7902, %470, %none_7903) : (!torch.vtensor<[4,32,1,128],f16>, !torch.vtensor<[4,32,?,128],f16>, !torch.vtensor<[4,32,?,128],f16>, !torch.float, !torch.bool, !torch.vtensor<[4,1,1,?],f16>, !torch.none) -> (!torch.vtensor<[4,32,1,128],f16>, !torch.vtensor<[4,32,1],f32>) 
    %int1_7904 = torch.constant.int 1
    %int2_7905 = torch.constant.int 2
    %7309 = torch.aten.transpose.int %7308#0, %int1_7904, %int2_7905 : !torch.vtensor<[4,32,1,128],f16>, !torch.int, !torch.int -> !torch.vtensor<[4,1,32,128],f16>
    %int4_7906 = torch.constant.int 4
    %int1_7907 = torch.constant.int 1
    %int4096_7908 = torch.constant.int 4096
    %7310 = torch.prim.ListConstruct %int4_7906, %int1_7907, %int4096_7908 : (!torch.int, !torch.int, !torch.int) -> !torch.list<int>
    %7311 = torch.aten.view %7309, %7310 : !torch.vtensor<[4,1,32,128],f16>, !torch.list<int> -> !torch.vtensor<[4,1,4096],f16>
    %int-2_7909 = torch.constant.int -2
    %int-1_7910 = torch.constant.int -1
    %7312 = torch.aten.transpose.int %445, %int-2_7909, %int-1_7910 : !torch.vtensor<[4096,4096],f16>, !torch.int, !torch.int -> !torch.vtensor<[4096,4096],f16>
    %int5_7911 = torch.constant.int 5
    %7313 = torch.prims.convert_element_type %7312, %int5_7911 : !torch.vtensor<[4096,4096],f16>, !torch.int -> !torch.vtensor<[4096,4096],f16>
    %int4_7912 = torch.constant.int 4
    %int4096_7913 = torch.constant.int 4096
    %7314 = torch.prim.ListConstruct %int4_7912, %int4096_7913 : (!torch.int, !torch.int) -> !torch.list<int>
    %7315 = torch.aten.view %7311, %7314 : !torch.vtensor<[4,1,4096],f16>, !torch.list<int> -> !torch.vtensor<[4,4096],f16>
    %7316 = torch.aten.mm %7315, %7313 : !torch.vtensor<[4,4096],f16>, !torch.vtensor<[4096,4096],f16> -> !torch.vtensor<[4,4096],f16>
    %int4_7914 = torch.constant.int 4
    %int1_7915 = torch.constant.int 1
    %int4096_7916 = torch.constant.int 4096
    %7317 = torch.prim.ListConstruct %int4_7914, %int1_7915, %int4096_7916 : (!torch.int, !torch.int, !torch.int) -> !torch.list<int>
    %7318 = torch.aten.view %7316, %7317 : !torch.vtensor<[4,4096],f16>, !torch.list<int> -> !torch.vtensor<[4,1,4096],f16>
    %int1_7917 = torch.constant.int 1
    %7319 = torch.aten.add.Tensor %7140, %7318, %int1_7917 : !torch.vtensor<[4,1,4096],f16>, !torch.vtensor<[4,1,4096],f16>, !torch.int -> !torch.vtensor<[4,1,4096],f16>
    %int6_7918 = torch.constant.int 6
    %7320 = torch.prims.convert_element_type %7319, %int6_7918 : !torch.vtensor<[4,1,4096],f16>, !torch.int -> !torch.vtensor<[4,1,4096],f32>
    %int2_7919 = torch.constant.int 2
    %7321 = torch.aten.pow.Tensor_Scalar %7320, %int2_7919 : !torch.vtensor<[4,1,4096],f32>, !torch.int -> !torch.vtensor<[4,1,4096],f32>
    %int-1_7920 = torch.constant.int -1
    %7322 = torch.prim.ListConstruct %int-1_7920 : (!torch.int) -> !torch.list<int>
    %true_7921 = torch.constant.bool true
    %none_7922 = torch.constant.none
    %7323 = torch.aten.mean.dim %7321, %7322, %true_7921, %none_7922 : !torch.vtensor<[4,1,4096],f32>, !torch.list<int>, !torch.bool, !torch.none -> !torch.vtensor<[4,1,1],f32>
    %float9.999990e-06_7923 = torch.constant.float 9.9999997473787516E-6
    %int1_7924 = torch.constant.int 1
    %7324 = torch.aten.add.Scalar %7323, %float9.999990e-06_7923, %int1_7924 : !torch.vtensor<[4,1,1],f32>, !torch.float, !torch.int -> !torch.vtensor<[4,1,1],f32>
    %7325 = torch.aten.rsqrt %7324 : !torch.vtensor<[4,1,1],f32> -> !torch.vtensor<[4,1,1],f32>
    %7326 = torch.aten.mul.Tensor %7320, %7325 : !torch.vtensor<[4,1,4096],f32>, !torch.vtensor<[4,1,1],f32> -> !torch.vtensor<[4,1,4096],f32>
    %int5_7925 = torch.constant.int 5
    %7327 = torch.prims.convert_element_type %7326, %int5_7925 : !torch.vtensor<[4,1,4096],f32>, !torch.int -> !torch.vtensor<[4,1,4096],f16>
    %7328 = torch.aten.mul.Tensor %446, %7327 : !torch.vtensor<[4096],f32>, !torch.vtensor<[4,1,4096],f16> -> !torch.vtensor<[4,1,4096],f32>
    %int5_7926 = torch.constant.int 5
    %7329 = torch.prims.convert_element_type %7328, %int5_7926 : !torch.vtensor<[4,1,4096],f32>, !torch.int -> !torch.vtensor<[4,1,4096],f16>
    %int-2_7927 = torch.constant.int -2
    %int-1_7928 = torch.constant.int -1
    %7330 = torch.aten.transpose.int %447, %int-2_7927, %int-1_7928 : !torch.vtensor<[14336,4096],f16>, !torch.int, !torch.int -> !torch.vtensor<[4096,14336],f16>
    %int5_7929 = torch.constant.int 5
    %7331 = torch.prims.convert_element_type %7330, %int5_7929 : !torch.vtensor<[4096,14336],f16>, !torch.int -> !torch.vtensor<[4096,14336],f16>
    %int4_7930 = torch.constant.int 4
    %int4096_7931 = torch.constant.int 4096
    %7332 = torch.prim.ListConstruct %int4_7930, %int4096_7931 : (!torch.int, !torch.int) -> !torch.list<int>
    %7333 = torch.aten.view %7329, %7332 : !torch.vtensor<[4,1,4096],f16>, !torch.list<int> -> !torch.vtensor<[4,4096],f16>
    %7334 = torch.aten.mm %7333, %7331 : !torch.vtensor<[4,4096],f16>, !torch.vtensor<[4096,14336],f16> -> !torch.vtensor<[4,14336],f16>
    %int4_7932 = torch.constant.int 4
    %int1_7933 = torch.constant.int 1
    %int14336_7934 = torch.constant.int 14336
    %7335 = torch.prim.ListConstruct %int4_7932, %int1_7933, %int14336_7934 : (!torch.int, !torch.int, !torch.int) -> !torch.list<int>
    %7336 = torch.aten.view %7334, %7335 : !torch.vtensor<[4,14336],f16>, !torch.list<int> -> !torch.vtensor<[4,1,14336],f16>
    %7337 = torch.aten.silu %7336 : !torch.vtensor<[4,1,14336],f16> -> !torch.vtensor<[4,1,14336],f16>
    %int-2_7935 = torch.constant.int -2
    %int-1_7936 = torch.constant.int -1
    %7338 = torch.aten.transpose.int %448, %int-2_7935, %int-1_7936 : !torch.vtensor<[14336,4096],f16>, !torch.int, !torch.int -> !torch.vtensor<[4096,14336],f16>
    %int5_7937 = torch.constant.int 5
    %7339 = torch.prims.convert_element_type %7338, %int5_7937 : !torch.vtensor<[4096,14336],f16>, !torch.int -> !torch.vtensor<[4096,14336],f16>
    %int4_7938 = torch.constant.int 4
    %int4096_7939 = torch.constant.int 4096
    %7340 = torch.prim.ListConstruct %int4_7938, %int4096_7939 : (!torch.int, !torch.int) -> !torch.list<int>
    %7341 = torch.aten.view %7329, %7340 : !torch.vtensor<[4,1,4096],f16>, !torch.list<int> -> !torch.vtensor<[4,4096],f16>
    %7342 = torch.aten.mm %7341, %7339 : !torch.vtensor<[4,4096],f16>, !torch.vtensor<[4096,14336],f16> -> !torch.vtensor<[4,14336],f16>
    %int4_7940 = torch.constant.int 4
    %int1_7941 = torch.constant.int 1
    %int14336_7942 = torch.constant.int 14336
    %7343 = torch.prim.ListConstruct %int4_7940, %int1_7941, %int14336_7942 : (!torch.int, !torch.int, !torch.int) -> !torch.list<int>
    %7344 = torch.aten.view %7342, %7343 : !torch.vtensor<[4,14336],f16>, !torch.list<int> -> !torch.vtensor<[4,1,14336],f16>
    %7345 = torch.aten.mul.Tensor %7337, %7344 : !torch.vtensor<[4,1,14336],f16>, !torch.vtensor<[4,1,14336],f16> -> !torch.vtensor<[4,1,14336],f16>
    %int-2_7943 = torch.constant.int -2
    %int-1_7944 = torch.constant.int -1
    %7346 = torch.aten.transpose.int %449, %int-2_7943, %int-1_7944 : !torch.vtensor<[4096,14336],f16>, !torch.int, !torch.int -> !torch.vtensor<[14336,4096],f16>
    %int5_7945 = torch.constant.int 5
    %7347 = torch.prims.convert_element_type %7346, %int5_7945 : !torch.vtensor<[14336,4096],f16>, !torch.int -> !torch.vtensor<[14336,4096],f16>
    %int4_7946 = torch.constant.int 4
    %int14336_7947 = torch.constant.int 14336
    %7348 = torch.prim.ListConstruct %int4_7946, %int14336_7947 : (!torch.int, !torch.int) -> !torch.list<int>
    %7349 = torch.aten.view %7345, %7348 : !torch.vtensor<[4,1,14336],f16>, !torch.list<int> -> !torch.vtensor<[4,14336],f16>
    %7350 = torch.aten.mm %7349, %7347 : !torch.vtensor<[4,14336],f16>, !torch.vtensor<[14336,4096],f16> -> !torch.vtensor<[4,4096],f16>
    %int4_7948 = torch.constant.int 4
    %int1_7949 = torch.constant.int 1
    %int4096_7950 = torch.constant.int 4096
    %7351 = torch.prim.ListConstruct %int4_7948, %int1_7949, %int4096_7950 : (!torch.int, !torch.int, !torch.int) -> !torch.list<int>
    %7352 = torch.aten.view %7350, %7351 : !torch.vtensor<[4,4096],f16>, !torch.list<int> -> !torch.vtensor<[4,1,4096],f16>
    %int1_7951 = torch.constant.int 1
    %7353 = torch.aten.add.Tensor %7319, %7352, %int1_7951 : !torch.vtensor<[4,1,4096],f16>, !torch.vtensor<[4,1,4096],f16>, !torch.int -> !torch.vtensor<[4,1,4096],f16>
    %int5_7952 = torch.constant.int 5
    %7354 = torch.prims.convert_element_type %7353, %int5_7952 : !torch.vtensor<[4,1,4096],f16>, !torch.int -> !torch.vtensor<[4,1,4096],f16>
    %int6_7953 = torch.constant.int 6
    %7355 = torch.prims.convert_element_type %7354, %int6_7953 : !torch.vtensor<[4,1,4096],f16>, !torch.int -> !torch.vtensor<[4,1,4096],f32>
    %int2_7954 = torch.constant.int 2
    %7356 = torch.aten.pow.Tensor_Scalar %7355, %int2_7954 : !torch.vtensor<[4,1,4096],f32>, !torch.int -> !torch.vtensor<[4,1,4096],f32>
    %int-1_7955 = torch.constant.int -1
    %7357 = torch.prim.ListConstruct %int-1_7955 : (!torch.int) -> !torch.list<int>
    %true_7956 = torch.constant.bool true
    %none_7957 = torch.constant.none
    %7358 = torch.aten.mean.dim %7356, %7357, %true_7956, %none_7957 : !torch.vtensor<[4,1,4096],f32>, !torch.list<int>, !torch.bool, !torch.none -> !torch.vtensor<[4,1,1],f32>
    %float9.999990e-06_7958 = torch.constant.float 9.9999997473787516E-6
    %int1_7959 = torch.constant.int 1
    %7359 = torch.aten.add.Scalar %7358, %float9.999990e-06_7958, %int1_7959 : !torch.vtensor<[4,1,1],f32>, !torch.float, !torch.int -> !torch.vtensor<[4,1,1],f32>
    %7360 = torch.aten.rsqrt %7359 : !torch.vtensor<[4,1,1],f32> -> !torch.vtensor<[4,1,1],f32>
    %7361 = torch.aten.mul.Tensor %7355, %7360 : !torch.vtensor<[4,1,4096],f32>, !torch.vtensor<[4,1,1],f32> -> !torch.vtensor<[4,1,4096],f32>
    %int5_7960 = torch.constant.int 5
    %7362 = torch.prims.convert_element_type %7361, %int5_7960 : !torch.vtensor<[4,1,4096],f32>, !torch.int -> !torch.vtensor<[4,1,4096],f16>
    %7363 = torch.aten.mul.Tensor %450, %7362 : !torch.vtensor<[4096],f32>, !torch.vtensor<[4,1,4096],f16> -> !torch.vtensor<[4,1,4096],f32>
    %int5_7961 = torch.constant.int 5
    %7364 = torch.prims.convert_element_type %7363, %int5_7961 : !torch.vtensor<[4,1,4096],f32>, !torch.int -> !torch.vtensor<[4,1,4096],f16>
    %int-2_7962 = torch.constant.int -2
    %int-1_7963 = torch.constant.int -1
    %7365 = torch.aten.transpose.int %451, %int-2_7962, %int-1_7963 : !torch.vtensor<[128256,4096],f16>, !torch.int, !torch.int -> !torch.vtensor<[4096,128256],f16>
    %int5_7964 = torch.constant.int 5
    %7366 = torch.prims.convert_element_type %7365, %int5_7964 : !torch.vtensor<[4096,128256],f16>, !torch.int -> !torch.vtensor<[4096,128256],f16>
    %int4_7965 = torch.constant.int 4
    %int4096_7966 = torch.constant.int 4096
    %7367 = torch.prim.ListConstruct %int4_7965, %int4096_7966 : (!torch.int, !torch.int) -> !torch.list<int>
    %7368 = torch.aten.view %7364, %7367 : !torch.vtensor<[4,1,4096],f16>, !torch.list<int> -> !torch.vtensor<[4,4096],f16>
    %7369 = torch.aten.mm %7368, %7366 : !torch.vtensor<[4,4096],f16>, !torch.vtensor<[4096,128256],f16> -> !torch.vtensor<[4,128256],f16>
    %int4_7967 = torch.constant.int 4
    %int1_7968 = torch.constant.int 1
    %int128256 = torch.constant.int 128256
    %7370 = torch.prim.ListConstruct %int4_7967, %int1_7968, %int128256 : (!torch.int, !torch.int, !torch.int) -> !torch.list<int>
    %7371 = torch.aten.view %7369, %7370 : !torch.vtensor<[4,128256],f16>, !torch.list<int> -> !torch.vtensor<[4,1,128256],f16>
    return %7371 : !torch.vtensor<[4,1,128256],f16>
  }
  util.func private @paged_attention_kv_cache_gather_CACHE_SIZE_T_BLOCK_32_PART_2_HEAD_COUNT_KV_8_BLOCK_SEQ_STRIDE_32_ATTN_HEAD_DIM_128_f16_BATCH_PAGES_i64__i64__i64_BATCH_PAGES_HEAD_COUNT_KV_8_BLOCK_SEQ_STRIDE_32_ATTN_HEAD_DIM_128_f16(%arg0: tensor<?x32x2x8x32x128xf16>, %arg1: tensor<?x?xi64>, %arg2: tensor<i64>, %arg3: tensor<i64>) -> tensor<?x?x8x32x128xf16> {
    %c0 = arith.constant 0 : index
    %c1 = arith.constant 1 : index
    %extracted = tensor.extract %arg2[] : tensor<i64>
    %extracted_0 = tensor.extract %arg3[] : tensor<i64>
    %0 = arith.index_cast %extracted : i64 to index
    %1 = arith.index_cast %extracted_0 : i64 to index
    %dim = tensor.dim %arg0, %c0 : tensor<?x32x2x8x32x128xf16>
    %dim_1 = tensor.dim %arg1, %c0 : tensor<?x?xi64>
    %dim_2 = tensor.dim %arg1, %c1 : tensor<?x?xi64>
    %extracted_slice = tensor.extract_slice %arg0[0, %0, %1, 0, 0, 0] [%dim, 1, 1, 8, 32, 128] [1, 1, 1, 1, 1, 1] : tensor<?x32x2x8x32x128xf16> to tensor<?x8x32x128xf16>
    %2 = tensor.empty(%dim_1, %dim_2) : tensor<?x?x8x32x128xf16>
    %3 = iree_linalg_ext.gather dimension_map = [0] ins(%extracted_slice, %arg1 : tensor<?x8x32x128xf16>, tensor<?x?xi64>) outs(%2 : tensor<?x?x8x32x128xf16>) -> tensor<?x?x8x32x128xf16>
    util.return %3 : tensor<?x?x8x32x128xf16>
  }
}
